p1_navigation/checkpoint.pth (torch_old, 54629 bytes, 6 tensors)

model.0.weight f4 [128, 37]
000000 ee a4 9c bd 58 e9 77 3d 57 1d de bd 31 76 15 be
       -0.07648645 0.06052527 -0.1084544 -0.14595868
000010 fe d1 3e 3d ea 85 05 3e c6 a9 d7 bd 6c 30 95 3d
       0.046586983 0.13039365 -0.105304286 0.07284626
000020 54 4e 5c be 31 38 bd 3d eb 2e dd be 05 58 be 3d
       -0.21514255 0.09239233 -0.43199858 0.09294132
000030 53 cc 20 be a3 d3 88 3c c5 fe f4 be 8b 98 1f 3d
       -0.15702944 0.016702479 -0.47850624 0.038963836
000040 d2 27 b0 be 32 7d b0 3d be 28 83 3c 9c 57 d2 bd
       -0.3440538 0.08617629 0.016010638 -0.102706164
000050 2b b3 ca bb 39 d6 21 3e f9 13 fe bd a0 67 2a 3e
       -0.0061859093 0.15804376 -0.12406153 0.16641092
000060 48 0e 6a be ff eb 3f 3d fd b6 48 3d 72 23 6f bd
       -0.2285701 0.046855923 0.049002636 -0.058383413
000070 d8 90 7f be f5 12 5d 3e 45 6c b7 bd 16 c3 98 3d
       -0.24957597 0.21589263 -0.08956198 0.07459085
000080 07 d6 85 be 0e eb 82 3c df cd 8e be 82 4b 36 be
       -0.26139852 0.015981223 -0.27891442 -0.17802241
000090 20 3b b2 bd e3 b9 e0 3d 65 df 35 bd 0c 4c a9 3d
       -0.087026834 0.10972955 -0.0444025 0.08266458
0000a0 41 72 d7 3c 3f af 9f 3c 9a d3 6c be 1a ef 92 be
       0.026299598 0.019492744 -0.23127595 -0.28698045
0000b0 39 ac aa 3c 8c 02 27 be d0 ff 1e 3e 50 8d 71 3e
       0.020834075 -0.16309565 0.15527272 0.23589063
0000c0 21 c6 20 be 45 3b 15 bf 9c 18 b5 bc a6 5f 05 bf
       -0.1570058 -0.58293563 -0.022106461 -0.5209907
0000d0 3d 6a ae bd 9f 29 88 3d 39 b8 e8 3d 7a df 8e bd
       -0.08516357 0.066485636 0.11363263 -0.069762185
0000e0 9d 87 6e be 12 a7 34 be 40 25 1a be 6b 9b 95 be
       -0.2329392 -0.17641857 -0.15053272 -0.29220137
0000f0 ab 03 53 3e 6c 8e 4f be 42 64 d5 be 68 e5 b1 3d
       0.20606868 -0.20269173 -0.41678053 0.08686334
000100 14 9e 97 3d 91 71 8e bc 40 aa 4c be 03 f2 df bd
       0.07403198 -0.017388137 -0.1998682 -0.10934832
000110 e8 58 3d 3e be 72 bf 3d 0d a5 91 bd 04 f4 8e bd
       0.18490946 0.09348057 -0.07111559 -0.06980136
000120 e0 ed fe 3d 03 b8 21 3d 6d 2f 4c 3e b4 b4 63 3d
       0.12447715 0.039482128 0.19939966 0.055592254
000130 21 1a ee 3d 9a 66 93 be 54 a6 c8 3d bf 6b 61 be
       0.116260774 -0.28789216 0.097973496 -0.22013758
000140 91 da ca bd 50 da 78 3e 54 68 95 3d 2a 91 e5 be
       -0.099049695 0.2430203 0.0729529 -0.44837314
000150 a3 9b 06 be ec 3a 8a bc 98 11 00 3e 2b 1a 9a be
       -0.13145308 -0.0168738 0.12506711 -0.3009809
000160 4a da f2 be 96 5c df bd ba 63 6f 3e 4f 4d 8f 3d
       -0.47432166 -0.10906331 0.23377886 0.06997167
000170 28 41 0d be 7c 86 83 3c c9 86 b0 be f3 49 20 bd
       -0.13794386 0.016055338 -0.34477833 -0.039133023
000180 0d 36 8c 3e 33 0a aa be b8 70 b9 be 77 de 8b be
       0.27384987 -0.33210906 -0.3621881 -0.27318165
000190 3e 97 01 3e ba c5 2b 3e 03 69 4d bd d3 2c 78 be
       0.1265535 0.16774645 -0.050148975 -0.24235849
0001a0 8a b5 77 be 72 c7 82 be da 32 10 3e 9f fe e7 be
       -0.24190345 -0.2554279 0.14081898 -0.45311448
0001b0 94 93 94 be ab 5e 59 3d 89 43 9c bc d7 54 83 3e
       -0.29018843 0.053068798 -0.019075172 0.25650665
0001c0 14 60 88 be c5 c7 61 3d 38 5c 3d 3c 8f f3 f7 be
       -0.26635802 0.055122156 0.011557631 -0.48428008
0001d0 99 17 8d 3d 22 46 4a 3d 05 5d d2 bc 29 81 bc 3c
       0.068892665 0.04938329 -0.02567912 0.023010807
0001e0 74 ec ee 3c 9d 7c ba 3c 49 1f 7f bd eb e4 43 bc
       0.029165484 0.022764498 -0.062285695 -0.011956434
0001f0 f8 7c d8 bc 0c b0 3a be c1 87 19 3d 43 d6 96 3d
       -0.026426777 -0.18231219 0.03748298 0.07365086
000200 f7 bd f6 bd 24 a3 64 be 23 4b b1 bd 53 fc af 3d
       -0.12047952 -0.22327858 -0.08656909 0.08593049
000210 cd 03 d8 bc c0 75 a1 3c eb b5 03 bd 10 95 2e bc
       -0.026369 0.019709468 -0.032155912 -0.010655656
000220 2c 40 0c bd 7c f4 90 be 13 54 d4 3d 9b 6c a3 3e
       -0.034240887 -0.28311527 0.103675984 0.31918797
000230 32 bc b5 3e 90 22 8f 3e 52 aa 6c 3d a8 5f ab bb
       0.35495144 0.27956057 0.057779618 -0.005229909
000240 e1 50 80 be a4 e9 b7 bd 8f 75 2b 3d e2 8a bc bc
       -0.25061706 -0.0898011 0.04186016 -0.023015443
000250 84 9d 1d be c4 66 61 be 7e 0d c1 bd 31 c6 62 be
       -0.15392119 -0.22011858 -0.094264016 -0.22145917
000260 f6 9d 46 3d a2 1a 49 be d3 17 a5 be ff 7a 5b 3e
       0.048490487 -0.19639066 -0.3224474 0.21433638
000270 93 1e 9d bd 47 9b ac bf ed 8e fe bd 80 6e 02 be
       -0.07671847 -1.3484887 -0.12429605 -0.12737465
000280 0c 25 bb 3d 18 c7 75 be 72 d8 fe bb a1 9f 1d be
       0.091379255 -0.2400173 -0.007777267 -0.15392925
000290 3b 26 94 be c5 53 a6 3d 14 dd a0 be b9 bd 14 bc
       -0.28935418 0.081214465 -0.3141867 -0.0090784365
0002a0 73 ec ab be 65 a2 d1 be 27 dd b2 3e 37 18 2a be
       -0.33578834 -0.4094421 0.3493435 -0.166108
0002b0 0f 9d 74 bf 5d 9c f5 3d eb 6c 46 be 35 3a f9 3d
       -0.9555215 0.119927146 -0.19377486 0.12169305
0002c0 a0 3a 85 be e3 98 8b be 72 e0 ab bd 38 9d 59 be
       -0.2602129 -0.2726508 -0.08392419 -0.2125138
0002d0 97 5a 67 3e 2b 42 e1 be 7b 5b a5 be f0 42 a0 bd
       0.22593151 -0.43995795 -0.32296357 -0.07825267
0002e0 a7 16 e9 3b e0 34 25 be 1c 19 6f bc b1 01 d5 3d
       0.007113296 -0.16133451 -0.014593389 0.10400713
0002f0 d5 78 c1 3c ea 3c 8e bc 73 ef 10 3e a4 ce 26 bc
       0.023617188 -0.01736303 0.14153843 -0.010181103
000300 a7 79 a9 3d a2 b4 ce bd 25 4a 4f be b5 c1 a4 bd
       0.082751565 -0.10093047 -0.20243128 -0.08044759
000310 11 ce 00 be 91 0a f6 bb 4d f0 10 bd 3f e4 e8 3c
       -0.12578608 -0.007508584 -0.03538542 0.028429149
000320 56 74 0e be 21 79 2c 3e e2 4c 96 bc b1 a2 ee bd
       -0.13911566 0.16843082 -0.018347207 -0.11652125
000330 56 84 ab 3d 88 1c 67 3d a3 ca 82 3e 82 6c af 3d
       0.083748505 0.056423694 0.25545225 0.08565618
000340 9f f6 38 be 5e 75 16 bd b6 56 78 bd 9e 3f 55 bd
       -0.18062828 -0.036733024 -0.06062957 -0.052062623
000350 8c e9 b4 3d 25 b1 25 3d 87 6e 97 bd e8 d5 95 3e
       0.08833608 0.04045214 -0.07394128 0.2926476
000360 46 7d 74 be 9a f4 00 bf 84 a4 49 be 22 9e bb bf
       -0.23875913 -0.5037323 -0.19691664 -1.4657633
000370 98 58 cf 3d ac 8a 5f 3d 7e d9 fc 3c 6a 24 9e 3d
       0.1012432 0.054575607 0.030865427 0.07721789
000380 a0 cb fd bd 77 a6 64 3d 12 2e 73 be 0c 45 40 be
       -0.12392354 0.055822816 -0.23748043 -0.1877634
000390 8d 46 15 be 59 e2 29 3e 09 ea 1c 3e c6 7f 62 3d
       -0.14577694 0.16590251 0.15323652 0.055297635
0003a0 2a 65 0b bd 70 e3 c5 3e 63 80 5b 3c c2 b8 2f bc
       -0.034032024 0.38650084 0.013397309 -0.010725202
0003b0 75 83 d4 3e b7 72 13 be ee 82 2f be 9b 96 e5 3d
       0.41506544 -0.14399229 -0.1713979 0.11210366
0003c0 b0 4b 3c 3e 81 3c 28 3e d5 e9 02 3d d0 be b7 bc
       0.18388247 0.1642933 0.03196128 -0.022429854
0003d0 d6 5e 0d 3d 5f 4b 15 be c2 fb 8f 3d b5 41 b6 bd
       0.03451427 -0.14579533 0.07030441 -0.08899251
0003e0 85 94 c7 3d ab 32 d0 bd 11 a5 26 be a1 ff 88 3d
       0.09745125 -0.10165914 -0.16273905 0.06689382
0003f0 c6 46 40 3e 68 54 97 3e 11 7e b2 be 8b ba 2e be
       0.18776998 0.29556584 -0.34861806 -0.17063348

model.0.bias f4 [128]
000000 5d 27 63 bd 43 9e 03 bd e2 8f 87 bd ea d3 19 bd
       -0.05545746 -0.032133352 -0.0661924 -0.037555613
000010 ff 4a 86 ba 54 55 d3 bd 32 bf ab 3d 27 22 b2 3d
       -0.0010245739 -0.103190094 0.08386077 0.0869792
000020 43 53 49 be 53 c2 24 3b ce 04 86 bd 74 5d d6 3c
       -0.19660668 0.002514024 -0.06543885 0.026167609
000030 a0 11 c2 bd 36 bc 69 bd 36 8c e7 bd 05 da 32 bd
       -0.09476018 -0.057064258 -0.1130604 -0.04366495
000040 54 39 81 3c 44 7d 16 3c dc 21 c8 bd 85 b0 d0 bc
       0.015774406 0.009185139 -0.09772083 -0.025474796
000050 2c 14 0b be a7 a9 be bb 44 24 3c 3e 73 ac cc bd
       -0.13581914 -0.005818564 0.18373209 -0.099938296
000060 ef bc dc 3d f3 c1 68 3e b2 69 4d 3e 90 a0 fb bc
       0.10778224 0.22730236 0.20059851 -0.03071621
000070 b2 67 82 bc a2 1b 03 be 9f 37 c1 3d f7 49 8c 3d
       -0.015918586 -0.1280351 0.09434437 0.06850045
000080 eb 73 45 bd 8e e3 80 3c 72 52 14 3d 44 cc 0e be
       -0.04820625 0.015733507 0.03621144 -0.13945109
000090 4d a1 d0 3c 12 43 d6 3d a1 6d 53 bd 66 ac d4 3c
       0.02546754 0.104620114 -0.051618222 0.025961112
0000a0 c8 33 d0 bc 1b d8 47 3e 55 b7 3a 3e 29 98 77 3d
       -0.025415316 0.19516031 0.18233998 0.060447846
0000b0 88 c7 38 3c 63 4e 95 bd 5f 57 56 3d 98 7e 09 be
       0.011278041 -0.07290342 0.052329417 -0.13427198
0000c0 09 af 25 be 39 14 16 3d 17 52 58 bd fc 51 94 3d
       -0.16180052 0.03664038 -0.052812662 0.072422
0000d0 cd d2 cc 3d ac b7 99 3d 15 e5 40 3d 8e 16 21 3d
       0.100011446 0.07505736 0.04709347 0.03932815
0000e0 2e b5 5f bd d5 09 f5 bd fc 85 88 3d cc fc 88 bc
       -0.054616146 -0.11964766 0.066661805 -0.016722105
0000f0 45 c2 10 be 37 19 91 3d 9a 4a 83 3d f8 6e 39 be
       -0.14136608 0.070848875 0.064107135 -0.18108737
000100 39 a8 c6 3d f4 8a ad 3d 5f 3c 42 3a 27 08 a0 bd
       0.09700055 0.08473769 0.00074095087 -0.07814055
000110 41 e3 2c be 8e f4 21 3c 67 bb 17 3d b0 c6 45 bd
       -0.16883565 0.009884967 0.037043955 -0.048285186
000120 c6 e0 d5 3d db c7 57 be d7 4d 20 be 64 df 27 bd
       0.10443263 -0.21072333 -0.15654694 -0.040984526
000130 2f ea 71 3e ef fb 3c be 06 3d 50 3d 6e e7 ab 3d
       0.2362449 -0.1845548 0.050839446 0.08393751
000140 10 d4 75 3d 7f c5 18 3d 43 97 ed 3d 31 ed 39 be
       0.06001669 0.037297722 0.116011165 -0.18156888
000150 2d 06 ee 3c 93 c5 bf 3d 2a a4 fe 3d b3 80 2e be
       0.02905568 0.09363856 0.124336556 -0.17041282
000160 de 61 fd bd 28 40 62 3d 47 54 9f 3d 04 7d ba 3b
       -0.12372182 0.055236965 0.077797465 0.0056911726
000170 8f 73 4f be 72 c6 17 be f8 ee ca 3b 26 09 d7 3d
       -0.20258926 -0.14821795 0.006193038 0.10499792
000180 07 0f 89 bb 0b df 6d be 90 4a c0 bd e7 10 88 3d
       -0.0041826996 -0.23229615 -0.09389222 0.06643849
000190 d7 53 35 bc 14 6f 4c be 4b eb f4 3d fd 9f 13 3e
       -0.011067352 -0.19964248 0.11958941 0.144165
0001a0 2c b9 85 be 25 e1 5f be 88 10 09 be df 6a 53 3d
       -0.26117837 -0.2186323 -0.13385212 0.051615592
0001b0 40 4f 0b be 19 dc a1 bd b5 28 12 3e 6e 47 1f be
       -0.1360445 -0.079033084 0.14273341 -0.15554592
0001c0 f5 11 12 be 8e 5a 0a bd f8 63 17 3d a0 4e 1a 3e
       -0.14264663 -0.033777766 0.036960572 0.15069056
0001d0 1a 38 c4 3d 67 d3 4a 3e e3 55 d0 3d ab ea 8f bd
       0.09581013 0.19807206 0.101726316 -0.07027181
0001e0 9d 4b 66 bc 44 da 9b 3d e6 df fa bd 16 74 3f be
       -0.014056114 0.0760999 -0.122497365 -0.18696627
0001f0 9d c3 8f 3d 1f 22 09 3d 73 82 c4 3d ee 12 ad 3c
       0.07019732 0.033479806 0.09595194 0.02112719

model.2.weight f4 [64, 128]
000000 50 bb 30 bd 1c 90 07 be 0a 72 ea be b9 4f 29 3e
       -0.043147385 -0.13238567 -0.4579013 0.16534318
000010 49 c7 0f be ac 33 2c 3e f8 00 6c 3e b4 2b e6 3d
       -0.14040865 0.16816586 0.23047245 0.112388045
000020 7e b4 13 3e 93 b6 4c 3e 53 1b 09 3d 0c 11 37 3e
       0.14424321 0.19991522 0.033473324 0.17877597
000030 6c f1 a1 bd f5 86 41 bd 3f 8d a3 be ab 1d 22 3d
       -0.07907376 -0.047247846 -0.319437 0.039579075
000040 33 95 a4 3c 73 94 0d 3e ac 16 dc bd 98 20 e4 bd
       0.020090675 0.1382616 -0.10746512 -0.11139029
000050 78 3a 11 3e 13 bc 31 bd 12 55 bb bc 2e e7 14 be
       0.1418246 -0.043392252 -0.022867713 -0.14541313
000060 61 6b 98 3d 90 33 ef 3d 14 20 84 bc c1 96 df 3b
       0.07442356 0.11679757 -0.016128577 0.006823391
000070 02 61 8b 3d ea 07 37 3e 66 72 a2 be b1 83 cf 3d
       0.06805612 0.17874113 -0.31727904 0.1013254
000080 97 86 14 3b 59 e3 b2 3d fb 9c e0 bc 16 e7 0c 3b
       0.002266323 0.087347694 -0.027418604 0.0021500043
000090 e3 08 28 bd e3 9a b8 3d 63 08 bd 3d c5 95 92 3e
       -0.0410241 0.09013917 0.09230115 0.2862989
0000a0 85 ff a7 3d 43 47 8b bd bf 61 f4 bd d3 97 9a 3d
       0.08203033 -0.068007015 -0.11932706 0.075484894
0000b0 3a 94 d8 3c 43 a5 69 3d 4e 50 38 be b5 6d 69 be
       0.026437867 0.05704237 -0.17999384 -0.22795756
0000c0 98 ba 92 bd 09 87 5e be 20 e3 f3 bd a6 96 5f 3d
       -0.07164496 -0.217312 -0.11908555 0.05458703
0000d0 f6 2d af bd 7a 28 00 be 52 01 91 3d b9 d0 86 3e
       -0.08553688 -0.1251544 0.0708033 0.26331118
0000e0 a8 96 17 38 81 3f 21 bd db 3a 39 3e fd 35 9f 3c
       3.6141515e-05 -0.039367203 0.18088858 0.019434923
0000f0 eb b4 10 3e 30 f9 51 3e d3 4e 0c be e8 c5 09 bd
       0.14131515 0.20505214 -0.13701944 -0.033636004
000100 83 1f 7c bd 1e a8 98 3e e0 8b c0 3c b7 5b 3c be
       -0.06155349 0.29815763 0.023504198 -0.18394361
000110 b4 71 d1 bd 9d 92 84 bd af 3c b8 ba 4d 6a 76 be
       -0.10226765 -0.06473277 -0.0014056171 -0.24063988
000120 4b 28 15 3c 5f fb 73 be a8 7f c9 bd 5d 4e 9b 3e
       0.009103845 -0.23826359 -0.098388016 0.30333224
000130 cb bc 0b be f0 4b 01 bd c7 5c b5 bb 50 da 98 be
       -0.13646238 -0.03156656 -0.0055347416 -0.2985406
000140 6d f3 d7 ba c8 e3 80 bb fe f8 34 3d f1 cf d4 3d
       -0.0016475745 -0.0039334036 0.04418277 0.10391224
000150 ab 7d a5 3c 9b 6a f3 bc 37 0e 14 3e b0 b3 47 3b
       0.020201525 -0.02971392 0.14458548 0.0030472092
000160 a7 3e 9c bd 95 42 d7 3e 16 59 37 3e 88 93 89 be
       -0.076291375 0.42042986 0.17905077 -0.2687037
000170 9e 6b 37 3d 3f cf c0 bc 8d 4b dd 3d ab 55 0e 3d
       0.044780366 -0.023536323 0.10805426 0.034749668
000180 33 4d 14 be 96 f3 1f 3e 21 a4 88 bd de 02 3a bd
       -0.14482574 0.15620264 -0.0667193 -0.04541289
000190 1c 10 a3 3d 0a 96 94 3c b3 e6 a3 be e5 b4 ce bd
       0.07962057 0.01813795 -0.32011947 -0.10093097
0001a0 52 f8 3b 3c 9c 8e ac bd 0c d2 96 3d 5d f1 51 be
       0.011472778 -0.08425638 0.07364282 -0.20502229
0001b0 0d 62 c8 bd 4b 95 f1 bc e3 80 09 bd b2 5c 0a bd
       -0.09784327 -0.029490134 -0.03357018 -0.033779807
0001c0 0d 8f e5 bd a0 83 46 3e aa 90 3a bd 1c ab 16 bd
       -0.112089254 0.19386148 -0.04554812 -0.036784276
0001d0 44 c3 42 bd 93 d1 8a 3d 87 61 52 3e 2c 78 ec bd
       -0.0475495 0.06778254 0.20545016 -0.115463585
0001e0 b6 6d 00 3d f4 ff fd bc f3 21 06 3e ea bb 28 bd
       0.03135463 -0.031005837 0.13098888 -0.041194834
0001f0 6d d7 e9 3a fc 95 97 bd 3d 5b 75 3e 23 2c 66 3e
       0.0017840691 -0.07401654 0.23960586 0.22477774
000200 f5 3a fe bd fb 61 b3 3b f5 98 1e be 56 e1 30 3c
       -0.12413589 0.0054743267 -0.15488036 0.010795912
000210 a7 33 26 be 9b 0c 96 be 1a 12 17 3d a3 f3 9c be
       -0.16230641 -0.29306492 0.036882497 -0.3065463
000220 8d 19 33 be 97 3e c1 bd 28 ce 24 be 32 c5 de 3a
       -0.17490216 -0.09435766 -0.16094267 0.0016996025
000230 e0 ca 11 be 23 29 03 be 4c d5 0f be 8f a2 e0 3c
       -0.14237547 -0.12808661 -0.1404621 0.027421264
000240 bc de 72 3d 1d dc 1a 3d 4d 0d 48 3d 42 4e 02 3e
       0.059294447 0.037807573 0.04884081 0.12725165
000250 fe 09 cf bd 41 e3 42 be 5a 3c ce 3d 35 34 91 be
       -0.10109328 -0.19032003 0.10070105 -0.28360143
000260 49 44 6a bd 0e 1a b6 3d 88 ce 9f 3d e2 d8 d9 bd
       -0.057194028 0.08891688 0.078030646 -0.1063707
000270 74 75 13 be 3b 85 2d be ed 87 75 bd f4 86 cc bd
       -0.14400274 -0.16945355 -0.059944082 -0.09986678
000280 c9 30 04 bd 49 85 b8 3e 20 84 51 bb 2e 29 d2 bd
       -0.032273088 0.36039189 -0.0031969622 -0.10261761
000290 88 9c 26 3b 53 a6 c8 3d b4 91 d9 be bd 55 d5 3d
       0.002542289 0.09797349 -0.42493975 0.10416744
0002a0 e4 4f f6 bd 81 e1 d9 bc 92 4a 93 be 2f 09 27 be
       -0.12026957 -0.026596786 -0.2876783 -0.16312097
0002b0 9e f4 65 3c 5d af b1 bd 04 63 da bd 63 4a 77 3d
       0.014035372 -0.08676026 -0.10663417 0.060373675
0002c0 5e d1 bb bd fa c0 25 bd 3a 39 ea bd e9 6b de 3d
       -0.09170793 -0.04046724 -0.11436696 0.10860426
0002d0 a7 48 0c bb 11 14 d3 bd fa c2 9e 3d ea b5 87 3e
       -0.002140561 -0.10306562 0.077520326 0.26505977
0002e0 d8 d4 8c be 5c c2 42 3d a2 62 62 be e9 b7 ba 3c
       -0.27506137 0.047548637 -0.22107938 0.022792773
0002f0 f1 03 f1 3d a7 02 fd bc 39 72 8b bb 68 65 a1 3d
       0.1176833 -0.030885054 -0.0042555598 0.0788067
000300 b3 3c 10 3d a3 e7 03 3e 51 40 e4 3c 0a d4 81 3d
       0.035214137 0.12881331 0.0278627 0.06339271
000310 20 f7 90 3e 70 e6 d4 3d aa 35 c3 3c 89 e5 88 3d
       0.2831354 0.10395515 0.0238293 0.06684405
000320 a9 f4 7d bd ec a0 ac bd 9e 31 96 3a 32 92 65 3e
       -0.062000904 -0.08429131 0.0011458879 0.2241905
000330 22 ab 7f 3d 92 18 0e 3d 61 a3 48 be b5 86 7b be
       0.062419064 0.0346914 -0.19593574 -0.24563105
000340 af c7 46 3d 62 e7 05 3d f0 ef 70 be fe a8 e4 bd
       0.048530277 0.032691367 -0.23529029 -0.11165045
000350 61 78 18 be 3a 21 6d bd 9a 9f 9d bd fc 42 0e be
       -0.14889671 -0.057893015 -0.07696457 -0.1389274
000360 a9 d5 0b 3e ac 66 10 be 90 03 45 be 52 5e 46 bd
       0.13655724 -0.14101666 -0.1923964 -0.048429795
000370 a8 85 83 3d 14 0a 80 be 14 2d 03 be 7e 7c 8e bd
       0.06421977 -0.2500769 -0.12810165 -0.06957339
000380 f5 0d 6a bc 58 c0 0f 3d 1e e8 16 3e 20 8d 62 bd
       -0.014285554 0.035095543 0.14736983 -0.05531037
000390 96 1a 43 3e 8b ef 05 3a b6 62 53 bc 37 50 be bb
       0.1905311 0.0005109242 -0.0129019525 -0.005807902
0003a0 0c 8b 3e be 82 33 3c 3e 02 60 5b be 78 b4 e2 bd
       -0.1860773 0.18379024 -0.21423343 -0.11069578
0003b0 9b 8b ef bc ff 8d 13 3d e4 cc 6c 3d 1a a1 cf bd
       -0.029241374 0.03602409 0.057812586 -0.101381496
0003c0 87 ec 6d bc 5b 8f 22 3e 14 3d 58 bd a3 ff 74 be
       -0.014521725 0.15874998 -0.052792624 -0.23925643
0003d0 3d 39 58 bd 7e 81 cc bc 4f fb 45 3e 23 82 e7 bd
       -0.05278896 -0.02496409 0.19334148 -0.113041185
0003e0 d8 16 4d bd 61 5a e6 3d 18 da 4b bd 23 42 a4 3c
       -0.050070614 0.11247707 -0.049768537 0.020051068
0003f0 41 9a 9d 3d 93 39 bf 3d a2 7c f9 3d 4f 79 d7 3d
       0.07695437 0.09337153 0.12181975 0.10521185

model.2.bias f4 [64]
000000 bf 76 24 3d ff 3e 61 3c 2e 92 9c 3e ed 6f ca bc
       0.040152308 0.01374793 0.30580276 -0.024711573
000010 59 90 66 bd 11 92 f9 bd 96 50 c1 bd c3 3c 90 3d
       -0.056290004 -0.12186063 -0.09439199 0.070428394
000020 64 a2 89 bd 39 4d e4 bd b9 f8 9f bc b0 c4 66 3e
       -0.06720427 -0.111475416 -0.01952778 0.22535968
000030 60 d6 e0 bc 4e 5e f7 bd 5e ad 7e bd 0a 0e 0a 3d
       -0.027445972 -0.12078534 -0.062177055 0.033704795
000040 14 43 a1 3c f6 0a 93 bd ff 63 a8 bd f6 56 02 be
       0.019685306 -0.07179825 -0.08222198 -0.12728485
000050 6d ab 62 bd c6 ef ba 3b bb 5a 51 bb 2a c2 05 3e
       -0.055339266 0.0057048528 -0.0031944949 0.13062349
000060 35 18 b9 bc 17 57 93 3d d1 bb d1 3e f9 a3 23 bd
       -0.02259455 0.071943454 0.40963605 -0.0399513
000070 a3 44 7a 3c 65 10 9b bd 31 f1 ad 3c a0 0b 04 3e
       0.015275153 -0.075714864 0.021233173 0.1289506
000080 9f 13 33 be e3 f5 37 3c be c4 da 3d 50 ca f3 bd
       -0.17487954 0.011228058 0.10682057 -0.119038224
000090 e5 c3 ad bc 6f 61 83 3c 52 19 4e bc a6 2e b8 3d
       -0.021211574 0.01603767 -0.012579279 0.089932725
0000a0 04 84 a7 3c ee e3 80 bc 61 db 27 bc 5a 0a 94 3b
       0.020448692 -0.015733685 -0.010245175 0.0045178356
0000b0 af 36 9d 3e 5c c5 93 3d 74 bd ac bc 29 4f a0 bd
       0.30705783 0.07215378 -0.021086432 -0.078275986
0000c0 c0 50 71 3e 0d 77 8f bd f5 24 e0 bc 3c a9 07 bd
       0.2356596 -0.07005129 -0.027361372 -0.03312038
0000d0 0b e1 21 bd cb 16 35 3d b3 94 88 3c e4 dc a4 3e
       -0.03952126 0.04421119 0.016672468 0.32199776
0000e0 3f 07 4a bc 67 3a 70 3d 7e 32 13 3e 4a c2 3c bd
       -0.012330829 0.058649447 0.1437473 -0.046083726
0000f0 c7 97 d3 3b b2 0a 75 bd 22 b7 0e bd 1f 90 b2 bc
       0.0064573023 -0.059824653 -0.034842618 -0.021797238

model.4.weight f4 [4, 64]
000000 90 b1 62 3e e3 14 7a 3d 1d 92 1d 3e be a4 8e 3d
       0.22138047 0.061055075 0.15387769 0.06965016
000010 93 93 d3 bd e8 a3 85 be 04 19 70 be ae 89 ee bd
       -0.10330882 -0.26101613 -0.23447043 -0.11647354
000020 3d c8 26 be 22 0b 54 3e 71 97 f0 3c 1e 55 0d 3e
       -0.16287322 0.20707372 0.029369088 0.13802001
000030 72 2f 51 3d da 37 25 3e b8 ec 07 3f 3c d9 e8 3e
       0.051070638 0.16134587 0.5309558 0.45478237
000040 9a bb 05 bf 95 65 11 bd 66 7a 12 bf 03 8d a5 be
       -0.5223938 -0.035497267 -0.57218015 -0.32334146
000050 63 e2 50 bd a2 ad 87 bd e9 3a 3d 3d 16 12 29 3e
       -0.05099715 -0.06624915 0.04619876 0.16510805
000060 1c 00 e2 be 93 4f 09 3d 33 d0 43 3e 6e aa 0f 3d
       -0.44140708 0.033523154 0.1912239 0.035074644
000070 23 b5 84 3d 33 fd 44 be ad 75 c9 bc 02 cc 73 3e
       0.064798616 -0.19237213 -0.024592245 0.23808292
000080 e7 8d 13 be 14 1c 3a 3c 2c 0e 9c 3e c8 0f d6 be
       -0.144096 0.011359233 0.30479562 -0.41808915
000090 b5 64 cb 3b 45 73 35 be b3 9c 6f 3e 3b 05 f1 3d
       0.0062070736 -0.17719753 0.2339962 0.11768576
0000a0 20 d8 a7 3e c4 8e 2d be ad 19 b9 bd c2 3a b7 3d
       0.32782078 -0.16948992 -0.090381004 0.08946754
0000b0 05 3c 98 3d ac 53 a0 be 22 4e 94 3d 8a d2 03 3e
       0.07433323 -0.31313837 0.07241465 0.12873283
0000c0 f7 3e f0 3d 8e 7f 69 3e 5b 98 42 3e 6f 0a 1d 3e
       0.117307596 0.22802565 0.19003431 0.15336011
0000d0 8b e3 82 3e 7b 8b 2f 3d 7f c0 7a 3e bd d3 0c 3e
       0.25564227 0.04285763 0.24487494 0.13752647
0000e0 52 5e 40 3e 02 c5 01 3e e2 8b c1 3d 7f 9f dd 3c
       0.1878598 0.12672809 0.09450509 0.027053593
0000f0 64 27 c2 3d 7a 68 e3 3d e2 85 df 3e 19 7d 2c 3e
       0.094801694 0.11103912 0.43656832 0.16844596
000100 04 36 4a 3e e5 4a 3e bb d5 3f e4 3d ba 50 cf 3c
       0.19747168 -0.002903634 0.111449875 0.025307048
000110 83 b9 82 3d 4d 1a 01 be c0 dd 34 be 72 c3 2f 3c
       0.0638304 -0.12607689 -0.17662716 0.01072775
000120 5b 80 ac 3b d0 fe f9 3e e3 d5 1f 3e 7b 6b 06 3e
       0.0052643246 0.4882722 0.15608935 0.13126938
000130 d6 2e 2f 3e f4 d3 99 3e 3e e0 f5 3e 0a 7e 3e 3e
       0.1710771 0.3004452 0.48022646 0.18602768
000140 ee a3 69 3d 5e 1f 17 3e 61 c3 36 3e b6 81 10 bd
       0.0570411 0.1475806 0.17847969 -0.035279952
000150 35 35 b0 3e fe 48 23 bf a0 89 8f bc 76 c5 1c 3e
       0.34415594 -0.6378325 -0.01752168 0.153097
000160 08 cb a7 bd 16 6c a7 bd b5 80 33 3e 61 b9 47 39
       -0.08193022 -0.08174913 0.17529567 0.00019047178
000170 35 38 65 3d 6c b9 0e be af 49 c8 be 3d 05 42 3e
       0.055961806 -0.1393792 -0.39118716 0.18947311
000180 4e 70 1a be ea 9f 6f be a5 33 aa 3e 9d 1d c2 3c
       -0.15081903 -0.23400846 0.33242527 0.023695761
000190 d2 71 00 bf 90 21 60 be d8 7e 96 3e 28 9a f0 3d
       -0.50173676 -0.21887803 0.2939365 0.11748153
0001a0 80 73 07 3f 92 ff 11 bc e3 c4 5d be 20 84 d4 3d
       0.52910614 -0.00891103 -0.21657138 0.10376763
0001b0 fc 52 18 3e 51 d3 c3 bd bf ea e6 3e 75 0b ac 3e
       0.14875406 -0.0956179 0.45100972 0.3360249
0001c0 3b a2 23 3e 55 0f 69 3e 57 80 a8 3e f9 c6 dc 3d
       0.15979855 0.22759755 0.32910416 0.107801385
0001d0 8a 09 9b 3e 60 88 38 3e 4e 39 80 3e be 78 cc 3d
       0.30280715 0.18020773 0.2504372 0.09983967
0001e0 6a 7d d5 3e 77 90 a4 3d 8c 21 f0 3d 4b a7 83 bd
       0.41697246 0.08035367 0.117251486 -0.06428393
0001f0 f4 ce 13 3e 25 45 02 3e b9 32 5f 3e 22 ba c8 3d
       0.14434415 0.12721689 0.21796693 0.09801127
000200 8e 3f 54 3e 89 87 e3 bd 3b 27 80 3d 96 05 10 3e
       0.20727369 -0.11109836 0.062574826 0.14064631
000210 11 0e fb 3c d6 e4 84 3d be b3 41 be 26 1b 6f 3e
       0.030646356 0.064889595 -0.18916222 0.233502
000220 68 ce 33 be d5 b8 e2 3d dc 23 de be bb 67 0d 3e
       -0.17559206 0.1107041 -0.43386734 0.13809101
000230 bb 38 e9 be 80 81 04 bf 89 26 5c 3e f2 a0 87 3e
       -0.45551094 -0.517601 0.21499075 0.2648998
000240 a6 73 33 be 74 9f 42 be b6 36 22 be 59 64 11 bf
       -0.17524585 -0.19006139 -0.15841183 -0.56793743
000250 94 a6 15 3e 9c 23 85 bc 25 c0 77 3d 46 e6 3f 3d
       0.14614326 -0.016252331 0.060485978 0.046850465
000260 e9 69 18 bd 26 42 e9 3e 07 0d 29 3e fb 5e b4 3e
       -0.03721038 0.4555828 0.16508876 0.35228714
000270 ba 8c eb 3c 58 6c c4 bd 33 06 3e 3e ad 2e 96 3d
       0.028753627 -0.095909774 0.18557052 0.073331214
000280 95 3e 95 be 5e 92 10 be f7 0f 46 3e 15 05 88 be
       -0.2914931 -0.14118335 0.19342028 -0.26566377
000290 8a 6d 4d bb d7 d9 aa 3e cf 80 19 3f 3c 1c 27 3e
       -0.0031345808 0.33369324 0.5996217 0.16319364
0002a0 2e 49 fa 3e 9b be a1 be f5 be d5 be 79 4c 2a 3e
       0.48883957 -0.31590733 -0.4174725 0.16630735
0002b0 e1 96 36 3e 76 55 56 be 74 cb 6c 3c 45 42 64 be
       0.17830993 -0.20931038 0.014452804 -0.22290905
0002c0 4e 53 71 3d f0 c0 2b 3e a7 1f 8a 3e 4b d6 83 3e
       0.058917336 0.16772819 0.26977274 0.2574943
0002d0 d5 f9 f5 bd 1f f7 9e 3e d6 52 06 bd 6c 60 2e 3e
       -0.12010542 0.31047913 -0.032793842 0.1702897
0002e0 ce 61 de 3e b7 68 a8 3e ca fa d9 3d 69 42 27 be
       0.43433994 0.3289239 0.10643537 -0.16333927
0002f0 07 dc 10 be fa 10 8a 3e f9 10 6e 3e df e2 34 3e
       -0.14146434 0.26966077 0.23248662 0.1766467
000300 2e 26 d3 3d be b4 c9 bd 9b 41 eb 3d 28 78 84 3e
       0.103100166 -0.09848927 0.114871226 0.25872922
000310 fa 4f e1 3d d6 e0 23 bd f9 d5 8e be 76 41 17 bf
       0.110015824 -0.040009342 -0.27897623 -0.5908426
000320 5d c4 03 bf 89 7f 7e be 8a fa 88 bd 42 02 06 3e
       -0.514715 -0.24853338 -0.066884115 0.13086799
000330 8a 1f e0 3d a7 b6 73 3e 97 c5 04 3f 10 68 4c 3e
       0.109435156 0.23800145 0.51864 0.19961572
000340 bf 2a b7 3d 02 7c 93 3e 19 22 ca 3d 0a 65 10 be
       0.089437 0.28805548 0.09869785 -0.14101043
000350 34 fc 12 3f 43 04 26 3e b7 34 05 be ee f6 f4 3d
       0.5741608 0.16212563 -0.1300839 0.119611606
000360 0e 8d e6 be c3 ab c7 3e a2 71 37 3e f4 75 6b 3e
       -0.4502949 0.3899823 0.17914441 0.22994214
000370 c4 53 82 3e 3b 17 69 be a0 6b 64 be c7 da 06 3e
       0.25454533 -0.22762768 -0.2230668 0.13169394
000380 bb 27 88 be 46 86 50 bc 32 69 3d 3e e9 1c 75 3d
       -0.26592812 -0.012727326 0.1849716 0.059842024
000390 47 32 2f be 80 d8 81 be f4 8e cf 3d 28 ac 05 3e
       -0.17109023 -0.2536049 0.10134688 0.13053954
0003a0 de cf 8d bd 7e d1 9c be 45 9d 0a be b2 e7 a5 3c
       -0.06924413 -0.3062858 -0.13536556 0.020252082
0003b0 a5 4a 3c 3e cf db 70 be e7 92 0c 3f 03 dd aa 3d
       0.1838785 -0.2352135 0.54911655 0.08342936
0003c0 34 93 f4 3c 88 22 96 3e 6c 10 b2 3e 8b 07 8d 3e
       0.029855348 0.2932322 0.34778154 0.27544817
0003d0 29 d1 b1 3e 24 ed 23 bb d6 2b d6 3e 75 54 05 3e
       0.3472989 -0.0025013173 0.4183032 0.13020499
0003e0 6f 69 d8 3a c8 f9 12 3e cd 3a 8f 3d 65 21 18 be
       0.0016510914 0.14353096 0.06993637 -0.14856489
0003f0 3a 1d b0 3e 9a 34 35 3d 2d c2 07 3d 34 99 68 3e
       0.34397298 0.044239618 0.033144165 0.22714692

model.4.bias f4 [4]
000000 69 33 4b 3e 9d ed 43 3e b7 02 7f 3e d2 0e 7a 3e
       0.1984383 0.19133611 0.2490338 0.24419716
