p3_collab-compet/actor_1.pth (torch_old, 183836 bytes, 6 tensors)

fc1.weight f4 [256, 48]
00000000: 9906 043f ef45 c43e d373 533c 1c74 863d
00000010: 8c32 01bf 7cca 8bbe d523 933c 83b3 f33d
00000020: b85a e93e bd83 0a3f dd60 47be b7e2 0abe
00000030: 0464 efbe 86c2 9cbe 3b12 08be 25e7 37bd
00000040: ef0e ea3e 8448 e73e d1f8 25be 1dbd ffbd
00000050: 70f9 ffbe dd5d 6abe ccfb fcbd 9b55 60bd
00000060: a3e4 103f 5831 7f3e 4c35 b5bd 26ea a93c
00000070: a09a 003f 29e0 a6be 2901 cf3b 1010 d73c
00000080: a5f7 033f 048d 4e3e 6b9b 37be b36e 103e
00000090: 742e e53e 74df 9bbe 953e 59be cd99 403e
000000a0: 27fa e33e 211a 083e e221 57bd 51f8 3dbe
000000b0: 7c55 023f 3f3e 65be ec60 c0bb 63ed 1cbe
000000c0: 1e81 913e 7e20 173e f077 66be 4b45 c1bd
000000d0: df7c babd ff19 733d 36b6 44be c756 90bd
000000e0: 4295 8a3e 8ef8 6a3e 8a9b ddbc 9d53 3f3e
000000f0: e7f5 fdbe b92f c8bd 5485 7e3d d126 673e
00000100: f78d ed3d f5f8 843e 3789 6ebe e7ab 1b3f
00000110: 77e9 80bf 4ec5 e3be c245 7dbe e231 103f
00000120: edf2 f23e a33e 80bf ee13 183e 4af3 733c
00000130: d49f 323d 741c 5d3d 4e1c 143e 41c3 0dbd
00000140: a70d 073f 5bd8 98bf 9481 323d f478 493d
00000150: 875a fb3e 9adb 52be a1d9 883c a11c 86bc
00000160: 4c4c b93e 3798 9abf 6eca 00bd 5f8e 9a3d
00000170: 2b64 673f a517 d7be ea64 d1bd fc00 ec3d
00000180: 9669 eb3e 36af 563e a8d2 1b3e 1189 c8bd
00000190: f274 49bc 7641 c4bd f4b6 fe3d 372d a7bb
000001a0: f65e e13e 7de8 9c3e 34b9 a0bc 4bca 3b3c
000001b0: 290f d7bd f17b aebe c230 4ebd 1b98 90bd
000001c0: c79c 803e 5638 c73e 75ff 4fbe 08f1 b2be
000001d0: d99c 32bd 4d1a 37bf 4313 60be 0c5b abbe
000001e0: 9f8e 2a3e 8975 63bf 448a 58bd 873b 67bf
000001f0: 2ab5 bebc 789b c5bd fd7f 7a3c b93a 6dbf
00000200: 9883 7a3e bed5 5fbf 33bd 3c3e 6281 d8be
00000210: d07f 733d aadc a5be e7fe 7b3e bf71 05bf
00000220: 941c a03e 5cc9 4fbf 8ba1 13be c7d4 de3e
00000230: 19e8 e43c 17ce 3fbf 98ef 19bd bf93 ce3e
00000240: 0509 963e 1f93 1cbf ee8d a43d 3fc1 96bf
00000250: 1cee fbbe bf16 48be 9f2b 033e f228 9fbf
00000260: 9d75 713e ea31 51bf 1ce2 903c b488 f7be
00000270: 393c 3cbe ede5 de3d aa9c 9bbb 49ea ebbe
00000280: 6a61 163e 8adc 33bf 3cfb 95bd a3ac 093f
00000290: 58e0 b43d 99eb ee3e b858 2bbe 970b 0f3f
000002a0: 80d8 1a3e 0f28 963e 89cc 7dbd e682 cb3e
000002b0: c58e c93e a3d0 6ebe e93b 0dbd a620 ca3e
000002c0: f79f 3e3e 1b41 873e 98ed 35be e257 2a3e
000002d0: 4971 5b3e 37b3 833d 25c3 12be ccfa ce3d
000002e0: 7429 6d3e 2fb5 813e 1f3c 943d 7f28 37be
000002f0: 87dd edbc 80d7 133f 5601 3fbc 8b17 44be
00000300: 425d a6bc b5e6 36bf 6bae 95bd 38b3 bdbe
00000310: 55c3 133e 61b2 bcbe 951f d0bb 180a cbbe
00000320: 922e 1b3d a0ed 32bf 79cc a03c e0f1 ecbd
00000330: 6e34 343c 17b8 28bf 90cf 42bd 940e 9abd
00000340: 7629 88bd ecca 1cbf 171f 433e b34a b2bd
00000350: 143c 93be 34e6 7dbf 1e8e 6e3e e6ed 1cbe
00000360: c4d4 59be d8ac 8c3f e2bf 9fb9 88d2 d93e
00000370: 8b12 5cbe ebc1 a9be a679 723d 1bb5 0b3f
00000380: d2e1 8abe c542 8d3f 9092 d5bd b006 e7bd
00000390: 0cb1 90bc 25b8 3bbf 3a8c 4dbd 8a08 33be
000003a0: 906d a6be fd65 643f f2ce 0cbe 8e81 71bf
000003b0: a8f1 b03e 0b37 82bf 131d 9abd ad3d 7fbf
000003c0: 7230 bd3d a334 cabe 2afe b4bc 0f8c 06be
000003d0: f3ff c4bd d46e 7b3e 445c a1bb f10c 08be
000003e0: 0d12 b93d aee0 c7be ef0d d1bd 4452 e6bc
000003f0: 8e03 36bf 3a75 063e 66df fabd ddeb 03bd
0.5157257 0.38334605 0.012906033 0.06565115 -0.50467753 -0.2730292 0.017961422 0.118994735
0.45577025 0.54107267 -0.19470544 -0.13563047 -0.46755993 -0.3061716 -0.13288204 -0.04489817
0.45714518 0.45172513 -0.16208197 -0.12487242 -0.49994993 -0.22887369 -0.12352714 -0.05476914
0.5659887 0.24921167 -0.08848056 0.020741533 0.5023594 -0.32592896 0.006317277 0.026252776
0.5154975 0.2017098 -0.17930381 0.14104728 0.44762003 -0.3044392 -0.2121528 0.1880867
0.4452679 0.13291217 -0.052522548 -0.18551756 0.5091169 -0.22387026 -0.005870929 -0.15324931
0.2841882 0.14758489 -0.2250669 -0.09437045 -0.091058485 0.059350964 -0.19210133 -0.070478015
0.27067 0.22946379 -0.027051706 0.1868424 -0.4960167 -0.097747274 0.06213887 0.22573401
0.11599343 0.2597119 -0.23294531 0.6080918 -1.0071248 -0.4448647 -0.24733642 0.56326115
0.47450963 -1.0019115 0.14851353 0.014889548 0.043609455 0.053982213 0.14463922 -0.034610037
0.52755207 -1.1941026 0.043580607 0.049187616 0.49092504 -0.20591584 0.016705336 -0.016371073
0.36191022 -1.2077702 -0.031443052 0.075466864 0.9038722 -0.42010227 -0.10224326 0.11523625
0.45978993 0.20965275 0.15217078 -0.09791768 -0.012295948 -0.09582798 0.12437239 -0.0051018256
0.44017762 0.30646124 -0.019619562 0.011461805 -0.105009384 -0.34078935 -0.050339468 -0.07060262
0.25119612 0.38910168 -0.20312293 -0.34949517 -0.043606613 -0.71524507 -0.21882348 -0.334679
0.16655968 -0.8885122 -0.052866235 -0.90325207 -0.023279745 -0.09648794 0.015289304 -0.9266773
0.24464262 -0.8743552 0.18431549 -0.4228621 0.059448063 -0.32394916 0.24608956 -0.5212669
0.31271803 -0.81166625 -0.14417093 0.4352171 0.027942704 -0.74923843 -0.03758201 0.40347096
0.29303756 -0.6116199 0.080348834 -1.1777724 -0.492051 -0.19539927 0.12809609 -1.243437
0.23580022 -0.8171679 0.017685942 -0.48346484 -0.18382348 0.108836986 -0.0047489004 -0.46077183
0.14685598 -0.7025839 -0.0732331 0.5377905 0.08831853 0.46664122 -0.16733062 0.5587706
0.1512165 0.29327437 -0.061962638 0.39748305 0.39366737 -0.23321776 -0.034480963 0.39478034
0.18615709 0.2641686 -0.17766416 0.16635087 0.21429934 0.06430667 -0.14332254 0.101064295
0.23160344 0.25333545 0.0723803 -0.17886542 -0.029036297 0.577507 -0.011658033 -0.19149606
-0.02030814 -0.7144578 -0.07308658 -0.37050796 0.14429982 -0.36854842 -0.006351421 -0.39656138
0.03788621 -0.69893837 0.01962875 -0.115695715 0.010998828 -0.659059 -0.04756123 -0.07522312
-0.06648533 -0.61247134 0.19054829 -0.08705654 -0.28756773 -0.9917939 0.23296401 -0.15325126
-0.2127257 1.0990248 -0.00030469807 0.42543435 -0.21491449 -0.3315576 0.059198044 0.5457322
-0.27125412 1.1036001 -0.10428345 -0.112805724 -0.017662548 -0.7332786 -0.05018256 -0.17483726
-0.32505465 0.8921812 -0.13750818 -0.9433831 0.3455937 -1.0173048 -0.07525077 -0.99703485
0.09237756 -0.39493284 -0.022093851 -0.13139366 -0.09619131 0.24553996 -0.004924329 -0.13286187
0.09036646 -0.39038604 -0.10207736 -0.0281154 -0.71099174 0.13130656 -0.12249641 -0.03220736

fc1.bias f4 [256]
00000000: 61ff 9bbe c981 80be 7802 81be 0f37 6dbe
00000010: 899c 403e 007a d3bd eed5 acbe e5cb 343e
00000020: 4e46 3cbe 2bfc c43e be80 c1be 3f38 66be
00000030: de80 30be 4cb1 58be cb07 a2bd 9560 94be
00000040: 8bec 79be 2c58 26be d533 0cbf b007 59be
00000050: 48fd 483e afee 17be cc3d b6be 47e3 a53e
00000060: 5097 80be bc05 edbe ac8b 8ebd 7552 cabe
00000070: 1af6 10bf 841d 56be 84af 12bf 0cb4 f0bd
00000080: d585 a3be 7378 66be a87e 723d 2040 b7be
00000090: 88f2 ccbe b290 23bd 3bd1 08be 6db2 92be
000000a0: 2937 79be feae aebd 0fec 8fbe 038a c6be
000000b0: 100d 22be d0c8 51be 62ad 99bc 2e00 e8be
000000c0: c8d2 abbd 4a0b a1be 61bf 09bf 6178 5ebe
000000d0: 8f94 0abe eca9 bfbe 8f29 67be cb4e 50be
000000e0: 5051 90be 099b c6be 53ba aabe 78fd c6be
000000f0: 07a3 c9bd 680e f8bd d388 fdbd c7e1 b3be
00000100: 187d b1bd 30f7 7cbe d25a 54be 96e1 203b
00000110: 868e 9dbe 0122 c6be fd5a a03e 1a19 15bf
00000120: 860e fcbe 197e 5abe d684 a7be fcb0 5ebe
00000130: 78ce bdbe 534c 7bbe 7813 00be 52ed f4be
00000140: cbd5 8b3e c4b9 c0be 8fc0 0bbe cf10 d3be
00000150: 902f f33e 3562 b7be cc95 52be 4daf 13be
00000160: bc44 4fbe 6174 d0bd ccca aebe 070d a0be
00000170: f50c fcbd e3e0 923d 93cb b1be 806e 98be
00000180: 1461 553c 57bd 28be c7e2 f7bd 270d d33e
00000190: 5960 f2be 8eeb 25be def8 bbbd ca0f 92be
000001a0: 6442 9cbd 0113 a3bd eb89 0ebe 13a5 e63d
000001b0: e7b7 2bbe 3060 323e 6da7 abbe f936 9fbe
000001c0: 8129 76be be41 61be ded5 0ebf dc88 a8be
000001d0: 9653 b1be dd5e 24bd dd3e 48be ca46 a1be
000001e0: 00f6 cdbe ae4b bdbe 4b18 aabe 2414 d1be
000001f0: b807 fbbe eb4d 5dbe 9dbe febe e787 1fbd
00000200: 0057 2d3d 5304 25bd ede1 01bf 8a1f 093e
00000210: 507d b23e 42f9 aebe 276b a9be 4178 563e
00000220: a16e 52bd f663 d4be 9546 03bc 7c3b 08bf
00000230: d7aa 86be 4916 d6be 2a8f c9bd 07d3 18be
00000240: c664 b7bd 4d1c 1f3e 5da0 36be ee6e 04be
00000250: 87df b9be 0184 91be b767 943c c2e8 c1bd
00000260: 4257 c5be 2e03 b0be dfd3 0bbe 861f ecbe
00000270: 3645 83be 55e7 65be 4ccf d43d d4d9 7abc
00000280: f045 38be d09e 8fbe 4ab1 243e 88ef e0bd
00000290: 1944 72be 0def 9dbe 7b94 f6be 54e5 fa3e
000002a0: 8b67 d3be e444 12be f2e6 d03c 63b1 1d3e
000002b0: c3eb 77be 7707 153a cd3e 7ebe 10cb aebe
000002c0: 3b4e 94be 25bc b6be 67dc b4bd 58fc 34be
000002d0: 14d9 53be 09e8 d7be e477 38be 1c03 c83c
000002e0: a27a bb3d 8b25 f93d bf80 9a3d 55c9 f23e
000002f0: 3760 4dbe 48d3 133e fb89 3bbe c824 91bd
00000300: b6b4 8ebe e482 21be da60 5cbe 5f21 5b3e
00000310: b17c b7be 020c b5be 9f8c c8bd 1eb7 45be
00000320: afa2 a3be f020 713e 96cf 82be 8870 54bc
00000330: efa3 f2be 55bc 55be 01a0 6fbe 1720 4fbe
00000340: 38de f7be 7a60 aabe adac 02bf 99dd a6bd
00000350: 2a80 67be 4afe 853c 623a ccbe 877c 45bc
00000360: de6e 00be c7a9 0bbc d5f9 fbbe fe2c 3ebe
00000370: 7ac9 54be 33d8 d0be b3ec 3ebe 38cc e43d
00000380: 7e36 0d3e d683 b3be b904 923e 687d 65be
00000390: b99a 56be f6e8 323e 9877 ecbe 67b6 c43d
000003a0: 8223 f7bd 8ac9 4cbe d6e4 0bbe e47d 96be
000003b0: 63d3 dfbe 5c0d 90be 5ab8 1c3d 6bad 6f3e
000003c0: ac3a 1ebe 9ce9 20be 4383 46be 829c cabe
000003d0: f9c7 b63d ce85 b7be daa5 9cbe c514 33be
000003e0: 10d7 d4bd a4d4 cebd cbb8 323e 8ff0 3b3d
000003f0: 8a89 c3be 62d8 183e 57bd 02be bff4 0dbf
-0.30468276 -0.25099018 -0.25197196 -0.23165534 0.18809713 -0.10326004 -0.33756965 0.17655905
-0.18386194 0.3847364 -0.37793535 -0.22482394 -0.17236659 -0.21161383 -0.07911643 -0.28979936
-0.2440664 -0.16244572 -0.5476659 -0.21194339 0.19627869 -0.14837144 -0.35594022 0.3239996
-0.25115442 -0.46293437 -0.06960234 -0.39516035 -0.5662552 -0.20909697 -0.57299066 -0.11753091
-0.31938043 -0.22506885 0.05920282 -0.3579111 -0.40028787 -0.039932914 -0.13361065 -0.28651753
-0.24337448 -0.08529471 -0.28109786 -0.3877717 -0.15825295 -0.2048676 -0.018759433 -0.45312637
-0.08389813 -0.31453925 -0.53807646 -0.21725608 -0.13533233 -0.37434328 -0.22574447 -0.20342557
-0.28187037 -0.38790157 -0.3334528 -0.38865256 -0.09845548 -0.12112123 -0.12379613 -0.35133192
-0.08666438 -0.2470367 -0.2073777 0.0024548522 -0.307728 -0.38697818 0.3131942 -0.58241427
-0.4922983 -0.21337165 -0.32718533 -0.21747202 -0.37071586 -0.24540834 -0.12507427 -0.4783731
0.2731155 -0.37641728 -0.13647674 -0.4122376 0.47497225 -0.35817114 -0.20564955 -0.1442234
-0.20241064 -0.101784475 -0.34139097 -0.3125994 -0.12307159 0.071718 -0.34725627 -0.29771805
0.0130236335 -0.16478477 -0.12103801 0.41220972 -0.47339132 -0.16203138 -0.09178327 -0.2852767
-0.076298505 -0.07962609 -0.13919799 0.11261954 -0.16769372 0.17419505 -0.33526173 -0.31096628
-0.2403927 -0.21997735 -0.55795085 -0.32916915 -0.34634084 -0.04012953 -0.1955523 -0.3149932
-0.40226746 -0.36971802 -0.3322166 -0.4083568 -0.49029326 -0.21611755 -0.497548 -0.038947966
0.042319298 -0.040287327 -0.5073536 0.13390937 0.3486123 -0.34174544 -0.33089563 0.2094431
-0.051375035 -0.41482514 -0.008012434 -0.53215766 -0.26302215 -0.41813877 -0.098417595 -0.1492425
-0.08954768 0.1553814 -0.17834611 -0.12932941 -0.3630335 -0.28421023 0.018115861 -0.09468223
-0.38543135 -0.34377426 -0.13655041 -0.461178 -0.2563874 -0.22451527 0.10391101 -0.015310723
-0.17995429 -0.28050852 0.16083255 -0.10983187 -0.2365879 -0.30846444 -0.48160157 0.49003088
-0.41289935 -0.14284092 0.025500748 0.15399699 -0.2421103 0.0005685011 -0.24828644 -0.341393
-0.28965935 -0.35690418 -0.08831101 -0.17674387 -0.20688277 -0.42169216 -0.18014485 0.024415545
0.0915425 0.12165364 0.075440876 0.4741923 -0.20056234 0.14436066 -0.18314354 -0.070870936
-0.27872247 -0.15772587 -0.21521321 0.21399449 -0.3583732 -0.35360724 -0.09792446 -0.19308135
-0.31960055 0.23547721 -0.25549 -0.012966283 -0.47390696 -0.20872624 -0.2340088 -0.20227085
-0.48411727 -0.3327673 -0.5104473 -0.08147735 -0.22607484 0.016356606 -0.39888293 -0.012053615
-0.12542292 -0.008524365 -0.49214044 -0.1857185 -0.20779982 -0.40789947 -0.18644981 0.11171764
0.13790318 -0.3506152 0.28519228 -0.2241112 -0.2095746 0.1747168 -0.46184993 0.09605103
-0.120673195 -0.19998756 -0.13661513 -0.29392922 -0.43715963 -0.28135192 0.03826175 0.23405997
-0.15452069 -0.15714115 -0.1938601 -0.3957253 0.089248605 -0.35844272 -0.30595285 -0.17488392
-0.103925824 -0.10099152 0.17453305 0.04588371 -0.3819087 0.14926293 -0.1276754 -0.5545158

fc2.weight f4 [128, 256]
00000000: 7126 57bd 3c09 97be ce85 27be b244 193d
00000010: 9f39 2abe 521e 373c 5ed4 393e de91 ae3e
00000020: 9811 85be 9841 b8be baea 3dbe 43fd 6fbd
00000030: bdb5 d83d c6dc adbe 914c 5dbd 9808 7ebd
00000040: 4b83 b43c 5a3c 06be 2caf 013e 6e52 4f3d
00000050: 865f 933d 8751 d2bd 0398 e9bd 32ef a4be
00000060: 4f1a 0cbd 776d aabd 0dea 4dbe c6d2 e7bd
00000070: 8d8c 70bc bd17 eabe 9099 88be 192d ddbe
00000080: 988f 303d bd6e b63c 809d 33be d7ca 1cbb
00000090: 15c2 3cbd 5e86 46bd 8744 ccbe ffcd 9dbe
000000a0: 5a74 95bd 630c acbe e585 00bf 1ed8 cbbd
000000b0: 1484 d2be ccd4 073e 74dc aebe 92ef 44bd
000000c0: f5ae 583e c879 4ebe dcd0 413c 1d53 10bd
000000d0: 6976 a2bd 650b 393c 4f01 2fbe 1d40 91bb
000000e0: 7f7d c6bd 32b2 8fbd 2cf8 353e b66a 9a3e
000000f0: da3d fabd 77f6 abbe 0822 83be 3f4c 8fbd
00000100: 4108 883e 5cc0 d4be 771a b4bd 3340 bcbe
00000110: 959c bcbe e11c 133e ee6a 0ebe 9464 753e
00000120: e89e c5bc 3a74 8dbe b8cd 04be e406 3f3e
00000130: 3a83 2bbe 447c f33d 817d 213e 0036 5a3e
00000140: 6a3e 09bf fe6b 61bd 3fe1 be3d d03f 5a3e
00000150: 9fb3 90bd e97a 43bd 3e7f 843e 0945 8bbe
00000160: 103f 28be 1ed3 60bd 50a6 75be 5555 a53d
00000170: 1a07 78be fcb0 793d 22bd f5bd b058 763e
00000180: ee87 9c3d d6f7 1d3e 6440 363e e5d0 93bd
00000190: 2ae4 553e 0895 f7bd 808f e1bd 24a9 6ebe
000001a0: c7d9 53be 2ec6 a1bd 46b7 00bf e8e3 9dbe
000001b0: 2218 92bc 6ad2 38be b2a4 063e 1065 6f3e
000001c0: 4caf 23be 0aa0 96be 667b 463e a9ed 2abe
000001d0: 81c5 a8be 89e3 f4be e037 2f3d 23e0 453e
000001e0: 248f b53e d080 2cbe 09b9 0ebe bebd 9b3b
000001f0: ec1b d8bb d49d 63be 6957 183e 063b e03d
00000200: 1211 9cbd 279d 48be 08ce 163e 7ddf 31bf
00000210: 7b19 b9be 905a 3d3e 53c9 90bd 0cd9 efbe
00000220: 9a70 47be 2545 3dbe e9b4 46be 0577 7fbc
00000230: 0085 713d 3b9b 20bd 9e9b f13d 22fa 6bbe
00000240: b4b4 1e3d 417f 81be 0b36 f8bd 0cbd 59be
00000250: bc25 4bbd 5a4d d13d 6071 b83d 990e a8be
00000260: 6a36 f83d ac6f b43d b6c0 a3be 29c3 a1bd
00000270: 99cf e7bd fe14 79be 6b55 bf3b d995 55be
00000280: 6f70 e2be ca4d 363d afcf 92be eec1 03be
00000290: 079c 193e a0b5 b93d 6702 543d 1297 dbbd
000002a0: 9afe 483b ea97 d2be 288d 89bc 4519 95be
000002b0: 07eb 39be 17c3 1fbe 3427 e23c 835e 83be
000002c0: 59de 84be 9175 a0bd 81d7 2b3d c4f9 8ebd
000002d0: 0739 923e f50f 073e 3eb2 22bc 24df 1d3d
000002e0: a282 943e e2d2 02be f5ab d83d 1fd3 1ebe
000002f0: f3d0 2bbc cb93 a1bd f817 26bd 1645 3ebd
00000300: c49b 083e cc03 963e 0fba 93bd 866a a2bd
00000310: 5224 9e3d bba4 84be 7fed e3bd 3376 96bd
00000320: 4be8 24be 3fb9 6ebd 3c52 16be a8d5 3cbc
00000330: 2210 87be 4e60 41be a878 1d3e 513f 823e
00000340: ff7e 963e 18fd ee3d aa22 0a3e a693 8e3d
00000350: 7529 0fbf 6a34 193e 1ca2 753e ce92 343c
00000360: 5a51 f1bd d973 623c 7c2a 303e 8ef5 58bc
00000370: f0c0 da3e 5c39 0bbe 9a89 6cbe 6ef3 51be
00000380: 11d1 81be eacd 753d 3124 4dbe 3f34 9dbd
00000390: 3f7c 43be 1655 29be 4413 803e 7b4a 0ebe
000003a0: f22d 48bd 2ba0 0f3e 1d61 1cbf 1e43 a93e
000003b0: 3cb2 033d f22f 3b3e 639f b0bd 214f 9f3d
000003c0: 2320 b3be 28fa a3be 03a3 23bd e5ed de3d
000003d0: 55e5 10be dd05 73bd ff19 05be c939 1ebe
000003e0: b7ab 1e3e e2fe 2bbe 4558 f1be 2669 b5bc
000003f0: 4fc1 81bd 5a34 03bd 80a1 1abc 8497 f9bd
-0.052526895 -0.29499233 -0.16359636 0.03741903 -0.16623543 0.0111766625 0.18147418 0.34095663
-0.25989985 -0.35987544 -0.18546572 -0.05859114 0.10581539 -0.339575 -0.054028098 -0.062019914
0.022035262 -0.1310896 0.12664479 0.05061572 0.07195954 -0.10269456 -0.11405947 -0.32213742
-0.034204777 -0.0832166 -0.20108815 -0.11319499 -0.014681947 -0.45721236 -0.2667966 -0.4319847
0.04310569 0.022269601 -0.1754055 -0.0023924613 -0.04608353 -0.048467986 -0.39896032 -0.30821225
-0.07297583 -0.336032 -0.50204307 -0.099533305 -0.41116393 0.1326477 -0.34152567 -0.048080035
0.21160491 -0.20163643 0.011829581 -0.035235513 -0.07932741 0.011294221 -0.17090343 -0.0044326917
-0.09691905 -0.0701641 0.17770451 0.3015954 -0.122188285 -0.33586475 -0.256119 -0.06996965
0.26568797 -0.4155301 -0.0879411 -0.3676773 -0.36838213 0.14366485 -0.13907978 0.23964149
-0.024123624 -0.27627736 -0.129691 0.18654972 -0.16749278 0.11888936 0.15770532 0.21309662
-0.5361086 -0.05503463 0.09320306 0.21313405 -0.0706551 -0.047724638 0.25878328 -0.27201107
-0.16430306 -0.054888837 -0.23989224 0.080729164 -0.24221459 0.0609598 -0.11998965 0.24057269
0.07643114 0.15426573 0.17798 -0.07217578 0.20887819 -0.12088972 -0.110136986 -0.2330671
-0.20688544 -0.07899128 -0.50279653 -0.3083794 -0.017833773 -0.18049017 0.13148764 0.23378396
-0.15984839 -0.29418975 0.1938301 -0.16692223 -0.32963184 -0.47829846 0.042777896 0.19323783
0.3546077 -0.16846013 -0.13937773 0.0047528436 -0.0065951254 -0.22228175 0.14877094 0.10948758
-0.076204434 -0.19591199 0.14727032 -0.6948164 -0.36152253 0.18491578 -0.070696495 -0.4684528
-0.19476548 -0.18483408 -0.19404949 -0.015592341 0.05896473 -0.03921054 0.1179726 -0.23044637
0.03874655 -0.252924 -0.12119683 -0.21263522 -0.049596533 0.10219832 0.090059996 -0.32823637
0.12119754 0.08810362 -0.31982964 -0.07898552 -0.11318893 -0.24324414 0.00583904 -0.20857944
-0.44226405 0.04450778 -0.28674075 -0.12866947 0.15000926 0.09067845 0.051760104 -0.10722174
0.0030669332 -0.41131526 -0.016790941 -0.29120842 -0.18156062 -0.15601765 0.027606584 -0.25658044
-0.25950888 -0.07834924 0.041953567 -0.06981233 0.28559133 0.13189681 -0.009930192 0.03854288
0.29005915 -0.12775758 0.10579673 -0.15510224 -0.010486829 -0.078895174 -0.040550202 -0.046452604
0.1334067 0.29299772 -0.07213222 -0.07930474 0.07721771 -0.2590693 -0.11129283 -0.073467635
-0.16104238 -0.058282133 -0.14679807 -0.011525549 -0.26379496 -0.18884394 0.15378058 0.25438932
0.29393765 0.116693676 0.13489786 0.069617555 -0.55922633 0.149614 0.23987621 0.011021329
-0.11783095 0.013821566 0.17203707 -0.013242139 0.42725325 -0.135961 -0.23099366 -0.20503017
-0.25354818 0.060010828 -0.20033337 -0.07675981 -0.19090365 -0.16536364 0.25014699 -0.138956
-0.048871942 0.14025943 -0.61085683 0.3305902 0.0321524 0.18280008 -0.086241506 0.077787645
-0.34985456 -0.32026792 -0.039950382 0.108852185 -0.14149983 -0.059331764 -0.12998198 -0.15451731
0.15495192 -0.16796449 -0.47137657 -0.022144865 -0.06335699 -0.03203235 -0.009437919 -0.121871024

fc2.bias f4 [128]
00000000: 4f37 66be 1f1c 543d 6b7d 38bd e3fd 21bf
00000010: f1cd 1fbe a570 a9be 8156 9bbe 8446 073e
00000020: c6ee 94be cf1f 28be df70 08be 5ac4 163e
00000030: 128d f7be 30ea 43bd 941c db3d 1d75 50be
00000040: 649c b73d eb7e c8bd 714f 7dbe 77bc 133d
00000050: 3fa1 dfbd 6cf4 813e daef 6abb 566b 1cbe
00000060: 38d5 b13c 12aa 3dbd 8c57 613e dc07 503e
00000070: 87d5 54be bf41 ff3c e3e1 a8be bde8 f4be
00000080: dc1a d0be 5b06 aabe ef25 8bbe b1fe d1be
00000090: d1cd 31be a104 133d 4e60 87be 3a90 59be
000000a0: 7c3a 6ebe e72e 08be 4da9 143d 0b79 0dbd
000000b0: a35d 003e 2ac1 2bbf f88d e9bd a04e 1fbe
000000c0: 4ad1 0cbe 4881 81be 8ae1 173d 9e53 873d
000000d0: 5f55 64bd 2268 2ebe 8da8 06be 55d7 14bd
000000e0: 1123 fbbe 15c4 103e f679 4ebe 1e80 5dbe
000000f0: f897 3fbf 075f e43c 11fa 92be eb11 9b3e
00000100: dff4 e0be 1de3 4cbe bd2f 863d 8f1b 90bd
00000110: b5bf d63e dfd4 27be 43f0 ba3e 1242 9bbd
00000120: 41c5 a0bd fa21 5fbe f1ed aebe 0b81 27be
00000130: f952 ff3d 3452 e5bd b40e afbe a626 60bd
00000140: db3b efbe 7eb2 d5be 2875 bdbe b982 edbe
00000150: c8d5 f6bd dc3f 82be 4992 c1be 81ea 1ebd
00000160: 36e5 4bbe f4c2 28bc df29 3cbc 5123 4fbe
00000170: 6a8b 26be 7e21 febd 4cf9 fcbe 540c d3bd
00000180: 6117 0fbe 82d3 05bf eb02 48be 7fb5 7ebc
00000190: de7d aabd b20e 00bf e154 d43e 6894 e8be
000001a0: e5d9 cfbd 7d36 4abe 134f a8be c997 b13e
000001b0: 69be 01bf 2ab7 b2be ec79 093d 22aa 03bf
000001c0: 04ac f6be 2ebb 1bbd 0249 88be 578b 1fbe
000001d0: cfbb 7c3e db39 743d e228 cd3e d6e1 55be
000001e0: aeb5 98be 7bd0 f03c 87be e9be bda3 86bd
000001f0: d155 dcbd 577f 32be d2c1 fabd 8387 60be
-0.22482036 0.05178463 -0.045041483 -0.63278025 -0.15605904 -0.33093753 -0.30339435 0.13210493
-0.2908842 -0.16418384 -0.13324307 0.1472334 -0.48349816 -0.04783076 0.1069881 -0.20357175
0.08965376 -0.09789833 -0.24737336 0.036068406 -0.10919427 0.25381792 -0.003584853 -0.1527532
0.021708116 -0.04630477 0.22006053 0.20315498 -0.20784579 0.03115928 -0.32984838 -0.47833815
-0.40645492 -0.33207974 -0.2717738 -0.41014627 -0.17363669 0.035893086 -0.26440662 -0.21246424
-0.23264498 -0.13299142 0.03629427 -0.034539264 0.1253572 -0.6709162 -0.114040315 -0.15557337
-0.13751712 -0.25293946 0.037080325 0.066077456 -0.05574548 -0.17031911 -0.13150235 -0.03633817
-0.4905019 0.141373 -0.20163712 -0.21630904 -0.7484126 0.027877344 -0.2870641 0.30287108
-0.43936822 -0.20008512 0.06552074 -0.070365064 0.41943136 -0.16389798 0.3651143 -0.07580961
-0.07850123 -0.21790305 -0.3416591 -0.1635782 0.12466998 -0.111973196 -0.34190905 -0.054724358
-0.46725354 -0.4173774 -0.37003446 -0.46388796 -0.12052494 -0.25439346 -0.3780692 -0.03879786
-0.19911656 -0.010300387 -0.011484592 -0.20228316 -0.1626412 -0.12408732 -0.49408948 -0.10305086
-0.13973762 -0.5227586 -0.19532363 -0.015546202 -0.083247885 -0.50022423 0.41471007 -0.45425725
-0.10148982 -0.19747348 -0.3287283 0.34686115 -0.5068117 -0.34905368 0.03356354 -0.5143148
-0.48178113 -0.038020305 -0.266182 -0.15580498 0.24681018 0.059625488 0.40070254 -0.20886931
-0.2982611 0.029396286 -0.45653173 -0.06574199 -0.10758556 -0.17431389 -0.122439995 -0.21926694

fc3.weight f4 [2, 128]
00000000: 64be d93c 374b 823c c815 193e bfc5 3fbd
00000010: 72cb 363f c7c3 e2bd 044c 5abd 2bd4 ccbd
00000020: a876 f7be e124 4ebe 6729 98be e23c 723e
00000030: a500 4fbe cbe9 f53d b74b 623d 0274 31bf
00000040: 0e7a 2ebe d0bb cbbe 7250 40bd a741 24bf
00000050: 483f dfbe 3bc5 b43e 8454 ac3e 702c a0be
00000060: 20b7 2c3e d320 2c3d 73be 243f 2db5 ba3e
00000070: 01bd 933e 376a 0b3e 3aa2 2cbf dd30 43be
00000080: 5dbf 953e f6d2 54bd 7018 dabe e94e 83be
00000090: 0583 7dbe afdf bdba 8ac3 bebd 3cf2 51be
000000a0: 40d6 91bd bcde 723c 59b7 f33e cc46 afbe
000000b0: 1e10 ffbe 50cc aabe e9e3 8dbd f2f7 b9be
000000c0: 5c2a 52be 0e76 4bbe 461e 2e3a d67e 543d
000000d0: 533a cfbb 59e7 a3bc 9803 bcbe 63c7 91bc
000000e0: 6d6a c3be 4792 0a3d 5671 4fbe 7814 6ebe
000000f0: 0d98 643e 1797 9ebe cd39 8bbe 9a35 273f
00000100: 8d64 f83d 2bba a33c bbb0 653e cb70 113e
00000110: 401e ed3e 0f44 f13d cda3 ed3e e5af 983e
00000120: 07e5 e0be f184 43be a972 29be d72e d4be
00000130: ace8 edbd bbca 4d3e 2da3 2abf 3424 cdbc
00000140: d4ea c3bc d127 5cbd 604a e9bd 4c4e 67be
00000150: a237 1bbc 9548 89be 9d10 75bc e193 28bd
00000160: 47c9 71bd 769c 9dbb 8767 733d 989c a53e
00000170: 7e31 4cbe ffa9 193e 4a31 afbe 8317 8dbe
00000180: df3b 8d3c d992 f03b cf73 923e f236 7dbe
00000190: b6ba 313e e649 c4be c0d6 043f 705b 6ebd
000001a0: 954e 02bf 5c51 85bd 0b6b 933e 3f10 033f
000001b0: d5d0 8ebe 9a0a 1dbe 9a69 283c 5262 a2be
000001c0: 9c62 09be 0dc8 c3ba 0247 92bc ab31 793e
000001d0: 53d2 c63e 90f0 833b cafc e13e 1c83 76bd
000001e0: 3501 3dbe 6190 7cba dd96 aabe 4a95 e03b
000001f0: 6592 b5be 50e6 a8be c7da bc3c 9b72 a9be
00000200: c63d 56bd 1e35 95bc 847f 273d a4df 08bd
00000210: dd4a 893e fb43 c83e 2b25 293e 7351 b23e
00000220: e3a8 f33e 926d 09bf c744 e9be 699e 98be
00000230: 0ec7 313e e9f4 f8be 3736 793d d983 0d3f
00000240: 5388 233f 6be6 203f 22e2 16bf 1430 883e
00000250: 8ee4 6cbe 6199 a13c 56c2 9ebe 3b61 253e
00000260: aa19 80be b504 82bc 8699 3dbe 11b0 a7be
00000270: c371 60bd 1ff6 a8be b35d 5dbe 9cf1 f33d
00000280: e281 553c 825d 603f abd7 0fbe 1c31 583d
00000290: 8062 0ebf e9e1 2bbe 725c 263e 0d0f e3bd
000002a0: d9b9 0e3d 4222 0abe 3fda adbe e014 163f
000002b0: 4cbf b2be 981f e03e 56b6 0d3f bb98 493f
000002c0: 6468 a6bc fa3c 39be 1bca 633c 2d08 03bf
000002d0: ec93 95bc 2b27 cfbe 758e e5be 13dd 66b9
000002e0: ff5f 2a3c aeb6 b63e 101b 97be 666e 36be
000002f0: edc1 313d 0c82 b33e baaf b53e 6204 d3bd
00000300: c159 d9bd a4e9 46be 9002 e53e f1d3 89be
00000310: d55f 0b3f 5a98 efbd 5f60 973e d9fb b6be
00000320: b5c6 da3e 3dfb ba3e 29e1 7e3e 22a4 db3e
00000330: 19f1 003f 10c8 09bf 33ee 293f 6763 63bc
00000340: d5c7 173e bf34 41be 3d29 a43d a4c7 41bd
00000350: 3e70 c9bc e156 773e fd2b af3d c010 89bd
00000360: 4492 163f 0b17 cbba 0966 9a3e 720a cf3d
00000370: 03e9 85bd 2982 d93e 95b7 3cbd 54f1 e9bd
00000380: c6d4 8c3d 2b8a d4be f361 903e e11b 5d3e
00000390: ba8f 1bbe 7826 8d3e ea85 0bbf e2bc 0ebf
000003a0: 1169 29bd 1c66 06be c9b4 cd3c bce5 c3be
000003b0: bfc0 c5bd d013 ebbd d4af 6cbc 5564 07bd
000003c0: e4a5 a9be ab86 72bc cb15 61be 3148 acbe
000003d0: c553 e4bd b24f b0bc 188d a9be 6b0a 373f
000003e0: 0f1a 0e3f 6a39 563c 7055 c73e b876 1a3b
000003f0: 988d 693e b2ca 943d 1322 ccbe 8745 61be
0.026580043 0.015905006 0.14949715 -0.046819445 0.7140418 -0.11072498 -0.05329515 -0.10001405
-0.48332715 -0.20131256 -0.29719087 0.23656037 -0.2021509 0.12007483 0.05524799 -0.6931764
-0.17038748 -0.39791727 -0.04695172 -0.6416268 -0.43602967 0.35306725 0.3365823 -0.31283903
0.16866732 0.04202349 0.643531 0.3646635 0.28855136 0.13614736 -0.6743504 -0.19061609
0.2924756 -0.051959 -0.4259677 -0.2564614 -0.24757011 -0.0014486219 -0.0931464 -0.20502561
-0.07120943 0.014823612 0.4760082 -0.342337 -0.49816984 -0.33359003 -0.06928236 -0.3632198
-0.20523971 -0.19869253 0.00066420843 0.051878773 -0.0063240915 -0.020007776 -0.36721492 -0.01779527
-0.38167134 0.033830907 -0.20258078 -0.23249996 0.22323628 -0.30974647 -0.27192536 0.65316164
0.121285535 0.019986233 0.22430699 0.14203183 0.4631214 0.11780559 0.46414033 0.29821697
-0.43924734 -0.19093682 -0.16547646 -0.41441986 -0.11616644 0.20096867 -0.66655236 -0.025041677
-0.023915686 -0.05374891 -0.11391139 -0.22588462 -0.009473713 -0.26813188 -0.014957574 -0.041156653
-0.059029844 -0.0048099114 0.059424903 0.32346034 -0.19940755 0.15006255 -0.34217292 -0.27557
0.017240463 0.0073417244 0.2860398 -0.24727991 0.17356381 -0.3833763 0.5189018 -0.05819267
-0.50901157 -0.06509659 0.28792605 0.51196665 -0.278937 -0.15336075 0.010279084 -0.31715637
-0.13416523 -0.0014936939 -0.017856125 0.24335353 0.3883234 0.00402648 0.44138175 -0.06018363
-0.18457492 -0.0009634551 -0.33318225 0.006853734 -0.35463253 -0.32988214 0.02305354 -0.3309525
-0.052305005 -0.018213805 0.040893093 -0.033416405 0.2681493 0.39114365 0.16518085 0.34827766
0.47589788 -0.53682816 -0.45560285 -0.29808357 0.1736109 -0.48624352 0.06084272 0.5527931
0.6387989 0.6285159 -0.589388 0.2659918 -0.23134062 0.019726457 -0.31007642 0.16150372
-0.2501958 -0.015871385 -0.18515596 -0.32751516 -0.05479599 -0.33000275 -0.21617775 0.11911318
0.013031455 0.8764268 -0.14047115 0.05278121 -0.5561905 -0.16785397 0.16246203 -0.11086855
0.034845207 -0.13489631 -0.3395557 0.586256 -0.34911573 0.43774104 0.5535635 0.78748673
-0.02031345 -0.18089667 0.013903166 -0.5118435 -0.018259011 -0.4045957 -0.4483525 -0.00022016866
0.010398864 0.3568625 -0.29512835 -0.17815551 0.043397833 0.35060155 0.3548563 -0.1030357
-0.10612822 -0.19425064 0.44728518 -0.2691951 0.54443103 -0.11698981 0.29565713 -0.3573902
0.42729726 0.36519805 0.2489058 0.4289866 0.50367886 -0.53820896 0.6637909 -0.01387868
0.14822324 -0.18867777 0.08015678 -0.047309533 -0.024589654 0.24154235 0.08553312 -0.06692648
0.58816934 -0.0015494538 0.30155972 0.10109414 -0.06538584 0.42482117 -0.046073515 -0.11422983
0.06876521 -0.41511664 0.2819973 0.21592666 -0.15191546 0.27568412 -0.5450121 -0.5575696
-0.041359965 -0.13124889 0.02511062 -0.3826121 -0.09655904 -0.11478388 -0.014446218 -0.03305467
-0.33134377 -0.014802615 -0.2198097 -0.33648828 -0.1114879 -0.021522377 -0.33115458 0.7150027
0.5550851 0.013075212 0.3893237 0.0023569297 0.2280792 0.072652236 -0.39869747 -0.21999179

fc3.bias f4 [2]
00000000: 9f98 b83e 64a9 af3e
0.3605394 0.34308922
