p3_collab-compet/actor_0.pth (torch_old, 183836 bytes, 6 tensors)

fc1.weight f4 [256, 48]
000000 45 14 ce 3e 2f 5c 3b be 15 db 90 be 6f 6e 8f be
       0.4024984 -0.18296884 -0.28292146 -0.28013942
000010 36 e3 fa bc 87 39 26 bf 5d 44 8e be e5 3c 68 be
       -0.03062592 -0.6493153 -0.27786532 -0.2267948
000020 60 26 bc 3e 0c c2 7f be e7 69 b2 bd 26 e8 c2 be
       0.36748028 -0.24976367 -0.087116055 -0.3806774
000030 9f c7 50 be e2 6d 48 bf e1 32 cf bc 12 74 94 be
       -0.2038865 -0.7829267 -0.025292816 -0.28994805
000040 77 a1 ce 3e e3 c8 d0 be 26 5a 52 be 3c 27 2b bf
       0.40357563 -0.40778264 -0.20542201 -0.6685674
000050 e3 0e 5e be f0 9b 38 bf b5 de 2a be 08 35 19 bf
       -0.21685366 -0.7211294 -0.16686518 -0.59846544
000060 03 fb 2c 3f ae 5c 6d 3e 57 42 ff 3c bd fb 20 3d
       0.67570513 0.23179886 0.031159563 0.039302576
000070 33 e6 e7 3c 0f c4 33 bf e4 fa 00 3e fe 8e 37 3d
       0.02830801 -0.70221037 0.12595707 0.044814102
000080 36 bb 42 3f 55 aa 8d 3e 41 99 9d 3d 8c 7d 77 3e
       0.7606691 0.27669016 0.076952465 0.24168986
000090 4d 5c 3c 3e 5c fc 47 bf 66 a3 34 3d 83 d4 93 3e
       0.18394585 -0.78119445 0.04410114 0.2887307
0000a0 77 bd 2c 3f cf 3b 91 3e 2d ff 64 bc f4 77 20 be
       0.674766 0.28365943 -0.013976854 -0.15670758
0000b0 d7 71 67 3e 0e 54 37 bf 8c d6 05 3d 41 da fe bd
       0.2260202 -0.7161263 0.03267531 -0.124439724
0000c0 4d cd 94 3e 65 a5 96 3f e9 01 bf bc dd 74 3d 3f
       0.29062882 1.1769224 -0.02331634 0.74006444
0000d0 83 34 69 bd 78 5e 63 bf 99 21 1e 3c bf 92 43 3f
       -0.056934845 -0.8881602 0.009651565 0.7639579
0000e0 07 09 31 3e 47 9b 8f 3f aa e5 c4 bd c9 0f fd 3d
       0.172886 1.1219262 -0.096141174 0.123565264
0000f0 08 c2 37 3d 6d 53 68 bf 3e d0 e3 bb 73 5b 26 3e
       0.044862777 -0.907523 -0.0069523146 0.16245823
000100 a8 c7 0a bd cb 11 3e 3f d4 ec eb bc db 44 0a bf
       -0.033881813 0.742459 -0.028799452 -0.54011315
000110 9f 58 6c 3e 4d 06 51 bf 5b e9 30 bd 07 bf 15 bf
       0.23080681 -0.8165024 -0.043191295 -0.5849461
000120 8b 61 f4 be 54 a7 4c 3d 84 45 aa 3d bb 24 96 be
       -0.4773067 0.049964264 0.0831404 -0.29324898
000130 64 67 1b 3c 4c be 64 bf 80 56 a2 3d 01 7d af be
       0.009485099 -0.8935287 0.07926655 -0.34275058
000140 93 4f f0 be 8b 69 7b be 0b 18 4f 3d b6 9e 1c be
       -0.4693571 -0.2455198 0.05056004 -0.15294918
000150 cc 9c 4c bd 24 02 82 bf 8c 08 c2 3c e8 c0 5f be
       -0.04995422 -1.0156903 0.023685716 -0.21850932
000160 4d 39 00 bf 84 f0 1b be 34 c9 8e 3d 29 30 be bc
       -0.50087434 -0.15228468 0.0697197 -0.023216324
000170 db 0a ab be 7d af 4a bf b2 ab 8d ba 5f 9d 87 3c
       -0.3340672 -0.79174024 -0.0010808615 0.016554533
000180 24 c2 f5 3e 5f 04 88 3e 51 ea c8 3d 9b 26 d2 be
       0.4799968 0.26565835 0.09810317 -0.4104508
000190 82 bc d1 bd b6 b4 b7 be a1 fb 8f 3d 9b a0 a2 be
       -0.10241033 -0.3588006 0.07030416 -0.31763157
0001a0 5c f1 05 3f f8 f8 2d 3e 0c 51 e6 bd 29 0b b3 be
       0.5232141 0.16989505 -0.11245927 -0.34969452
0001b0 f8 c7 49 be c4 93 d4 be 94 9d 12 be 69 0f dd be
       -0.19705188 -0.41518986 -0.14317924 -0.4317582
0001c0 09 21 d7 3e 42 b3 e3 3c a9 48 65 3c d5 ca e7 be
       0.4201739 0.027795438 0.013994374 -0.45271936
0001d0 f7 32 6e be 7f 96 a4 be 76 96 df ba e5 34 e0 be
       -0.23261629 -0.3214607 -0.0017058391 -0.43790355
0001e0 f3 f6 eb 3e d0 96 29 3e eb a1 86 be 9c 5d 30 bd
       0.46086845 0.16561437 -0.2629541 -0.043058023
0001f0 d8 e0 88 3d 2a 0b b8 be f9 78 47 be 73 27 88 bd
       0.066835105 -0.35946018 -0.19479741 -0.06648149
000200 33 86 2f 3f 15 76 a1 3e f5 19 23 3e 89 d0 a2 3d
       0.68564147 0.31535402 0.1592787 0.07949931
000210 ec 20 1b 3e ae f4 cb be ee 5a 62 3e a8 e3 9a bc
       0.15149277 -0.39835113 0.22105 -0.018907383
000220 c2 b3 31 3f d5 2d 38 3e 52 e5 bf bd f5 ed 4d be
       0.69414914 0.17986234 -0.09369911 -0.20110305
000230 b7 28 5e 3e 2d fe b5 be 96 2d 53 3c 3c 70 6e be
       0.21695219 -0.35545483 0.0128892865 -0.23285002
000240 fb 34 40 3f 4d 3c 82 3e c4 51 36 3d df fc 88 3e
       0.7508084 0.2543663 0.04451157 0.26755425
000250 f1 b4 87 be 35 90 05 bf 02 f3 bc 3d 3f bc 4e 3e
       -0.26505235 -0.5217317 0.092260376 0.20188998
000260 11 a4 4c 3f 78 1f 9e 3e c7 cd 2e 3e 37 bd fd 3e
       0.79937845 0.30883384 0.17070685 0.49558422
000270 b7 23 0f 3c da 1c 1a bf d1 d4 17 3e f4 ad 04 3f
       0.008736542 -0.60200274 0.14827277 0.5182793
000280 ed 45 53 3f 70 5c e0 3e 24 34 18 3e 19 c8 e0 3d
       0.82528573 0.43820524 0.1486364 0.109756656
000290 b9 1f 84 3e d7 48 2a bf 59 67 5f 3d 8f df 05 3e
       0.25805452 -0.66517395 0.05454192 0.13073562
0002a0 5a c6 9d bc 4f 02 30 bf ca fa 55 bd bb 3f 03 bf
       -0.01925962 -0.6875352 -0.052241124 -0.5126912
0002b0 26 aa 2a 3e 87 3e 0f bf ad d1 ca bc e8 f0 03 bf
       0.16666469 -0.55954784 -0.024758184 -0.5153947
0002c0 55 86 ce 3c ff 36 45 bf 91 12 a8 bd 85 21 91 bd
       0.025210539 -0.7703704 -0.08206666 -0.070864715
0002d0 b9 18 b2 3c 16 83 25 bf 87 7b 43 bd 3f 6b 0b be
       0.021740304 -0.64653146 -0.047725227 -0.1361513
0002e0 69 5e 8b 3d 74 56 3f bf 84 b2 29 3d c2 a4 12 3f
       0.06805117 -0.7474129 0.04143001 0.5728265
0002f0 79 8a 4b be 21 e7 0d bf 0c 85 2e bd 02 69 0f 3f
       -0.19877042 -0.554308 -0.042607352 0.56019604
000300 13 de 3e be cf d5 9e 3e d4 18 8a 3d 6a 0c aa 3e
       -0.18639402 0.31022498 0.06743017 0.33212596
000310 c3 11 97 3c c1 0e ed be 97 62 09 3e 9c b5 9c 3e
       0.018441087 -0.4630032 0.13416515 0.30607307
000320 f1 44 c2 bd 9c 9f b3 3e 49 1b 23 3e 45 18 85 3e
       -0.09485806 0.3508271 0.15928377 0.2599508
000330 19 c5 80 3e 8e b1 2e bf a9 9b bc 3d 18 d1 99 3e
       0.25150374 -0.68239677 0.09209377 0.30042338
000340 fc 87 ab bd b7 7d 08 3f e9 8a 2c be e3 c5 10 3e
       -0.08375546 0.53316826 -0.16849865 0.14137988
000350 06 a8 ab 3e 4f f1 ad bf d5 1b 01 be e8 f8 99 3d
       0.3352663 -1.3589267 -0.12608273 0.07518178
000360 0d db 9a be 19 07 6e bf 06 8b 0b 3c 0d 3d 5a bf
       -0.30245247 -0.9297958 0.0085170325 -0.85249406
000370 ef 63 b6 bd 3d 1e da be 4d 4d 8b 3d 55 71 3b bf
       -0.089057796 -0.42601195 0.06801853 -0.73219806
000380 34 70 d5 be 9d a6 84 bf bd 01 9c 3c d9 7a 38 39
       -0.41687167 -1.0363346 0.019043798 0.00017593372
000390 7d 2e 84 be c2 b1 41 bf f3 cb 95 3d 5e 5e 7d bd
       -0.25816718 -0.7566186 0.07314291 -0.061857574
0003a0 65 d7 ce be 9d 3f 3e bf b3 c1 26 3c be 5d 6f 3e
       -0.40398708 -0.74315816 0.010178017 0.23375604
0003b0 5e f2 8d be 3b 35 b1 bf 68 58 94 3d ce 6c 38 3e
       -0.27723974 -1.384437 0.07243425 0.18010256
0003c0 92 22 fb 3e fe f4 eb 3e 18 57 8a bd 5c 66 b9 bc
       0.49049813 0.46085352 -0.06754893 -0.022631817
0003d0 59 df ce 3d 7e 01 54 be 32 5b 4e bd bc 6c c5 bc
       0.10101194 -0.20703694 -0.05037994 -0.0240997
0003e0 9a 50 3f 3f 3d 01 1d 3f af 8b 91 3e 87 75 b6 3d
       0.74732363 0.61330014 0.28426883 0.08909135
0003f0 b0 ee 0e be 1b 17 32 bf fb 16 87 3e bc 13 ae 3d
       -0.1395824 -0.69566506 0.2638472 0.08499858

fc1.bias f4 [256]
000000 76 aa c5 be 52 07 4b 3e 56 82 c7 be b0 b9 12 bf
       -0.38606614 0.19827011 -0.38966626 -0.57314587
000010 cc 2a 0d 3d c4 c2 b3 be 33 79 09 bf ff 8e a0 be
       0.034464642 -0.35109532 -0.5370056 -0.31359097
000020 f9 0d ab be 20 e6 eb be fd 9c 14 be e5 d5 47 be
       -0.33409098 -0.4607401 -0.14513011 -0.19515188
000030 3d 72 fa 3e 92 a6 8d 3d 81 95 b7 be b5 16 56 be
       0.48915282 0.069165364 -0.3585625 -0.209071
000040 a3 1b 06 bf 37 b3 5a 3e e8 4b 81 be 2f 37 75 be
       -0.5238592 0.21357428 -0.25253224 -0.23946832
000050 76 96 d7 3c 45 c0 b6 be a6 f8 d6 3d c3 ad 02 bf
       0.026316863 -0.35693565 0.10496645 -0.5104639
000060 3a 2a 36 be 12 af 87 be d0 7d 88 3e a6 4c 05 bf
       -0.17789546 -0.26500756 0.26658487 -0.5207008
000070 dd db 00 bf 93 40 21 bf 0c 1f 01 bf e2 a9 bc 3e
       -0.50335485 -0.6298916 -0.50438 0.3684836
000080 26 e7 a2 be fd 98 c0 3d 37 c9 04 be 69 9a 56 be
       -0.31816977 0.0940418 -0.12967382 -0.2095734
000090 d6 f6 f8 bd fd cb 9b be 12 ef 74 be fd 44 0e bf
       -0.12156455 -0.30429068 -0.23919323 -0.5557402
0000a0 9f 81 c7 be 64 f5 70 be 3a 84 b9 be ae 85 17 bf
       -0.3896608 -0.23531109 -0.36233693 -0.59188354
0000b0 2c d3 ff bd 5a cf 9f be b8 9d c8 be 18 f9 13 bf
       -0.1249145 -0.31212884 -0.3918283 -0.5780196
0000c0 87 cb a0 be 74 11 bf bd dd db 07 bf 67 82 e8 3d
       -0.3140528 -0.09329501 -0.5306986 0.11352997
0000d0 16 9b ed bc 44 62 03 be 16 69 7a 3e 57 76 b2 be
       -0.029004615 -0.12830454 0.2445415 -0.3485591
0000e0 f5 ec b6 bd b1 bd f7 bd 01 b2 36 be 8a 92 d9 be
       -0.08931915 -0.12096728 -0.1784134 -0.42494613
0000f0 f7 cf 16 3e ee 37 0c 3f 00 bc 3a bf ed 86 e8 bd
       0.1472777 0.5477284 -0.72943115 -0.1135386
000100 44 93 0b 3f eb 5c 08 be 24 98 02 be 2a 92 ce bd
       0.54521585 -0.13316695 -0.1275335 -0.10086472
000110 10 59 25 3e 7f b4 ff be 9e c4 0c bd 60 6d c2 be
       0.16147256 -0.49942395 -0.034367196 -0.37974072
000120 ff 75 04 bf a4 8a 3b 3f c8 44 f8 be 41 03 0a bd
       -0.5174255 0.73258424 -0.48489976 -0.03369451
000130 3b a1 0e bf 5f d8 0b bf a0 2b 28 bf 7b ff c8 3c
       -0.5571477 -0.5462703 -0.65691566 0.024535885
000140 5a ab 6a be 86 2b a2 be 93 9b 10 bf 10 20 99 bd
       -0.22916928 -0.3167383 -0.5648739 -0.074768186
000150 35 21 a6 be b2 ac 43 be 40 36 0b bf ab e3 07 bf
       -0.3244721 -0.19108847 -0.54379654 -0.5308177
000160 bf 8a 6f be 43 61 4b bd 77 88 8c be bb 79 d5 3e
       -0.23392771 -0.049653303 -0.27447864 0.41694435
000170 e9 ab 6b be 5b 6b a2 be d9 83 e6 be c4 83 b8 be
       -0.23014797 -0.3172253 -0.45022467 -0.3603803
000180 a8 0b a0 be ef 59 8d 3e aa 0c 7e be 2a b2 41 be
       -0.31258893 0.27607676 -0.24809518 -0.1891562
000190 71 ea 9e be 3f 00 55 bf fb 9b c3 be 45 5c 9c 3d
       -0.3103824 -0.832035 -0.3820494 0.076347865
0001a0 14 0c 0f 3f 47 42 0e bf 31 3a e1 be fe ea 4e be
       0.55877805 -0.5556988 -0.4398971 -0.2020683
0001b0 ad 23 7f be 1d cd 71 be e7 f1 ac be 5f 64 fb be
       -0.24915953 -0.23613401 -0.33778307 -0.49100015
0001c0 34 b5 91 be 32 1d 4f be 01 94 fe be 4c 78 7e be
       -0.2845856 -0.20225981 -0.49722293 -0.24850577
0001d0 3e 99 1a bf 3a ed 8a 3e 0f 6a 39 bf 1a 46 a1 be
       -0.6039008 0.27134115 -0.7242746 -0.31498796
0001e0 34 a2 ff be 8f 04 e0 be c8 05 ab be 79 78 95 be
       -0.4992844 -0.43753478 -0.33402848 -0.29193476
0001f0 de 0d 0c bf 42 a3 f4 bd 26 01 47 bf f3 f1 98 3e
       -0.5470866 -0.119452015 -0.7773613 0.29872093
000200 49 f2 7b 3d 87 27 e7 3d a9 64 ca be 73 0a d8 be
       0.061510358 0.11286836 -0.39529923 -0.42195472
000210 34 75 01 bf 96 4f 15 bf 8e aa 82 be 49 a4 82 be
       -0.5056946 -0.58324564 -0.25520748 -0.25515965
000220 eb fd 10 3e 0f 62 cc be fd 51 8b be 98 3e 80 be
       0.14159362 -0.39918563 -0.2721099 -0.25047755
000230 1f ae 04 bf d1 15 5a be f7 4a 1e be 76 bb e0 be
       -0.5182819 -0.21297385 -0.15458284 -0.4389302
000240 8e 4d a6 be f6 30 a0 be 21 da a1 be 3e 76 9b be
       -0.32481045 -0.31287354 -0.31611732 -0.3036365
000250 46 98 8c be 06 54 a3 be 1d 7d d9 be 87 f0 75 be
       -0.27459925 -0.31900042 -0.42478266 -0.24017535
000260 7a f0 22 3d 0b 55 d5 bd ea 39 c1 be 56 47 ed be
       0.039780118 -0.10416611 -0.37739497 -0.46343488
000270 94 0c 0c bf ba 55 54 be 3d f2 0c be f3 11 d0 be
       -0.5470669 -0.20735827 -0.13764282 -0.40638694
000280 a4 29 e1 be 33 8c 9d bd b4 94 d3 be 55 07 bf be
       -0.43977082 -0.076927565 -0.4132439 -0.3731028
000290 fe cc ae be 2e f4 08 be 00 1e b7 bb c4 7a 79 be
       -0.34140772 -0.13374397 -0.005588293 -0.24363238
0002a0 b7 74 b5 3e b3 8c 68 be 42 95 ae be ba 92 45 be
       0.3544061 -0.22709922 -0.3409825 -0.19294253
0002b0 f8 7f 80 be a8 40 90 be 5e 51 c8 3e c3 42 3f bd
       -0.25097632 -0.2817433 0.39124578 -0.04669453
0002c0 58 d0 5d be c3 92 11 bf 27 a0 1c 3d 30 91 02 3e
       -0.21661508 -0.56864566 0.03823867 0.12750697
0002d0 00 ee e4 be c0 01 b2 be 03 8d d8 bd 30 5e ad be
       -0.4471283 -0.3476696 -0.10573771 -0.33860922
0002e0 e8 8a 48 bc 4a 94 fe be 6e 0b bc be 1c f6 5e 3e
       -0.012240149 -0.4972251 -0.3672747 0.21773571
0002f0 09 0d 5c be 5d 52 54 3e cb a2 1a be 87 37 00 3d
       -0.21489348 0.20734544 -0.15101163 0.031302955
000300 82 c4 14 3e ec b7 82 be 6d 85 73 be a6 f4 b5 be
       0.14528087 -0.25530946 -0.23781367 -0.35538214
000310 e3 c6 83 3e ca a9 af be 63 f6 39 bd 0f 89 85 be
       0.25737676 -0.34309226 -0.04540099 -0.2608113
000320 54 17 e1 bd 1c 37 d1 bd 5d 77 20 bf 8d d7 2a bf
       -0.109907776 -0.102155894 -0.62682134 -0.66735154
000330 0a ce 63 be 6d 50 34 be a1 dc a3 be 3b 62 f5 bd
       -0.22246566 -0.17608805 -0.32004264 -0.119816266
000340 e3 f0 da be df 4e d2 be e6 cd 10 be 8d d1 eb be
       -0.42761907 -0.410758 -0.14141044 -0.46058312
000350 8e eb ab be cd 0d 33 be 55 cc 6c be dd 7d 80 3e
       -0.3357815 -0.17485733 -0.23124821 0.25096026
000360 aa 0a 91 be 7f 0d 3b 3c 32 bf f5 be 00 d1 fe bd
       -0.2832845 0.011416792 -0.47997433 -0.12442207
000370 fc 91 2a 3d 71 2c 34 bf 2f f5 b6 be 95 b5 9b be
       0.041643128 -0.7038031 -0.35733935 -0.30411974
000380 14 31 85 be 19 43 01 bf cc 2b 97 be cf 57 b2 be
       -0.26014006 -0.5049301 -0.29525602 -0.34832618
000390 eb 49 ea bd a4 e7 20 bf 57 e6 8c be b1 6e c5 be
       -0.1143988 -0.62853456 -0.27519485 -0.38561013
0003a0 c1 55 9d 3e 2c 21 30 bd 0d 8a 99 be a2 21 84 3e
       0.30729488 -0.043000385 -0.29988137 0.2580691
0003b0 73 83 43 bd 60 9d 29 be bf 4b c7 be cb 7a 88 be
       -0.04773278 -0.1656394 -0.38924977 -0.26656184
0003c0 02 9d 5f bd c3 e0 ce bd 74 10 cd be 0f 37 ad be
       -0.054593094 -0.10101464 -0.40051615 -0.3383107
0003d0 a0 2c 2a bf dc 8a 75 be a7 bc 5b be af d6 64 be
       -0.6647434 -0.23978752 -0.21458684 -0.2234752
0003e0 ab e6 ac be 4e ef 3f be 7f e6 28 bf c3 9e 07 bf
       -0.33769736 -0.18743631 -0.6597671 -0.52976626
0003f0 05 b1 80 bd e9 46 94 bd 10 05 10 3d a0 26 bc be
       -0.06283764 -0.072400875 0.035161078 -0.3674822

fc2.weight f4 [128, 256]
000000 2b 2e a0 bd 99 d3 18 3e d2 86 45 be 8e 2f c4 be
       -0.07821306 0.14924468 -0.19289711 -0.3831753
000010 d1 70 2a 3e ca af 09 3e 42 7a e0 be 2a fd 92 3e
       0.16644599 0.13445964 -0.43843275 0.28708774
000020 df ed 9d be 99 e0 84 be 2a 8d b1 bd 56 a8 19 bf
       -0.30845544 -0.25952604 -0.08669503 -0.60022485
000030 63 17 1d bf 17 a9 b9 3e d8 06 09 3e af b3 66 3e
       -0.6136381 0.36261818 0.13381517 0.22529481
000040 c9 de a7 be f1 0d 1c bf 8f af b7 be a8 07 10 3e
       -0.3278716 -0.6095877 -0.35876128 0.1406542
000050 8f 8c 9c be d2 68 85 be 15 34 13 3d f3 ff c2 be
       -0.30575988 -0.26056534 0.03593834 -0.380859
000060 35 42 2e bf 73 8e aa be 8d 33 e2 3e 2f c2 82 be
       -0.68069774 -0.33311805 0.44179955 -0.25538775
000070 e6 eb 14 bf c7 a6 37 bc 6c aa 10 3e f4 ec 1e bf
       -0.5817245 -0.011209196 0.14127511 -0.6208031
000080 34 70 94 3d d2 36 83 bc 1f f3 10 bf 44 52 02 3e
       0.072479635 -0.016017351 -0.56620973 0.12726694
000090 98 ed da be e4 7f 12 3e 28 3c 1f be f9 02 f6 be
       -0.42759395 0.14306599 -0.15550292 -0.48049143
0000a0 8d cf b8 be a7 3c 83 be 42 76 e1 bd 0e 59 ac be
       -0.3609585 -0.25632212 -0.11008884 -0.33661693
0000b0 05 c8 55 be dc 64 d7 be a1 eb 45 3e 12 f6 ab 3c
       -0.20877083 -0.42069137 0.19328167 0.020991359
0000c0 6b 77 a1 be 37 a9 b6 3e 59 e4 6e 3c b0 25 41 bd
       -0.3153642 0.35675976 0.0145808095 -0.047155082
0000d0 74 e6 58 bc 26 ce 90 be 72 0b c6 3e 3a 4c 84 be
       -0.013238538 -0.2828228 0.38680607 -0.25839406
0000e0 68 5c a3 bd 01 40 6d 3e 89 7f e9 bd 44 5e 20 bf
       -0.079766095 0.23168947 -0.114012785 -0.6264384
0000f0 c3 28 b3 bd 8f 66 93 3e 16 45 98 be 37 21 1f bf
       -0.08748009 0.28789183 -0.29740208 -0.62160057
000100 a3 56 b6 3e ba 6f 3d be a6 98 ff 3d 65 5b 10 3e
       0.35612974 -0.18499652 0.12480287 0.14097364
000110 79 d5 9f 3e 0e 57 b0 be 95 05 3a 3d f7 b3 97 be
       0.31217554 -0.34441417 0.04541548 -0.2962949
000120 7a 7d 51 3e 11 a5 46 3f c9 86 dc bb b4 9f a4 3e
       0.20458022 0.7759562 -0.006729935 0.32153094
000130 0a 85 25 bd 1f e4 88 be 17 13 bf bd 5d f7 15 be
       -0.04041008 -0.26736543 -0.09329813 -0.14645143
000140 da bb d5 bb 21 4a e2 be c3 cd 66 3c 67 79 fa 3e
       -0.006522638 -0.4419718 0.014087143 0.48920748
000150 a4 24 13 3e c8 f3 84 be e0 f1 fa 3d 30 f8 98 bb
       0.14369446 -0.2596724 0.12253165 -0.004668258
000160 79 38 ff 3e 9a be 60 bc e5 d3 6e be 51 f5 53 bf
       0.49847773 -0.013717318 -0.23323019 -0.827962
000170 ac a8 5a 3d be 6b de be 3c 24 1c be 64 c0 2e bf
       0.053383514 -0.43441576 -0.15248197 -0.68262315
000180 ea 83 16 3e 93 70 e9 bd ab 23 07 be 66 00 ca 3d
       0.14698759 -0.11398425 -0.131972 0.09863357
000190 3f 67 37 bd 25 86 8e 3d 62 3a ca be c3 31 80 bf
       -0.044776198 0.0695918 -0.39497668 -1.0015186
0001a0 8a 75 dc 3e 81 b4 1e 3e 22 9c c4 be 18 41 54 be
       0.43058425 0.15498544 -0.3840037 -0.20727956
0001b0 d0 50 8a 3e 73 1b f4 bd 50 ec dc bc 44 0d 9f 3c
       0.2701478 -0.11919298 -0.026968151 0.019415505
0001c0 f7 39 76 3d 21 d3 5a 3e 0e 5d 0b be cc 6a 8d be
       0.060113873 0.21369602 -0.13609716 -0.27620542
0001d0 c0 3d 09 3e c7 4c e7 3d 89 ee a8 3e 96 24 9a be
       0.13402462 0.11293941 0.32994488 -0.30106038
0001e0 2b 7b f1 bd b6 03 09 3e 66 c9 8f be 45 4f 95 3b
       -0.117910706 0.13380322 -0.28083342 0.004556569
0001f0 a9 6d 42 3e 65 bc f5 be 95 4f 86 be e1 fb 1b be
       0.18987145 -0.47995296 -0.2623259 -0.15232803
000200 f3 1c 45 be 60 24 3d 3e dc 30 05 3f 6b fc 15 bf
       -0.19249325 0.18470907 0.5202768 -0.58588284
000210 09 6c 84 3e 22 1d 07 be 3a 09 a8 be da 80 db bd
       0.25863674 -0.13194707 -0.3281954 -0.10717936
000220 17 0f a0 3b 44 d1 2e 3c 9d 19 47 be a0 46 e8 be
       0.0048846113 0.01067001 -0.19443364 -0.45366383
000230 d5 90 02 be 0b c5 71 bd 22 25 51 bf 85 63 a2 bc
       -0.12750562 -0.059025805 -0.81697285 -0.019822845
000240 41 04 35 be 47 37 7b be 74 27 87 be a1 6d bf be
       -0.17677404 -0.24532805 -0.26397288 -0.37388328
000250 b7 a0 a4 3d 6e d0 09 bf fd 5d a3 bd 57 8c 13 bf
       0.080384664 -0.53833663 -0.07976911 -0.57636017
000260 bc 48 da bd a3 55 d2 bb b8 22 86 bc 75 f0 8b 3d
       -0.10658404 -0.0064189 -0.016373977 0.06832973
000270 72 27 52 be 66 e3 e4 be 67 3c 7d 3e 50 8b 77 3e
       -0.2052286 -0.4470474 0.24730073 0.24174237
000280 d2 45 87 bf cf 6a 66 3b b9 25 20 bf 83 e7 2c be
       -1.0568182 0.0035158878 -0.6255756 -0.1688519
000290 41 6b 18 3d bc ea e6 bd 09 13 88 bd ed a9 c3 be
       0.03721166 -0.11275241 -0.06644256 -0.3821558
0002a0 f9 5c 67 bd 5e 4c 66 be c1 3e f6 3d eb f1 ae bf
       -0.05648515 -0.2249007 0.12023688 -1.3667578
0002b0 79 43 ac 3c 65 0e 90 be 5b 61 00 3e 26 9c 2e bf
       0.021028267 -0.28135982 0.12537138 -0.68207014
0002c0 de 79 3c bc 1d db 65 3c a3 7a 44 be 82 8f 9e be
       -0.011503665 0.014029291 -0.19187407 -0.30968863
0002d0 a9 7b c3 bd d8 4e b8 bd be ec f6 be ca 93 15 3f
       -0.09545071 -0.08999413 -0.48227495 0.58428633
0002e0 a2 38 c6 be 3d 72 cb bd f8 db 08 be 88 01 ae be
       -0.38715082 -0.099338986 -0.13365161 -0.33985543
0002f0 ec 4f 25 bd e4 f9 1e be 1a c1 f9 3e 99 d6 f0 be
       -0.040359423 -0.15525013 0.48780137 -0.47038725
000300 93 83 15 3d 3d d0 71 3d ea 77 4a bf 7e be 5f be
       0.036502432 0.059036482 -0.79089224 -0.21850011
000310 ac b3 40 3f ea 7b cb 3d 6f f9 da 3e 59 92 ae bd
       0.7527416 0.09935744 0.42768428 -0.08524007
000320 18 34 24 bf a7 28 1d be 1a 91 c1 3c 0c 04 e9 be
       -0.6414199 -0.15347539 0.02362876 -0.455109
000330 f8 f0 1b bf 69 fb 33 be 41 9f 91 be eb 80 17 bd
       -0.60914564 -0.17576374 -0.28441814 -0.03698818
000340 29 a4 a5 be 42 1d 8b 3b d2 70 bb 3e 1f 55 e8 bd
       -0.32351807 0.004245431 0.36609513 -0.113443606
000350 97 b8 ce 3d 76 f2 a3 be 9b 6f f3 be 45 7e 3d bf
       0.100938015 -0.3202092 -0.47546086 -0.74020797
000360 36 10 15 3f aa b3 82 bc d9 17 0a 3f e4 d0 95 3d
       0.5822786 -0.015954811 0.5394264 0.07315233
000370 dc e5 b9 be 7e 85 28 be dc fd 3a 3d 00 d7 78 3e
       -0.3630818 -0.16457173 0.045652255 0.24300766
000380 a5 4e 9f be d2 ce b8 be 89 18 f9 3d 64 4a a2 be
       -0.3111469 -0.3609529 0.12162883 -0.3169738
000390 1b 0b a0 3d 49 22 9d be 23 db ea bd af bb 92 be
       0.07814618 -0.3069022 -0.11467578 -0.28658816
0003a0 84 9d ae 3e b0 08 e5 bd b2 ea 99 3d bf f2 c7 3e
       0.3410455 -0.11183298 0.07515468 0.39052388
0003b0 99 b2 44 be ba b7 a4 3e 3c 18 ef bd 22 6c 9b be
       -0.19208755 0.32171422 -0.11674544 -0.30355936
0003c0 db 6a 0a bf 2a ab bd be 09 d6 23 3d 00 57 74 3c
       -0.540693 -0.3704465 0.03999904 0.014913321
0003d0 2b a0 13 bf 82 44 99 be 46 c9 cf 3e 3c 19 7e be
       -0.5766627 -0.2993508 0.40583247 -0.24814314
0003e0 82 f6 26 3e 2d f8 98 3e b6 32 81 3e b2 f0 dd bd
       0.16304973 0.29876843 0.25234002 -0.108369246
0003f0 6c f8 d2 3e 06 c4 88 3e 9f 52 44 bf 58 3f f8 bd
       0.41205156 0.26712054 -0.7668857 -0.12121457

fc2.bias f4 [128]
000000 97 ac 87 3e 4f 85 78 3d 72 a4 ad bd 3f f6 b1 be
       0.26498863 0.060674008 -0.08478631 -0.34758183
000010 5f 00 79 be f7 e2 37 3e d8 38 02 3e 0a 75 c0 bc
       -0.24316548 0.17957674 0.12716997 -0.023493309
000020 f5 7d d7 be ab 99 10 bf 22 ae 30 be 7a b5 3a bc
       -0.42088285 -0.5648448 -0.17253926 -0.011395806
000030 25 9a 35 bf c0 ff 0d bf ba 0e ea bd a0 6f 15 be
       -0.7093833 -0.5546837 -0.1142859 -0.14593363
000040 58 56 c7 be ac 07 99 be 54 00 c8 bc d6 2d d7 be
       -0.38933063 -0.29888666 -0.024414219 -0.42027158
000050 ab 55 71 3e 86 a4 07 bd 15 d6 35 bf 46 11 0e bd
       0.23567836 -0.033115886 -0.7102979 -0.034684442
000060 07 6b f7 be ea f4 08 bd 6c 17 c9 be 9a b5 b1 be
       -0.48323843 -0.033436693 -0.39275682 -0.34708863
000070 16 6a d6 be d7 3b 0d bf 5e d7 e7 be c9 a9 bb be
       -0.41877812 -0.55169433 -0.452815 -0.36652973
000080 2f d6 1a bf d1 2d 9d 3d 45 95 ed be 87 f9 80 be
       -0.6048307 0.076747544 -0.46402946 -0.25190374
000090 44 2c a0 be 4c 76 a0 bc 84 04 d7 be b0 c8 6d be
       -0.31283772 -0.019587658 -0.41995633 -0.23221087
0000a0 c1 00 06 bf 6a 9c 84 be 3c 93 9a bd e1 21 20 be
       -0.523449 -0.25900584 -0.07547614 -0.15637924
0000b0 39 5a 52 be 6f 5e 4e be 1b 5b 26 bf 0d 96 d7 be
       -0.2054223 -0.20153211 -0.64982766 -0.42106667
0000c0 52 e2 b4 bd fa 13 b0 be 07 f5 b5 3e 46 5a 84 be
       -0.0883223 -0.3439024 0.35538504 -0.25850123
0000d0 f3 49 80 3d f0 2b 7d be 90 92 e1 bd 4d 4a 18 bf
       0.06264105 -0.24723792 -0.11014283 -0.59488374
0000e0 1f 91 9b be f2 d9 a3 bb 9a e1 06 be 3b 09 a5 be
       -0.30384156 -0.0050003463 -0.13171998 -0.32233605
0000f0 54 1c 08 3e db 3c 9b 3d a3 27 5c bf 07 a8 54 be
       0.13292056 0.07579967 -0.8599798 -0.20767222
000100 08 be 5f bf 3f 64 5e bd c0 a0 8a be 79 27 5e be
       -0.8739934 -0.05429482 -0.27075768 -0.21694745
000110 a7 de ad bc 93 f4 2c bf 1b a5 32 3b c1 78 21 bd
       -0.021224333 -0.6756069 0.0027259055 -0.0394218
000120 ca e9 41 3e 55 02 e3 be 82 4a 7f be f4 f7 0e bf
       0.1893684 -0.44337717 -0.24930766 -0.55847096
000130 cf 0e e3 be 55 9c 25 bf c1 2c 85 3d 8c d5 de be
       -0.44347236 -0.6469167 0.06502677 -0.43522298
000140 12 6d cc bd 95 c8 df 3a 83 c6 e3 be 5d 5a 9c bd
       -0.09981741 0.0017073328 -0.4448739 -0.07634423
000150 43 b5 6b be d0 1f 70 be f7 5b 69 be a8 4e d7 3e
       -0.23018365 -0.23449636 -0.22788988 0.42052197
000160 1d 8a 96 3c 46 84 b6 bc ca 5b 03 bf d5 f5 e6 be
       0.018376404 -0.02227987 -0.51311934 -0.4510943
000170 94 af c2 be 0a e5 f8 be d8 43 b9 bd a6 cd 9d 3d
       -0.3802458 -0.48612243 -0.09046143 0.0770524
000180 cf 19 80 bf 62 f9 1d be b4 7a c7 bd 88 a9 9c be
       -1.0007876 -0.15427163 -0.09740201 -0.30598092
000190 47 53 9c bd e1 59 2b be c5 ac 49 be 7f 42 9d 3e
       -0.076330714 -0.16733505 -0.19694813 0.30714795
0001a0 71 ac 3c be 2c a2 15 bd 0b c0 08 be a4 68 ef bc
       -0.18425156 -0.036531612 -0.13354509 -0.029224701
0001b0 c7 c9 c3 be 08 8d 75 be 7e 79 66 3e f3 45 19 bf
       -0.3823988 -0.2397958 0.22507283 -0.5987236
0001c0 e8 2a c2 be 1d 10 04 bf 65 a1 ec bc 5a 91 25 be
       -0.3792336 -0.51587087 -0.028885553 -0.16168728
0001d0 05 b6 92 be 05 53 6a be 71 d3 a4 bd 2e 72 b7 3d
       -0.28654495 -0.22883232 -0.08048142 0.08957325
0001e0 e6 a0 e2 3d 91 a0 b0 be 92 55 c6 be 1a 57 f2 be
       0.11065845 -0.34497502 -0.3873716 -0.47332078
0001f0 fa 2f d6 bd 5b 57 27 bd 17 75 ab bd fb 7d 62 be
       -0.104583696 -0.040854793 -0.083719425 -0.2211837

fc3.weight f4 [2, 128]
000000 fe bd 86 3e 60 b6 54 be fc 01 ef 3c b1 6a d8 3d
       0.26316828 -0.20772696 0.02917575 0.10567225
000010 f5 b9 d9 3d a4 3e b4 3e 0f ad b1 3e 2c cf ea 3c
       0.106311716 0.3520404 0.34702346 0.02866324
000020 48 35 bf be f5 3a 61 be f4 f8 d8 ba 47 86 00 bc
       -0.37345338 -0.21995147 -0.0016553686 -0.007844514
000030 e5 8a 1b 3d c1 59 9c be b8 89 83 3d 48 14 32 bb
       0.037974257 -0.30537227 0.06422752 -0.0027172733
000040 a3 ab 57 3e 0b 36 3a be 10 15 11 ba 35 71 7a be
       0.21061568 -0.18184678 -0.00055344496 -0.24457248
000050 cd 03 d4 bb 16 82 c3 3c 75 ba 4c 3e 2d 55 da ba
       -0.0064701797 0.02386574 0.19993003 -0.0016657464
000060 70 65 eb 3c dc d6 88 bc 3c b6 dd 3e ec 49 ca be
       0.028734893 -0.016704015 0.43303096 -0.39509523
000070 81 dc 04 be 48 60 88 be bb b3 87 be 9f 71 47 3b
       -0.1297474 -0.26635957 -0.2650431 0.0030432714
000080 0c a7 ee 3c d1 d9 d3 be 42 a6 b7 3d d7 d6 73 3e
       0.029132389 -0.41377118 0.08967258 0.23812424
000090 a4 82 c1 3d 4b 75 83 bb 92 2c 82 be 62 75 61 be
       0.09448746 -0.004011785 -0.2542463 -0.22017434
0000a0 7e dc 81 3e 0e 26 dc 3d b7 6a e2 bd ea 25 64 3b
       0.25363535 0.10749446 -0.110555105 0.0034812638
0000b0 61 5d 5f be a1 2a 0f 3c c1 f5 12 bf bd 19 8f be
       -0.21812965 0.008738191 -0.5740624 -0.27949324
0000c0 da da 13 3e 42 ef 46 be 87 89 a8 be d4 b9 b8 bd
       0.14438954 -0.19427207 -0.32917425 -0.09019819
0000d0 fd 0c 45 be 20 7c 7a 3e 9b ca 94 3c bc 3c 06 be
       -0.19243236 0.24461412 0.018163016 -0.13109106
0000e0 0b a4 e2 3c ff 9a e5 bc 82 fb 54 bd 48 11 99 bd
       0.027666112 -0.02802801 -0.05199767 -0.07473999
0000f0 d8 86 a2 3b 4f c8 0a be d3 3c a2 3e 8d 45 9f bc
       0.0049599223 -0.13552974 0.3168703 -0.019442344
000100 58 98 04 3f 0b a8 b5 3d 13 2c a0 3d 7f d5 48 be
       0.5179496 0.08869942 0.078209065 -0.19612692
000110 0f b0 74 3c be 8d e6 bd ca 19 9b bc 5c 7c 9e 3e
       0.014934554 -0.11257504 -0.018933196 0.30954254
000120 1d 81 17 3f 93 4a 07 be 06 9d 43 3e 96 86 43 bc
       0.59181386 -0.13212042 0.19102868 -0.011933943
000130 4b 4c 27 be 35 85 35 bc 31 32 b5 3d 6c 19 c1 be
       -0.16337697 -0.011079122 0.08847464 -0.37714708
000140 63 62 b3 3d 40 ad d2 bc fe 45 3a 3e 2a b2 b9 3e
       0.08759 -0.025717378 0.18190762 0.3626874
000150 00 53 68 3e 19 13 b7 3e 13 81 82 3e bb 47 cb 3e
       0.22687912 0.35756758 0.254891 0.39703164
000160 24 a4 02 3c 47 9e b0 3b 53 4e 19 be 25 93 e3 bd
       0.0079737045 0.005389962 -0.14971285 -0.1111205
000170 08 71 7c 3e 4e 6d 8d be 32 ff 90 3c 56 27 45 3e
       0.24652493 -0.27622455 0.017699812 0.19253287
000180 5c ac b6 be 7e 1d 7b 3d e9 0b ab 3c 08 b5 30 3e
       -0.35678375 0.061307423 0.020879703 0.17256558
000190 85 06 bb bc 01 28 8f 3e 42 1e e8 3d 2e 24 43 3f
       -0.022830257 0.27960208 0.11333896 0.7622708
0001a0 d3 97 0a 3b 80 f1 68 3c de 47 5b 3e 10 89 95 3a
       0.0021147623 0.014217734 0.21414134 0.0011408646
0001b0 7e 0d 29 be 6a 7e 25 be a6 25 a3 3e e6 64 14 3e
       -0.16509053 -0.16161504 0.3186466 0.14491615
0001c0 a4 15 a6 3d 30 a5 84 3e af 87 3a 3c dc da 82 be
       0.08109596 0.25907278 0.011384889 -0.255576
0001d0 54 c7 1c be 07 d5 a1 bc ac a4 2d bd 52 bd 07 3e
       -0.15310413 -0.0197549 -0.04239337 0.13255814
0001e0 8e 7c 56 3e 58 a3 d3 3b fd 94 62 be b4 3d 30 be
       0.20945951 0.006458681 -0.22127147 -0.17211038
0001f0 21 b5 37 3d d4 f7 71 bb bc 9a 18 3e b5 42 51 be
       0.044850472 -0.0036921399 0.14902776 -0.20435603
000200 4e ee f9 3d 24 07 d1 be 37 91 05 3f 29 d8 47 be
       0.12203656 -0.4082576 0.52174705 -0.19516052
000210 2f ab aa 3d 9f 50 40 bd a7 48 18 be 64 a5 59 3c
       0.08333432 -0.046951886 -0.14871465 0.013284061
000220 c7 d4 dc bd d2 e2 b9 3e 0b 5d c7 3e 22 4d 45 bc
       -0.107827716 0.36305863 0.38938174 -0.012042316
000230 c7 36 9d bd 8c 98 be 3e e7 21 95 3c da 24 09 3d
       -0.076764636 0.3722576 0.018204642 0.03348241
000240 82 3c 48 be cf 6a 39 be a7 cc bd 3b 48 e8 3a 3c
       -0.19554332 -0.1810715 0.0057922187 0.011407919
000250 f2 e8 03 bf 70 80 4d bd 23 a2 d1 bd 9d 73 6e bc
       -0.5152732 -0.050171316 -0.10236003 -0.014553932
000260 3a 3d c7 3d e4 05 64 3c 95 68 94 be 4c 5d c3 bc
       0.09728475 0.01391742 -0.2898604 -0.023848198
000270 5d 96 85 3e 8e c2 1a 3e 19 a2 a9 3e 76 9c 7c 3e
       0.2609128 0.15113279 0.33131483 0.2466906
000280 c0 a6 5e 3e 6e 9a af bd 74 9b f9 be 17 13 d2 bd
       0.21743298 -0.08574377 -0.48751414 -0.10257547
000290 53 c3 b5 be 22 1a 48 bb a1 07 9c 3d 03 d7 b9 be
       -0.35500583 -0.0030533154 0.076186426 -0.36296853
0002a0 56 08 99 3e 14 77 23 bf f7 ae 52 be fe 10 7e 3d
       0.29889172 -0.63853574 -0.20574556 0.062027924
0002b0 57 89 81 bd ff 08 47 3e 63 a9 a8 be 9c 14 6c 3e
       -0.063250236 0.19437025 -0.32941732 0.23054737
0002c0 ab ae 7f be 8e 0b 9f bd 64 3a 0c 3d 91 9f e3 3e
       -0.24968974 -0.07765876 0.034235373 0.44457677
0002d0 06 51 b8 3c d8 64 02 bf f2 cb 84 bb 37 12 19 3f
       0.022499572 -0.50935125 -0.0040526325 0.5979342
0002e0 76 a2 09 3f f6 f7 67 3c 50 9c b2 3e e4 cd ba 3e
       0.5376352 0.01415824 0.34884882 0.36485207
0002f0 d6 3d b7 3e 9c f7 43 3e 88 91 0c be b7 12 0f 3f
       0.35789365 0.19137424 -0.13727391 0.5588793
000300 a4 26 9a 3e ef 1d cd bd 99 8e e0 be 3c dc 4d 3e
       0.30107605 -0.10015475 -0.43858793 0.20103544
000310 3d 4a 90 3b 02 67 9b 3e 4d 58 59 3c 8d a7 82 3c
       0.004403381 0.30352026 0.013265681 0.015949035
000320 34 d9 87 be 21 91 d0 3d 42 27 bc bd 2d 40 cb 3e
       -0.265329 0.10183931 -0.09187175 0.396974
000330 1f 96 a9 be 6b b7 d9 be db e8 33 bf 6d 56 b9 bc
       -0.33122346 -0.4252275 -0.70277184 -0.022624219
000340 2d 01 15 3e 58 42 94 ba d5 52 62 be 59 f4 b9 3c
       0.1455123 -0.0011311276 -0.2210191 0.022699522
000350 23 49 63 3d 42 b5 54 be f4 cb 82 3e 0b c1 5e be
       0.05548967 -0.2077227 0.2554623 -0.21753328
000360 05 1e 37 3c e1 3c f0 3a d3 c0 97 bf 7f 85 03 3e
       0.011176591 0.001832869 -1.185572 0.12843893
000370 48 5c c5 3d ab 22 c0 3e 98 e4 d7 bb 65 66 08 bf
       0.09636742 0.3752645 -0.00658853 -0.5328124
000380 45 42 ab be 56 4b f5 3c 84 76 72 3c ff 98 96 bd
       -0.33448997 0.02994315 0.014798764 -0.073534004
000390 13 89 3e bc 51 8b d4 3e d4 93 35 3e 8e 96 18 bd
       -0.011629361 0.4151254 0.17732173 -0.037252955
0003a0 a1 6f 4e 3e bb 2f 54 ba 0b ff 7e be b6 2a 70 bc
       0.2015977 -0.00080942706 -0.24901979 -0.014658621
0003b0 2c f0 89 3e 70 8d d5 be 02 8c 0a 3e 5e f9 d0 3e
       0.2694105 -0.4170947 0.13529971 0.40815252
0003c0 48 0b 9d 3c 8c aa a3 be 4d e4 60 3b 75 cd 92 be
       0.019170418 -0.31966054 0.0034315765 -0.28672376
0003d0 7b 86 81 be 86 a3 31 3f 90 5e 66 3c 7a 23 8d be
       -0.25297913 0.6939014 0.014060631 -0.2756613
0003e0 0d 6f e5 be ab 51 b7 3d 5d af 17 3d c8 58 c4 3c
       -0.44811288 0.08951124 0.037032474 0.023968115
0003f0 90 2a 0e 3d f8 00 19 bc 1f c0 88 3e 87 41 74 3e
       0.03470856 -0.00933861 0.26709077 0.23853122

fc3.bias f4 [2]
000000 9a 27 41 be d6 f4 da 3e
       -0.18862763 0.4276492
