p3_collab-compet/critic_1.pth (torch_old, 185370 bytes, 5 tensors)

fcs1.weight f4 [256, 48]
0.5836234 0.2376131 -0.14776601 -0.059054814 0.09083576 -0.6630944 -0.16391607 -0.028640455
0.5818283 0.17844887 0.019330686 -0.13833246 -0.03338552 -0.61831254 0.12576681 -0.17518163
0.5727198 -0.11216979 -0.045199815 -0.3008918 -0.30596802 -0.53365815 -0.005373176 -0.3904858
0.110545956 0.13537286 0.005240507 -0.38856742 -0.16106181 -0.7269025 -0.031142456 -0.35469028
0.1381851 0.14673135 -0.039940335 0.23254572 -0.015576615 -0.59232754 -0.06093531 0.2882486
0.18993393 0.076091506 0.029805353 0.057577536 0.26317152 -0.5347756 0.03670916 0.13442038
-0.07774077 0.5873009 0.014694005 -0.024024073 -0.53423065 0.06861793 -0.01744361 0.04849905
0.15135157 0.7206129 -0.024739454 -0.06902988 -0.13233154 0.22655286 -0.032631166 -0.051106054
0.34383005 0.5831329 -0.026951125 -0.0049700313 0.3280352 0.27188125 -0.045599777 -0.08773897
0.05701048 -0.36800763 0.0029802558 0.030839114 0.45298728 0.092043124 -0.043524265 0.02033002
0.28235018 -0.4996553 -0.031964973 0.07438528 0.07228798 0.26825386 0.0072669466 0.034339834
0.6435694 -0.41469175 0.05126526 -0.07647402 -0.3218865 0.3349078 0.03054335 -0.052226838
-0.020584568 -0.6565123 0.023665607 -0.09639284 -0.424983 -0.38502523 0.009564749 -0.0019028953
0.10050109 -0.509412 -0.0701585 -0.14393197 -0.4582587 0.09515108 0.028933968 -0.16527615
0.40086377 -0.30875623 -0.09571588 -0.21527328 -0.12697215 0.37878725 -0.0054178555 -0.10179381
0.1108113 -0.08409086 -0.07324345 -0.013129536 0.42994258 -0.3707569 0.0077181538 -0.09072543
0.01925256 -0.16157752 0.028295217 -0.039403 0.48318 0.07518208 0.014414482 -0.031048771
0.059660494 0.1012252 -0.0051425574 0.0070760553 0.14752157 0.4155927 0.015715867 0.07179615
-0.027111158 0.17830181 0.0039535556 -0.023228602 -0.022767363 0.14611158 -0.033147547 0.0004676631
0.055197854 0.09419033 -0.03793762 -0.006265982 0.018971939 -0.35987973 0.021260004 -0.11935908
0.045084447 0.12234292 0.029637221 -0.02368201 0.042667057 -1.0603064 -0.03144309 0.021771446
-0.2206318 1.3814987 -0.023287065 0.09685127 -0.009996405 0.055043988 0.012137751 0.14596598
-0.2921132 1.4665924 0.03766395 0.101546414 -0.017389085 -0.32534224 -0.06902585 0.059121434
-0.2808691 1.339109 -0.04847236 -0.15346329 -0.013477807 -1.0810767 -0.06131307 -0.17097862
0.037703544 0.94226825 0.023831002 0.32160544 0.17755152 -0.02761234 -0.049465124 0.29668528
0.2325539 0.98863 -0.02448384 0.013274759 0.073046125 -0.12641259 -0.011676284 0.102201924
0.36305347 0.9228564 0.04242202 -0.31554452 -0.02775255 -0.53850985 0.086583115 -0.3088574
0.02254896 0.2017229 0.017379705 0.061765995 -0.19830121 0.03689785 0.021272846 0.07623161
0.01530877 0.336624 -0.047064386 -0.06630404 0.011955439 -0.21140547 0.04580004 0.032012668
-0.032326873 0.32200128 -0.05043815 0.03829477 0.04987502 -0.6050565 0.009363034 -0.019829692
-0.14496067 -0.062059715 0.007877218 -0.020413263 0.77716213 0.41142416 0.0206892 0.030017557
-0.0023050187 0.08425016 -0.013825991 -0.03134984 0.06685994 -0.005703247 0.0016060288 4.8789138e-05
00000000: 5868 153f d950 733e f94f 17be 76e3 71bd
00000010: 1908 ba3d 8ec0 29bf 9dd9 27be 639f eabc
00000020: b3f2 143f 4dbb 363e 635b 9e3c 06a7 0dbe
00000030: 41bf 08bd bb49 1ebf 04c9 003e d062 33be
00000040: c49d 123f 46b9 e5bd 7123 39bd 7d0e 9abe
00000050: d7a7 9cbe d29d 08bf 7811 b0bb c1ed c7be
00000060: eb65 e23d 2f9f 0a3e 8fb8 ab3b 4ff2 c6be
00000070: 63ed 24be 4816 3abf 771e ffbc f799 b5be
00000080: 6580 0d3e be40 163e 7a98 23bd 7720 6e3e
00000090: 0f35 7fbc c7a2 17bf 4e97 79bd 5295 933e
000000a0: 0a7e 423e ddd5 9b3d 5b2a f43c 6cd6 6b3d
000000b0: 6bbe 863e 0ee7 08bf 585c 163d 7fa5 093e
000000c0: 8e36 9fbd 5a59 163f 20bf 703c 22ce c4bc
000000d0: 57c3 08bf 8f87 8c3d e7e5 8ebc f1a6 463d
000000e0: e8fb 1a3e 167a 383f 65aa cabc 8a5f 8dbd
000000f0: eb81 07be 79fd 673e 42a8 05bd 9554 51bd
00000100: 7e0a b03e 3348 153f 9bc8 dcbc a5db a2bb
00000110: 3bf4 a73e 0534 8b3e d5c6 3abd 7db0 b3bd
00000120: d283 693d 7f6b bcbe 6550 433b 4fa2 fc3c
00000130: f3ed e73e 1b81 bc3d 8046 32bd 248b a63c
00000140: 3490 903e d2d2 ffbe b4ed 02bd 4f57 983d
00000150: b80b 943d 9258 893e 911f ee3b eda7 0c3d
00000160: f7c0 243f 7a52 d4be 85fb 513d 699e 9cbd
00000170: 4fce a4be 0979 ab3e 0c36 fa3c cfeb 55bd
00000180: f8a0 a8bc 3111 28bf 60de c13c 9c69 c5bd
00000190: 5f97 d9be 0722 c5be 77b5 1c3c 926a f9ba
000001a0: 84d3 cd3d d368 02bf 42af 8fbd e762 13be
000001b0: e2a0 eabe 92de c23d ee06 ed3c 273e 29be
000001c0: 043e cd3e 4c15 9ebe b006 c4bd 9970 5cbe
000001d0: fd04 02be 67f0 c13e 4488 b1bb 4679 d0bd
000001e0: 09f1 e23d d437 acbd a900 96bd 441d 57bc
000001f0: 6f21 dc3e d9d3 bdbe 91e8 fc3b 41ce b9bd
00000200: 8bb7 9d3c 9474 25be 5fcb e73c 0a65 21bd
00000210: 5e63 f73e 10f9 993d b82a 6c3c fe59 febc
00000220: 905e 743d 284f cf3d e682 a8bb 41de e73b
00000230: e50f 173e 91c8 d43e 90be 803c dc09 933d
00000240: 3818 debc c094 363e d48c 813b e949 bebc
00000250: 9f82 babc 469e 153e b9c5 07bd ae30 f539
00000260: 2517 623d dce6 c03d 7a64 1bbd de52 cdbb
00000270: 0a6b 9b3c 2842 b8be 7629 ae3c 8972 f4bd
00000280: 78aa 383d ed8e fa3d c2c9 f23c c600 c2bc
00000290: a7c3 2e3d 1fb8 87bf 78ca 00bd 085a b23c
000002a0: 4ded 61be f3d4 b03f 84c4 bebc f559 c63d
000002b0: f6c7 23bc ce75 613d 6bdd 463c 1b78 153e
000002c0: dd8f 95be 4db9 bb3f 8445 1a3d 91f7 cf3d
000002d0: 8e73 8ebc 4293 a6be 6d5d 8dbd 5129 723d
000002e0: 13ce 8fbe ec67 ab3f f48a 46bd 7b25 1dbe
000002f0: 05d2 5cbc b960 8abf 6a23 7bbd 0515 2fbe
00000300: 086f 1a3d 7e38 713f 3c39 c33c 78a9 a43e
00000310: 11d0 353e 4633 e2bc f19b 4abd 22e7 973e
00000320: 9c22 6e3e db16 7d3f 5692 c8bc 607e 593c
00000330: 3599 953d 4d72 01be e24d 3fbc 3e4f d13d
00000340: 25e2 b93e 5140 6c3f b6c2 2d3d 0d8f a1be
00000350: 5159 e3bc c8db 09bf 7d52 b13d 8f22 9ebe
00000360: 99b8 b83c 7390 4e3e e25f 8e3c 57fe 7c3d
00000370: 790f 4bbe 3322 173d 6444 ae3c 511f 9c3d
00000380: a3d1 7a3c fb59 ac3e 96c6 40bd 6aca 87bd
00000390: bfe0 433c ad7a 58be d398 3b3d b71f 033d
000003a0: 2f69 04bd 5add a43e 3c98 4ebd fada 1c3d
000003b0: c049 4c3d fce4 1abf 6967 193c e171 a2bc
000003c0: 9270 14be 5432 7ebd 720f 013c b739 a7bc
000003d0: 19f4 463f 30a6 d23e 667c a93c 61e7 f53c
000003e0: cc0f 17bb 598b ac3d 6986 62bc b168 00bd
000003f0: dded 883d 4ee2 babb 6281 d23a f0a2 4c38

fcs1.bias f4 [256]
-0.5084908 -0.5353971 -0.7867178 0.17402412 -0.13754809 -0.67455727 -0.08384052 0.1895912
-0.4193749 -0.2632527 -0.13954988 -0.5587782 -0.28468055 -0.4231178 -0.5768907 -0.29952297
-0.72187054 -0.33165783 -0.57152796 -0.37361825 -0.32199374 -0.4513669 -0.33842134 -0.47671658
-0.18881948 -0.5002802 -0.23587185 -0.41244072 -0.058089193 -1.0749831 -0.42358547 -0.36261383
0.1276652 -0.53367037 -0.6957637 -0.77290374 -0.45116106 -0.101399474 -0.44449458 0.050313354
-0.1802783 -0.14655122 -0.32171178 -0.5787749 -0.20759623 -0.024163734 0.09625604 -0.33196193
-0.4259118 -0.19925353 -0.7234145 -0.46957883 -0.32067257 -0.6664447 -0.046957094 -0.2452174
-0.61633956 -0.53921515 -0.20423806 -0.7509893 0.07258202 -0.2836316 -0.7609494 -0.44452327
-0.5420792 -0.053611998 -0.5215931 -0.31102496 -0.430628 -0.9068766 -0.4885451 -0.4630434
-0.31894022 -0.14692585 -0.40745297 -0.32493243 -0.5911683 -0.3098551 -0.6198843 -0.010570227
0.006043491 -0.23940195 -0.6204524 -0.37533763 -0.39506832 -0.6367417 -0.20230684 -0.5453672
0.36854327 0.10141832 -0.34190682 -0.52338403 -0.5111131 -0.024552237 -0.5121051 -0.14356948
-0.27411678 -0.038252544 0.08536204 -0.069967106 -0.025580669 -0.51571864 0.022744855 -0.71433216
0.25465304 -0.32170781 -0.30580315 -0.33925492 0.4698849 -0.6321477 -0.42554444 -0.56589603
-0.4961017 -0.57169163 -0.3430353 -1.0225996 -0.20939763 -0.23869285 -0.61665976 -0.3871058
-0.63977844 -0.44328147 -1.1838163 -0.7442022 -0.37083307 -0.16560306 -0.4347319 -0.3251119
0.022621568 -0.1995369 -0.5491943 -0.41139007 -0.59353715 -0.37119907 -0.46257916 0.008374723
0.07205156 -0.4326695 -0.06864012 -0.23483396 -0.54269165 -0.4803648 -0.6617744 0.54869086
-0.5129604 -0.4200855 -0.1324192 -0.27932993 -0.33564016 -0.0008024805 -0.46592623 0.000116397336
0.12953243 0.07349017 -0.19709782 -0.6572594 -0.5484586 -0.33195254 -0.5157001 -0.9656187
-0.3675704 -0.28295127 -0.34793 -0.37342158 0.17298816 -0.58117086 -1.0409342 -0.43268937
-0.099074274 -0.27573127 -0.44396484 0.020541133 -0.2627895 -0.21550673 -0.20321518 -0.7941077
-0.09188789 -0.2327837 -0.35876986 -0.37083802 -0.56168085 -0.3775505 -0.56510746 -0.45696706
-0.32255578 -0.119763404 -0.17275035 -0.5703559 0.53243494 -0.17949055 -0.019932924 -0.43031007
0.111730844 -0.2032309 -0.35720563 -0.32298878 -0.5298067 -0.32055736 -0.579574 -0.52949816
0.05476341 -0.44245213 -0.16911095 -0.6102808 -0.35600686 -0.1470804 0.5741931 -0.0034288268
0.18394868 -0.31610382 -1.2485076 -0.23994175 0.1370146 -0.2677103 -0.33551547 -0.15066853
-0.10208001 -0.08871904 0.32745105 -0.3179663 -0.2766291 -0.24660936 -0.64823055 -0.43846193
-0.53588283 -0.4702595 -0.50478864 -0.5219417 0.47124177 -0.43822548 -0.5480601 -0.5928753
-0.108613595 -0.45417103 -0.0986731 0.2188736 -0.34388953 1.3523153 -0.4428483 -0.7870139
-0.11165729 -0.8284203 -0.3873216 -0.15250793 -0.9153295 -0.7097689 -0.29251578 -0.34944767
0.008404098 -0.3766639 -0.6671276 -0.54435 -0.39709857 -0.49587056 -0.34952223 -0.4917389
00000000: 742c 02bf c90f 09bf 5666 49bf 6133 323e
00000010: 68d9 0cbe c9af 2cbf 94b4 abbd 3224 423e
00000020: 4fb8 d6be 0fc9 86be 2ae6 0ebe 170c 0fbf
00000030: a6c1 91be e5a2 d8be 1caf 13bf 135b 99be
00000040: 82cc 38bf 0ecf a9be a84f 12bf e44a bfbe
00000050: 5ddc a4be 9019 e7be 9045 adbe 3214 f4be
00000060: e559 41be 5d12 00bf 6488 71be 6e2b d3be
00000070: efee 6dbd 0c99 89bf 32e0 d8be 85a8 b9be
00000080: abba 023e 9f9e 08bf 921d 32bf 05dd 45bf
00000090: 95fe e6be 87aa cfbd cb94 e3be 6015 4e3d
000000a0: e09a 38be 8611 16be 68b7 a4be 982a 14bf
000000b0: 1b94 54be 06f3 c5bc e321 c53d eaf6 a9be
000000c0: 1d11 dabe 1e09 4cbe b131 39bf a36c f0be
000000d0: 322f a4be 1f9c 2abf 1556 40bd 451a 7bbe
000000e0: 6ec8 1dbf 010a 0abf c823 51be d640 40bf
000000f0: e2a5 943d 2938 91be 94cd 42bf 8e98 e3be
00000100: b4c5 0abf 4198 5bbd 2087 05bf aa3e 9fbe
00000110: 467b dcbe 1129 68bf 9522 fabe 0614 edbe
00000120: 224c a3be bb73 16be ad9d d0be 8b5d a6be
00000130: ce56 17bf 54a5 9ebe bdb0 1ebf bf2e 2dbc
00000140: 7a08 c63b c925 75be f8d5 1ebf 412c c0be
00000150: 6546 cabe 8101 23bf 8629 4fbe 2f9d 0bbf
00000160: b4b1 bc3e 68b4 cf3d 690e afbe 7ffc 05bf
00000170: 4fd8 02bf c621 c9bc 5219 03bf e103 13be
00000180: 0959 8cbe b3ae 1cbd 4bd2 ae3d ea4a 8fbd
00000190: 8d8e d1bc 2306 04bf 6b53 ba3c 79de 36bf
000001a0: e261 823e e3b6 a4be 3b92 9cbe d2b2 adbe
000001b0: c194 f03e 6fd4 21bf f6e0 d9be 90de 10bf
000001c0: 0b01 febe 625a 12bf 53a2 afbe 8be4 82bf
000001d0: 556c 56be e66b 74be 6add 1dbf bb32 c6be
000001e0: 85c8 23bf caf5 e2be 4b87 97bf 0984 3ebf
000001f0: d5dd bdbe d993 29be 2e95 debe 1175 a6be
00000200: de50 b93c 6753 4cbe ff97 0cbf b8a1 d2be
00000210: 0df2 17bf ce0d bebe 2dd7 ecbe 2236 093c
00000220: c58f 933d db86 ddbe 3193 8cbd 5078 70be
00000230: d7ed 0abf 60f2 f5be 0c6a 29bf 0177 0c3f
00000240: 5f51 03bf 7215 d7be e698 07be 5504 8fbe
00000250: 07d9 abbe 8e5d 52ba e28d eebe 581a f438
00000260: 26a4 043e 0482 963d 03d4 49be 2742 28bf
00000270: c867 0cbf aff5 a9be ec04 04bf ca32 77bf
00000280: 3032 bcbe fdde 90be e223 b2be 1d31 bfbe
00000290: cf23 313e 9dc7 14bf 553d 85bf 7689 ddbe
000002a0: 74e7 cabd a62c 8dbe 5c4f e3be e145 a83c
000002b0: 588c 86be ccad 5cbe a417 50be a44a 4bbf
000002c0: b82f bcbd da5e 6ebe afb0 b7be 7bde bdbe
000002d0: 51ca 0fbf 4d4e c1be e2aa 10bf 96f7 e9be
000002e0: 0826 a5be 8446 f5bd 78e5 30be d802 12bf
000002f0: a84d 083f 5fcc 37be 5f4a a3bc 9a51 dcbe
00000300: 24d3 e43d c31b 50be a8e3 b6be c95e a5be
00000310: 69a1 07bf 1820 a4be f65e 14bf 318d 07bf
00000320: 994f 603d 1689 e2be 6c2b 2dbe 5d3b 1cbf
00000330: 8846 b6be 3f9c 16be 52fe 123f 2bb6 60bb
00000340: 0b5d 3c3e 5cd8 a1be 19cf 9fbf 4ab3 75be
00000350: 8e4d 0c3e 5311 89be afc8 abbe da48 1abe
00000360: 530f d1bd 54b2 b5bd aaa7 a73e 7bcc a2be
00000370: 54a2 8dbe 2a87 7cbe 70f2 25bf 157e e0be
00000380: 9e2f 09bf dac5 f0be d439 01bf f99d 05bf
00000390: 9a46 f13e 175f e0be ab4d 0cbf adc6 17bf
000003a0: ce70 debd 1b89 e8be 1f15 cabd 6720 603e
000003b0: 4a12 b0be ab18 ad3f 03bd e2be be79 49bf
000003c0: 94ac e4bd 5a13 54bf 044f c6be 0a2b 1cbe
000003d0: 0953 6abf 6ab3 35bf a1c4 95be ceea b2be
000003e0: 58b1 093c 17da c0be e0c8 2abf 865a 0bbf
000003f0: 8150 cbbe bfe2 fdbe 94f4 b2be 33c5 fbbe

fc2.weight f4 [128, 260]
0.028628383 0.0058726016 0.14547974 -0.314399 -0.08406132 -0.24905628 0.18831183 0.100941405
-0.039217863 -0.109892525 -0.19187485 0.059474353 0.24454251 0.087016314 -0.036562946 -0.33966157
0.046360344 -0.21890911 -0.32820734 -0.0751821 0.087386794 0.04334316 -0.056157887 -0.2537847
0.14267474 -0.060364828 0.29409924 -0.1525343 -0.061131485 0.05547948 -0.14389876 0.10768528
0.082563005 -0.3904008 0.3009304 -0.019560197 -0.08966172 0.051059593 0.19582294 -0.026112955
0.24073035 -0.4816411 -0.3937212 -0.07961209 0.262132 -0.14590001 0.09945362 0.14490134
-0.02174538 -0.11568468 0.0066015637 -0.15543655 0.013097335 -0.09889042 -0.117660545 -0.02801957
-0.0216748 -0.32806852 -0.2109129 -0.15423243 0.022133116 -0.05081056 -0.020293523 -0.16814888
-0.0014056107 0.05631666 -0.13494766 -0.2190471 -0.08300987 0.06781984 -0.00779307 -0.12122346
0.041323677 0.043075528 0.14584322 -0.07155103 -0.19739333 0.08827113 -0.36789626 0.029804956
-0.43998313 -0.069030136 -0.16892943 -0.09221316 -0.45370138 -0.45698556 -0.08782294 0.0839871
-0.4660488 0.17039801 -0.05634225 0.07726353 -0.14792879 -0.09833331 -0.07847279 -0.07303865
0.02967351 -0.06783736 -0.2342143 0.050697953 -0.35455844 -0.17016184 -0.11148272 -0.21471433
-0.11353061 0.025542079 -0.06955151 0.027551863 -0.058028787 0.24879837 0.08429739 -0.08555463
0.056516606 0.021242812 -0.0041974536 -0.027487924 0.17905755 0.13373569 -0.14648226 0.11093052
-0.26073152 -1.3724142 0.057681028 -0.18575437 -0.035526764 -0.37448084 -0.42428097 -0.03088528
0.070936665 0.35321927 -0.049796503 -0.19650765 0.17602077 0.07055637 0.20784073 -0.0265197
-0.15235269 -0.20391624 -0.32125074 -0.057386443 0.04051654 -0.2441308 -0.20584773 -0.47243774
-0.12765293 -0.12697124 0.23512407 -0.0006892189 -0.21109748 -0.076130696 0.011172572 -0.023367496
0.012199799 0.10576291 -0.016650943 0.035218146 -0.04442471 0.17937458 -0.12314391 -0.23770685
-0.08762564 0.11521979 -0.22592102 -0.19839966 -0.26462534 -0.13199508 0.12583254 0.13336536
0.07601828 0.19123624 0.10683308 -0.13105644 -0.037485715 -0.005223063 -0.030345205 0.26634914
0.020022225 -0.5120372 -0.13139132 -0.08947682 0.12337942 0.038625665 -0.1903026 0.066999935
-0.016584339 -0.61891854 -0.0702557 -0.2892907 -0.15553668 0.3772301 -0.018476244 0.04041439
0.014891521 -0.41503468 -0.10114919 0.025059445 -0.058086388 -0.010878799 -0.018808838 0.1598101
-0.09453249 0.034658957 -0.2751445 -0.038790546 -0.01060059 -0.18735051 -0.25721923 -0.19929667
-0.13537651 0.14847884 -0.06102038 0.045658078 -0.00015922026 -0.47909454 0.04116477 0.10000069
-0.3151137 -0.06898288 -0.196438 0.16304761 -0.04744849 0.097894855 -0.26282018 0.006579619
0.22655204 -0.019628214 -0.05351219 -0.09154611 0.10882991 -0.25716168 -0.2640045 -0.061671946
-0.03458844 -0.43938094 -0.084755115 0.037808165 -0.1432314 0.20873383 -0.00580795 -0.10668402
-0.27013934 -0.21356031 -0.2944629 0.00026352663 -0.037601255 -0.23265778 -0.15139005 -0.021095272
-0.017945344 -0.1847212 -0.04197478 -0.08861422 -0.05926716 -0.048957627 0.0282418 -0.04212551
00000000: 1286 ea3c f46e c03b a4f8 143e e8f8 a0be
00000010: 5728 acbd 9c08 7fbe d1d4 403e 5eba ce3d
00000020: e9a2 20bd 550f e1bd d77a 44be 619b 733d
00000030: 5a69 7a3e 9c35 b23d 07c3 15bd 1fe8 adbe
00000040: 58e4 3d3d b629 60be cb0a a8be 13f9 99bd
00000050: d9f7 b23d 9988 313d d005 66bd 11f0 81be
00000060: 5419 123e 1c41 77bd 2d94 963e f431 1cbe
00000070: 0265 7abd 743e 633d 325a 13be 1a8a dc3d
00000080: cb16 a93d 9de2 c7be 8d13 9a3e b53c a0bc
00000090: 90a0 b7bd dd23 513d cf85 483e d6ea d5bc
000000a0: 0482 763e aa99 f6be d395 c9be aa0b a3bd
000000b0: 2a36 863e d066 15be 57ae cb3d 0461 143e
000000c0: 5e23 b2bc 17ec ecbd ee51 d83b c22a 1fbe
000000d0: 3496 563c 0f87 cabd 03f8 f0bd 4c89 e5bc
000000e0: 5a8f b1bc 99f8 a7be 8df9 57be 1bef 1dbe
000000f0: 8250 b53c bc1e 50bd 9a3e a6bc 382f 2cbe
00000100: 783c b8ba 4cac 663d b82f 0abe e24d 60be
00000110: 1401 aabd 21e5 8a3d 025d ffbb 0144 f8bd
00000120: 0443 293d f76f 303d ed57 153e 5989 92bd
00000130: 7a21 4abe 7fc7 b43d e65c bcbe 8629 f43c
00000140: 7845 e1be ac5f 8dbd d6fb 2cbe 41da bcbd
00000150: 8c4b e8be 03fa e9be 83dc b3bd 6e01 ac3d
00000160: f39d eebe d17c 2e3e 22c7 66bd 573c 9e3d
00000170: a57a 17be f962 c9bd 58b6 a0bd 4a95 95bd
00000180: dc15 f33c 50ee 8abd e0d5 6fbe a8a8 4f3d
00000190: af88 b5be e83e 2ebe 0d51 e4bd 13de 5bbe
000001a0: bd82 e8bd 9f3d d13c 0671 8ebd 72b4 e13c
000001b0: 98af 6dbd 00c5 7e3e 1ca4 ac3d 4437 afbd
000001c0: f57d 673d 6805 ae3c cb8a 89bb 5b2e e1bc
000001d0: dd5a 373e 02f2 083e 72ff 15be 8a2f e33d
000001e0: 9a7e 85be 45ab afbf f142 6c3d 6536 3ebe
000001f0: 8384 11bd f4bb bfbe 5b3b d9be 2003 fdbc
00000200: 3e47 913d 28d9 b43e 6bf7 4bbd 4d39 49be
00000210: ca3e 343e dc7f 903d 33d4 543e d83f d9bc
00000220: 5802 1cbe 6bcf 50be fa7a a4be 0c0e 6bbd
00000230: acf4 253d 6dfd 79be bfc9 52be 5ce3 f1be
00000240: 73b7 02be c004 02be 5dc4 703e b3ac 34ba
00000250: f029 58be 69ea 9bbd 2a0d 373c 316d bfbc
00000260: aae1 473c 399a d83d 8f67 88bc e740 103d
00000270: aff6 35bd f8ad 373e e032 fcbd 6d69 73be
00000280: 1275 b3bd 5af8 eb3d d757 67be 4829 4bbe
00000290: f97c 87be b829 07be 3fda 003e ee90 083e
000002a0: 79af 9b3d 6fd3 433e 4dcb da3d a933 06be
000002b0: 9f8a 19bd 3a26 abbb 8296 f8bc ea5e 883e
000002c0: a605 a43c df14 03bf 728b 06be 9f3f b7bd
000002d0: 59ae fc3d f235 1e3d afde 42be 4337 893d
000002e0: e1db 87bc 7271 1ebf 38e2 8fbd e91d 94be
000002f0: 0245 1fbe 4e24 c13e 7e5b 97bc 8f89 253d
00000300: 91fb 733c 6d7f d4be 4e27 cfbd 7749 cd3c
00000310: feeb 6dbd fd3c 32bc fe14 9abc 42a5 233e
00000320: 409a c1bd 8df6 0d3d bddf 8cbe d6e2 1ebd
00000330: 19ae 2dbc d0d8 3fbe 3db2 83be 6d14 4cbe
00000340: 24a0 0abe d60a 183e 82f0 79bd f703 3b3d
00000350: 5df4 26b9 e14b f5be 649c 283d 29cd cc3d
00000360: 9556 a1be e546 8dbd 0b27 49be f4f5 263e
00000370: 5959 42bd 197d c83d 5e90 86be d899 d73b
00000380: 42fd 673e 59cb a0bc 992f 5bbd 877c bbbd
00000390: 37e2 de3d b2aa 83be 992b 87be b99b 7cbd
000003a0: 9cac 0dbd 8af6 e0be 1794 adbd bcdc 1a3d
000003b0: 41ab 12be 52be 553e 9e50 bebb 277d dabd
000003c0: b44f 8abe 8eaf 5abe d7c3 96be f229 8a39
000003d0: c603 1abd d73d 6ebe fe05 1bbe fecf acbc
000003e0: 1d02 93bc 8e27 3dbe bfed 2bbd 5f7b b5bd
000003f0: 1fc2 72bd cb87 48bd 595b e73c cc8b 2cbd

fc2.bias f4 [128]
-0.8816149 -0.27103138 -0.28873888 -0.3444679 -0.3918386 -0.17823818 -0.2781288 -0.09125777
-0.30999675 -0.25019726 -0.17058493 -0.19558018 -0.20798345 -0.10763006 -0.188574 0.34767017
-0.13883185 -0.1738177 -0.07967973 0.23333262 -0.16915256 -0.4427852 -0.1797155 -0.25741065
-0.09883976 -0.27749047 0.908049 -0.21984902 -0.14957711 -0.22641023 -0.12922701 -0.27193847
-0.05143192 -0.103137486 -0.38234815 -0.12600064 1.07548 1.0576305 -0.32020444 -0.17840925
-0.32616648 -0.26774257 -0.13043863 0.19287798 -0.18571977 0.43091968 -0.28280494 -0.118015185
-0.3516369 -0.2542666 0.31410775 -0.29971713 -0.1654572 -0.02002298 -0.28466862 -0.18926977
0.10062923 -0.41190904 -0.23413461 -0.34620848 -0.17911704 -0.17184953 -0.08495935 -0.09155679
-0.26480147 -0.41308245 -0.25718033 -0.17641334 -0.2210437 -0.13965459 -0.37660322 -0.11421185
-0.22389403 -0.21796252 -0.3351703 -0.08931929 -0.14267242 -0.079725556 -0.20073381 0.048541054
-0.88131934 -0.08394286 -0.26812005 -0.13679795 -0.17275125 -0.037284024 -0.4250609 -0.13289091
-0.17866056 -0.1206716 -0.23769403 -0.5642511 -0.15125744 -0.19279285 -0.34562966 -0.15696006
0.93950117 -0.008190258 -0.10636578 0.40132275 -0.08481835 -0.15327044 -0.19332105 0.29531276
-0.10919007 -0.28636593 -0.17370112 -0.127107 -0.7820337 -0.24117489 -0.07766178 -0.24839441
-0.13690837 -0.1657024 -0.17223202 -0.4468544 1.0050067 -0.22951736 -0.503139 -0.13699384
-0.08976065 -0.15886956 -0.044607442 0.47021818 -0.22927524 -0.45068184 -0.21050756 -0.20848574
00000000: 84b1 61bf a0c4 8abe 95d5 93be 195e b0be
00000010: 129f c8be 1284 36be e666 8ebe 5be5 babd
00000020: e5b7 9ebe db19 80be d1ad 2ebe 2c46 48be
00000030: 9df9 54be 266d dcbd 8b19 41be d301 b23e
00000040: f029 0ebe 44fd 31be 202f a3bd bfee 6e3e
00000050: 5436 2dbe beb4 e2be 5707 38be 54cb 83be
00000060: 806c cabd 3b13 8ebe e675 683f 1a20 61be
00000070: be2a 19be 15d8 67be 1654 04be 853b 8bbe
00000080: 47aa 52bd bf39 d3bd 23c3 c3be 5006 01be
00000090: 54a9 893f 7060 873f d6f1 a3be eab0 36be
000000a0: 4bff a6be 8e15 89be b491 05be ce81 453e
000000b0: 532d 3ebe 81a1 dc3e cfcb 90be f2b1 f1bd
000000c0: c009 b4be 3b2f 82be bbd2 a03e 8674 99be
000000d0: 9d6d 29be 3c07 a4bc 16c0 91be efcf 41be
000000e0: b316 ce3d bee5 d2be fcc0 6fbe 3d42 b1be
000000f0: 756a 37be 53f9 2fbe 2bff adbd 2082 bbbd
00000100: 0f94 87be 8b7f d3be 24ad 83be b3a5 34be
00000110: 4859 62be 9d01 0fbe 23d2 c0be e7e7 e9bd
00000120: 7a44 65be 9131 5fbe 719b abbe 08ed b6bd
00000130: b818 12be 2747 a3bd 2a8d 4dbe fcd2 463d
00000140: 259e 61bf 3cea abbd 0847 89be c314 0cbe
00000150: b4e5 30be 22b7 18bd 95a1 d9be 8e14 08be
00000160: cbf2 36be ac22 f7bd 1066 73be c372 10bf
00000170: 3be3 1abe 7d6b 45be 5ff6 b0be 23ba 20be
00000180: 2683 703f 6f30 06bc 4dd6 d9bd 2d7a cd3e
00000190: 3eb5 adbd edf2 1cbe f4f5 45be 3c33 973e
000001a0: 0b9f dfbd 8e9e 92be b5de 31be 5628 02be
000001b0: 5c33 48bf 8df6 76be 240d 9fbd 1b5b 7ebe
000001c0: b531 0cbe e4ad 29be 975d 30be 1aca e4be
000001d0: 0fa4 803f 9906 6bbe b8cd 00bf 1d48 0cbe
000001e0: 6fd4 b7bd b4ae 22be 4bb6 36bd 70c0 f03e
000001f0: 21c7 6abe c5bf e6be 4b8f 57be 497d 55be

fc3.weight f4 [1, 128]
-0.007893076 -0.0007489317 0.013939421 -0.009270795 -0.014391291 -0.0073658023 0.0306089 -0.027492635
-0.0081708925 0.03621027 0.009407134 -0.008207164 -0.0055327904 -0.0067740018 0.025506316 0.0021458205
-0.0256736 -0.0036545035 0.0018994001 0.018511264 -0.00070148543 0.0041782395 0.01775419 -0.0148428595
-0.016871657 -0.0041776164 0.004737045 0.039268956 0.02570926 0.014757549 -0.0029696121 -0.021572525
0.034540292 0.025675287 -0.008893739 -0.007839975 0.016302576 0.009512912 0.007961229 -0.011136091
0.021974202 -0.023088137 0.01576479 0.012452652 -0.023185033 -0.004774275 -0.0029909036 0.007840767
-0.021196105 -0.022489768 0.013847426 -0.0071206237 0.05396457 0.020275397 -0.0035685797 0.019655537
0.03262661 -0.017320845 0.010789334 -0.018342936 -0.024567511 0.021674616 0.0036144126 0.008180978
-0.0033449118 -0.027029136 -0.0119540645 0.01811875 0.012801039 0.00029716306 -0.017950943 -0.015579602
-0.0073778513 -0.033168316 -0.0066953856 -0.035274804 -0.015451093 -0.013441496 -0.012283607 0.008709865
-0.01017957 0.028068278 -0.020427115 -0.01764921 0.0065001766 -0.015313176 -0.013337346 -0.004325455
-0.01099633 0.0031432414 -0.01533457 -0.009622086 0.018905995 0.015509641 -0.008647324 -0.015507093
0.006557279 0.027981903 -0.014438052 0.0061092353 0.001450578 0.007523363 -0.023211267 0.003773067
-0.008998888 -0.008012826 0.019537734 0.015323355 -0.031655047 -0.014514353 0.0011567285 0.018090129
0.012447254 0.029291306 0.0046116672 -0.016661534 0.008654655 -0.05737066 -0.0038532964 0.024400344
0.029500129 -0.008405014 0.023452682 0.011076477 -0.011614419 -0.013207305 0.010500394 0.029700743
00000000: f651 01bc f553 44ba 2b62 643c 88e4 17bc
00000010: 73c9 6bbc d45c f1bb 84bf fa3c 3c38 e1bc
00000020: 35df 05bc 3851 143d 6120 1a3c 5777 06bc
00000030: 694c b5bb 72f8 ddbb 9ff2 d03c e5a0 0c3b
00000040: 7151 d2bc 6580 6fbb 4bf5 f83a efa4 973c
00000050: e4e3 37ba 9de9 883b 3c71 913c 772f 73bc
00000060: 6e36 8abc 63e4 88bb 3739 9b3b 7cd8 203d
00000070: 3a9c d23c a6c9 713c d39d 42bb ddb8 b0bc
00000080: 1f7a 0d3d fb54 d23c 0cb7 11bc 3d73 00bc
00000090: fb8c 853c 0bdc 1b3c d16f 023c 2774 36bc
000000a0: 3e03 b43c 5523 bdbc 2925 813c 3506 4c3c
000000b0: 8aee bdbc 8571 9cbb 0903 44bb 8f76 003c
000000c0: 74a3 adbc 763c b8bc 50e0 623c 1f54 e9bb
000000d0: f409 5d3d 9718 a63c d5de 69bb a604 a13c
000000e0: 7ba3 053d 72e4 8dbc bfc5 303c ed43 96bc
000000f0: ce41 c9bc f78e b13c c8df 6c3b 8209 063c
00000100: 4f36 5bbb 356c ddbc fbda 43bc c66d 943c
00000110: 73bb 513c 8dcc 9b39 db0d 93bc 9641 7fbc
00000120: e7c1 f1bb 80db 07bd f764 dbbb 507c 10bd
00000130: 9526 7dbc b839 5cbc 2f41 49bc d2b3 0e3c
00000140: 36c8 26bc 72ef e53c c456 a7bc 1395 90bc
00000150: 6fff d43b 1ee4 7abc e284 5abc 8cbc 8dbb
00000160: f329 34bc d7fe 4d3b d93d 7bbc f4a5 1dbc
00000170: bfe0 9a3c 261c 7e3c 81ad 0dbc 7611 7ebc
00000180: 71de d63b 4e3a e53c 948d 6cbc fb2f c83b
00000190: 5221 be3a 8b86 f63b 8e25 bebc 8f45 773b
000001a0: 1270 13bc 3a48 03bc 990d a03c cf0e 7b3c
000001b0: b9a8 01bd 9ccd 6dbc 5e9d 973a c031 943c
000001c0: 91ef 4b3c 52f4 ef3c 781d 973b c57d 88bc
000001d0: 41cc 0d3c 7ffd 6abd 9687 7cbb 3be3 c73c
000001e0: 41aa f13c 2fb5 09bc d71f c03c 1d7a 353c
000001f0: 674a 3ebc 7463 58bc d809 2c3c f94e f33c
