p3_collab-compet/critic_0.pth (torch_old, 185370 bytes, 5 tensors)

fcs1.weight f4 [256, 48]
00000000: bbff 213f bac2 19bc 6257 11bd bf6f aabb
00000010: 3f4a 553d 082e 54be e77d 53bd 1c8a ce3c
00000020: 2b27 213f 58b7 f13d 6112 c5bd 6f03 473e
00000030: 0b7c 663d d2a5 81be 4a4a 273c b247 213e
00000040: 95b3 353f 68ed 833e 8365 a6bc 2f1c 943e
00000050: 772c 1dbc 865c 10be addb 9f3c 7379 4c3e
00000060: 6841 d13e 26bc 533d b1b7 fcbc 6397 6bbe
00000070: 9977 fabd 96c1 8abe 92b1 89bd f5e6 48be
00000080: 0e70 073f 11fe 243e a92e debc c626 9e3d
00000090: 9e84 d7bd 0cb0 68be 8616 45bd e51d 083e
000000a0: fa73 083f 2fee 4c3e b224 e63b bd02 4f3e
000000b0: 8400 08bd 9481 11be 512f 643c 2ad9 8e3e
000000c0: 38da 463f de31 af3f b8e4 eebc eb48 953e
000000d0: 3bbb 303d a270 d0be 6e15 7bbd d56a ba3e
000000e0: b975 423f c345 dd3f 7c8c 473d 5964 1a3d
000000f0: c459 ad3d 646a 05bf 1039 273d eccd 633d
00000100: 7a2e ff3e ca1e d83f 35cc 10bc eaba 0fbe
00000110: 9757 893e 4c12 a5be 4729 e1bc e57b 64be
00000120: cf65 813e 2c85 57bf b24d 9c3c 0b56 7cbe
00000130: f2c0 febd 6072 c4be 3ca9 e0bc 708c 83be
00000140: 41d5 a13e 10c7 5dbf ce27 afbd cf90 80be
00000150: da28 14be dc7a f5be d49d 3dbd f411 95be
00000160: 499c d03e 2335 36bf 1d1c 5ebb cbd9 6ebd
00000170: c531 86be 68cd 84be 1c84 c5bc 6487 0bbd
00000180: 14cb 543e 3eea ab3e 98a0 b2bc 0ea7 9b3c
00000190: 2c47 c73d f945 e2bd ab12 13bd 216d e83d
000001a0: 5760 eb3e f50d 7c3e 3c0b aabd caa9 b13d
000001b0: 4c10 0b3d 727f ed3d 7195 833c d7f2 853d
000001c0: c74f 873f 5bd9 373e 5d7b 96bd 9dcc e63c
000001d0: 2de7 203e 773a 8d3e facc 893c bf0d 113e
000001e0: 2121 8b3d af0d dd3f c5ca c6bc bf7f 493c
000001f0: ca1e bdbd 420d c5bd 2439 683d d5b8 85bd
00000200: 1542 d7bc 7e3e cf3f 3226 5dbc 97d2 3d3e
00000210: f6f5 13bc 049a c43d fa48 e0bc a760 463e
00000220: a7a6 273e f3fd ed3f c111 583c caf9 da3e
00000230: 1bdc 0bbe 9112 a03e 1b74 0b3d c61c fc3e
00000240: 85af bd3e 3ee7 e93d cbdf 24be 4af5 33be
00000250: 6664 5b3d 1c88 d4be afdd 4abe 1ab2 1bbe
00000260: 302f ac3e 9516 1d3e 1287 413d 4276 d73e
00000270: 074a 88bd 037b 09bf eb00 da3d 548f 9d3e
00000280: 43a5 923e 14db 623e ee74 bf3d 8c7f e8be
00000290: 91d3 51be ec30 0ebf 99b9 043d d839 d1be
000002a0: 0c94 5a3f 37b7 7e3e cdc8 06bd f7b3 a73e
000002b0: 03cc b0bd 1994 01bf 1002 253b 9fd9 c03e
000002c0: 6fc8 313f e2ec 4f3e d267 303c bae8 123e
000002d0: e687 8b3d 95a3 00bf 4e72 c4bd eeee ce3d
000002e0: 89ae 363f 2a96 553e 6d1c 003b caa0 f3bd
000002f0: e1b6 6f3e 3482 13bf bf5b 32bc fbbf 0bbe
00000300: 142b 7bbd b141 263f 0067 9abd 0a91 a13d
00000310: 96bc 263e 8662 aebe 9841 18be a80f 5d3d
00000320: a3d6 243e 93f2 093f 9226 543b b72c 5cbe
00000330: 2c5d 273d 6012 c1be fe70 833c b21d 01be
00000340: 3dc5 933e 63d8 c73e ea25 fc3a e5ac 4fbe
00000350: abc2 1cbe 7286 12bf eac3 3c3d d5d3 48be
00000360: 17f9 6f3f ba10 c23e 678b 963d 19b2 96bc
00000370: 08fc 3bbe 5a5b 8dbe a784 9e3d 35c6 80bb
00000380: c291 373f bf03 023f 1588 833c e97d 133e
00000390: 92ce 343d da95 ecbe c411 df3d 672b 783e
000003a0: 715d f03e 24d7 0d3f e3e8 52be e0d5 8cbd
000003b0: f869 333e 068f 23bf 25ac 15be 99ef 01be
000003c0: 2444 3d3f 7ec5 0cbf 5bb7 4dbd 7c00 213e
000003d0: cbd2 72bd 998f d0be 293d 19bd c6a4 543e
000003e0: 5ce5 5a3f 5453 0ebf 51b6 b83b 9b5b f3bd
000003f0: 8c79 f5bd a65c 41bf cb98 ac3c 530d b3bd
0.6328084 -0.009384805 -0.035483725 -0.0052013095 0.05207276 -0.20720685 -0.05163374 0.02521234
0.6295039 0.11802548 -0.09622646 0.19434904 0.05627064 -0.25321823 0.010210583 0.15750006
0.70977145 0.25767064 -0.020312076 0.28927752 -0.009593121 -0.14097795 0.01951393 0.19968204
0.40870214 0.051693104 -0.03084931 -0.23006968 -0.12229843 -0.2710082 -0.06723322 -0.19619353
0.52905357 0.16112544 -0.027121859 0.07722239 -0.105233416 -0.22723407 -0.048117183 0.13292654
0.53301966 0.20012735 0.0070234174 0.20215888 -0.033203617 -0.14209586 0.013927297 0.27900058
0.77676725 1.3687093 -0.029161796 0.29157194 0.043147307 -0.40710932 -0.061299734 0.3640963
0.7596088 1.7286915 0.04871796 0.037693355 0.08464387 -0.52115464 0.040825903 0.055616304
0.49840146 1.6884396 -0.008837749 -0.14036146 0.26824638 -0.32240522 -0.027485503 -0.22312887
0.25272986 -0.8418758 0.019080017 -0.24642198 -0.12439145 -0.3836851 -0.027424447 -0.25693083
0.31608012 -0.8663187 -0.08552514 -0.2511048 -0.14468709 -0.47945297 -0.046293095 -0.2911526
0.40744236 -0.7117483 -0.0033891269 -0.058313172 -0.26209846 -0.25937963 -0.024110846 -0.034064665
0.20780593 0.3357715 -0.021805093 0.019000556 0.09730372 -0.110485025 -0.035906475 0.1134894
0.4597194 0.24614699 -0.08302924 0.08674963 0.03395109 0.11596574 0.01606247 0.06540459
1.0571221 0.17954008 -0.073477484 0.02817374 0.15713187 0.27583668 0.016821373 0.141654
0.06793428 1.7269801 -0.02426661 0.012298523 -0.09234388 -0.09621669 0.05669512 -0.065293945
-0.026276628 1.6190946 -0.013497876 0.18537365 -0.00903081 0.09599689 -0.027378548 0.19372807
0.16372167 1.8593124 0.013187827 0.427687 -0.13658182 0.31264165 0.034046274 0.49240702
0.37047973 0.11421059 -0.16100995 -0.17574039 0.053562544 -0.41510093 -0.19811128 -0.15204659
0.3362975 0.15340646 0.047247954 0.4208241 -0.066547446 -0.53703326 0.10644706 0.30773413
0.2864171 0.22153884 0.093484744 -0.4540981 -0.20490862 -0.555434 0.032403562 -0.40864444
0.8538215 0.24874578 -0.032906342 0.3275449 -0.08632662 -0.50616604 0.0025178231 0.37666032
0.6944646 0.20305207 0.01076694 0.1434659 0.0681303 -0.50249606 -0.095921144 0.10104166
0.7136007 0.20858064 0.0019548193 -0.118959025 0.23409607 -0.5762055 -0.010886132 -0.13647453
-0.06132038 0.6494399 -0.07539177 0.07888992 0.16282877 -0.34059542 -0.14868772 0.05397001
0.16097502 0.53885764 0.0032371623 -0.21501432 0.04086034 -0.37709332 0.01604509 -0.12608984
0.28861418 0.39032277 0.0019237373 -0.20280798 -0.15308635 -0.572364 0.046085276 -0.19612058
0.93739456 0.37903386 0.07350808 -0.01839547 -0.18357861 -0.27608758 0.07740145 -0.003929878
0.71706784 0.50786966 0.0160561 0.144035 0.044142313 -0.46208078 0.108920604 0.24235307
0.4694629 0.55406404 -0.20596652 -0.06876731 0.17520893 -0.6389011 -0.14616449 -0.12689056
0.739321 -0.5498885 -0.05022369 0.15722841 -0.05928306 -0.40734556 -0.037411842 0.20765981
0.85506225 -0.555959 0.005636968 -0.11882707 -0.11986074 -0.75531995 0.021068951 -0.08742776

fcs1.bias f4 [256]
00000000: ad4a a5be 2bd2 06bd c2a3 b7be 49dd 09bf
00000010: a73d ffbe 7456 30bf 894a c5be 196a 81bf
00000020: 6e09 20bf 33c8 3abe cbe5 9bbe cc15 0fbf
00000030: 63e8 9abe bb90 75bc 9a08 36bf 0f17 bdbe
00000040: 42d7 cabe 74f7 95be 263d 3f3e 6ce4 7abe
00000050: 3e23 c2be 19a9 bebe 118a babe 7a32 d1bc
00000060: 0c3c 17bf 5d7b 40bf ff9e 4cbe 8e81 7fbe
00000070: 33a9 d6be 89dc 58bf 098c 5cbf c46a eebe
00000080: 818b a63e 335d b2be 607b 92be 1196 e93d
00000090: 1c96 11bf 2850 b7be 96a1 ca3d c229 b3be
000000a0: 9dba 87bd 3cd0 993e d91b 02bf 9a83 5dbe
000000b0: 029a 15bf 230a 4ebe daee 16bf 7272 e5be
000000c0: aefa 1ebd e662 00be 10f9 15bf 17e5 74be
000000d0: b93e 04bf 4fd7 a5be bd67 11bf 7712 49be
000000e0: 2289 15bf f788 13bf 054b febe c96d 99bc
000000f0: b0e3 4abf 89bb e33d 3ec9 31bf 3f0e e3be
00000100: b37b 9ebe dcd4 f0be acdd 0abf 8594 e3be
00000110: d962 6ebe f529 19bf 54bf babe 8180 50bd
00000120: a119 fb3e 6a7b 773e c8f0 aabe 097c cd3e
00000130: 9a1a d1be 4dfc 9ebd 4dd5 17bf 4b10 bebe
00000140: 9adf 1cbf 38f7 db3d a0b1 32be 0a0a d3be
00000150: 1b99 84be 70eb 923f 7240 35bf 1a7a 6cbf
00000160: 8cc1 54bd 9006 3ebf e048 abbe f35f 15bf
00000170: 0c0c 97be 3061 32bf eaee 49be d6e4 ffbe
00000180: 9163 9d3e 9a08 e0be 2523 00bf d1db 7abe
00000190: 7084 12bf 3b5d 32be 1457 cabe 38bb cb3e
000001a0: 89b7 c9be fdb1 e6be a567 b3be 8a5b 27bf
000001b0: ca76 223f 5e6f 3dbf 66f2 17be ca84 fbbe
000001c0: 22b9 34bd 2b8c c8bd 5b20 a6be ab61 d53c
000001d0: 8895 dcbe 8780 11bf be6a 09bd e772 06bf
000001e0: 053e d8be 1021 e7be c33f f0be 3fdb 27bf
000001f0: a51f 9bbe d925 033e e3d5 20bf f9dc 1b3e
00000200: bb0a 99bf c907 2fbf 849c 9dbe 20c8 fabe
00000210: 5868 4fbe 1fcf fbbe c606 86be fd34 f5be
00000220: 12e4 50bf e809 0bbf 103f 31bd 40f5 81bf
00000230: a528 04bd 0d01 f8be f794 47bf 0a0e 20be
00000240: 6228 e0be 7ae8 12bf 29df a3be 79d9 55bd
00000250: eb4f 5bbe 51f9 9ebe 275a c9be 26b7 213d
00000260: af7a cdbe 3f10 0e3b e034 00be 26e4 0cbf
00000270: 6dc8 44bf 5e8d 94be ce87 d4be b677 49bf
00000280: 9a65 25bf 6346 da3c 9c75 59be b992 02bf
00000290: 25bd ae3e 62eb 97be 8699 f4be b64d 8cbe
000002a0: fec4 c1be 038a df3c 40ac 9bbe 3d87 c1be
000002b0: ea63 1abf e0f5 d5be 9b5e 0ebf 1adb 913e
000002c0: 1aaa 2dbe 8fc0 d8be f04a 8bbe 776f 143d
000002d0: 640e fd3c 49cf 21bf 01e5 37be 377b 23bf
000002e0: 24d8 18bf e527 31be 9016 1b3e abf2 bbbd
000002f0: d909 9cbe 5527 c1be 1cac 19be 377e 25be
00000300: aa2d 7d3f 7db8 523e 4251 c6bb ae81 00bf
00000310: e86a c2be 6ff6 43bf fec5 3cbe 3274 1abf
00000320: 1cd5 9dbd aeb4 02be f60c 02bf 1b76 d0be
00000330: 2377 6dbe 3488 81bf 12dd 453e 5f9f 85be
00000340: b82d cabe 8b5a 383d 6fc1 eebe 8e66 c3be
00000350: 6704 8abd 073d cb3d 973d eebe bc22 c73e
00000360: c702 dabe 542a 02be 01ad 0bbf a9d8 39bf
00000370: c439 abbe 70da 40bf e9a9 35be e9a4 84bc
00000380: 9142 39be f95f 52bf e9b9 88bf 8882 57bf
00000390: 7a67 b4be 260b 05bf f842 11bf 65b0 c5be
000003a0: 7fee be3c 4356 58be ffc4 15bf fefa 85be
000003b0: a1ad 31bf de31 a23e 152c 133e 7cdd 8dbe
000003c0: a83f dc3d 3630 07bf 8df5 18bf 222d 69bf
000003d0: d9b1 14bf 4b74 99be f767 3abe bb91 19bf
000003e0: fda4 c83e 30d8 c1be 8bf4 7dbe 9cc9 3cbd
000003f0: 7875 49bf 1165 02bf 29a4 3ebf 8043 11bf
-0.32283536 -0.032915276 -0.35867125 -0.5385328 -0.49851725 -0.68881917 -0.38533428 -1.0110503
-0.6251439 -0.18240432 -0.30448756 -0.55892634 -0.30255422 -0.01498812 -0.71106875 -0.36931655
-0.39617354 -0.29290354 0.1867567 -0.24501199 -0.37917513 -0.37238386 -0.3643346 -0.025536764
-0.59076 -0.7518824 -0.19982527 -0.24951765 -0.41925964 -0.8471151 -0.86151177 -0.4656583
0.32528308 -0.3483673 -0.28609753 0.11405576 -0.56869674 -0.35803342 0.09894101 -0.34992796
-0.066273905 0.30041683 -0.5082374 -0.21632233 -0.5843812 -0.20121054 -0.5895821 -0.44813877
-0.038813286 -0.12537727 -0.58583164 -0.23915516 -0.5165821 -0.3239083 -0.5679892 -0.1963595
-0.58412373 -0.57630867 -0.4966661 -0.018729107 -0.79253674 0.11119754 -0.69447696 -0.44346806
-0.3095375 -0.470374 -0.54244494 -0.4444925 -0.23279895 -0.59829646 -0.36474097 -0.0509038
0.4904299 0.24168172 -0.33386827 0.40133694 -0.40840608 -0.07762966 -0.59309846 -0.37121806
-0.6127869 0.107405126 -0.17450571 -0.41218597 -0.2589806 1.14781 -0.7080146 -0.9237381
-0.051942393 -0.74228764 -0.33454037 -0.5834953 -0.2950138 -0.69679546 -0.19720045 -0.49979275
0.30740026 -0.43756562 -0.50053626 -0.24497916 -0.57233334 -0.17418377 -0.3951956 0.39791274
-0.3939784 -0.4505767 -0.35040012 -0.6537405 0.6346251 -0.7399806 -0.14838561 -0.49124748
-0.04412187 -0.0979236 -0.3244656 0.026047548 -0.43082833 -0.5683674 -0.033549063 -0.5251908
-0.42234817 -0.45142412 -0.46923646 -0.6556892 -0.3029758 0.12807406 -0.62826365 0.15221013
-1.19564 -0.68371254 -0.30783474 -0.48980808 -0.20254648 -0.49181458 -0.26177043 -0.4789199
-0.8159801 -0.5431199 -0.04327303 -1.0152969 -0.032265324 -0.48438302 -0.7796168 -0.15630355
-0.4378081 -0.5738598 -0.32006195 -0.05220935 -0.21417205 -0.31049588 -0.39326593 0.039481305
-0.40132663 0.0021677164 -0.1252017 -0.55035627 -0.76868325 -0.29014105 -0.4150986 -0.7869829
-0.64608157 0.026644891 -0.2123627 -0.5100513 0.3412868 -0.2967177 -0.4777338 -0.2740304
-0.37845606 0.027287489 -0.30404854 -0.3779849 -0.60308707 -0.4178915 -0.55613106 0.28487474
-0.1695942 -0.4233441 -0.2720561 0.036239114 0.030890651 -0.6320692 -0.17958452 -0.63859886
-0.59704804 -0.17300375 0.15145326 -0.091771446 -0.30476263 -0.3772532 -0.15007061 -0.16161428
0.988978 0.20578189 -0.006052167 -0.50197875 -0.37972188 -0.765479 -0.18434903 -0.6033355
-0.07706663 -0.12764236 -0.50801027 -0.40715107 -0.23189978 -1.0119691 0.19322613 -0.26098153
-0.39488006 0.045008224 -0.46631953 -0.3816418 -0.06739121 0.099237494 -0.46531364 0.38893688
-0.42580244 -0.1271146 -0.5456086 -0.7259622 -0.3344251 -0.7533331 -0.17740597 -0.016191917
-0.180918 -0.8217769 -1.0681735 -0.8418355 -0.35235196 -0.51970136 -0.5674281 -0.3861114
0.023307083 -0.21126656 -0.5850372 -0.26168054 -0.6940556 0.3167867 0.14372285 -0.27708042
0.10754329 -0.5280794 -0.5974968 -0.9108449 -0.58083874 -0.29971537 -0.18203722 -0.5998799
0.39188376 -0.3786025 -0.24800317 -0.046090707 -0.7869487 -0.50935465 -0.7446924 -0.5674362

fc2.weight f4 [128, 260]
00000000: a000 31be b913 153e c30f 15bd 9560 4b3e
00000010: 0df4 25be 03ed 083e e91c adbd 8567 c8be
00000020: 313e 5dbd 6bad 84be b188 b2be c6c2 86bd
00000030: 296f 29be edc9 513c 7b38 8d3d 369e af3e
00000040: d271 1a3e 3c8c f73b c988 56bf 5589 74bd
00000050: 2eb5 c5bd 3b2b d8bd 4cd1 13bd 9f02 eebd
00000060: e089 9c3b 1f35 9bbd e37c c7be c033 debd
00000070: a610 87bd 5d27 63be b5ae 273e 4a6f a4bc
00000080: 7f22 a1be 13bc b63c 843c 033d cba4 93be
00000090: 3d7e 89bc 4612 af3d dcd1 953d 5440 01be
000000a0: c501 ddbd a6a8 fabd a8c0 33bc 5eac 303e
000000b0: c7fa 903d 41ac 0a3b 2ebe c93d d1e3 b83d
000000c0: 85e5 63bd d89f 83be b5b4 663d 009d ac3d
000000d0: 4035 5d3d 14ac ffbc 84cb f43d ff32 b4bc
000000e0: 7cd1 03be 24e6 d7ba 1378 5cbc 8007 8ebe
000000f0: 6a55 bd3d 6653 3ebd fa4b 6bbe 200f 58be
00000100: 4266 6abd babc 33be dd89 1fbe 6ce5 cbbd
00000110: 1189 aebe 240b fbbd 67c0 733d f4b0 72be
00000120: 448d aabd 8f84 46bc 8507 03be ef67 65be
00000130: 9cec 9c3e a7ba 85bb 0822 4fbe 9732 08be
00000140: 1f77 99bc 07fb 6dbe 93aa 84bb 36e0 dabd
00000150: 5489 97be a8e3 01bf 7d89 3cbe 3ec5 71bd
00000160: 86ca b73d c49c bbbd df11 32bd 4511 0cbe
00000170: a2f2 43be 0d8c b4bd badd 8dbe 6e41 8dbe
00000180: b25a aebe 295a 863d 838e cfbc e4d3 96bd
00000190: 95c4 3dbe a251 a2bd e0f5 2e3e 0b70 84be
000001a0: 0440 6b3c ff91 04be f812 2037 3106 ffbd
000001b0: 1dd3 03be 0b67 9dbd ed08 aabd 815a 13bc
000001c0: c06b 743c efe6 06bf 004f 6e3d 349a 9fbe
000001d0: d2bb 2cbd 1cc5 7e3d fc82 e23c ea5e 80be
000001e0: e4b3 4dbe bd9f 8b3d 5ce0 babe e943 86be
000001f0: 54db 98be 89ae 46be 7844 623d 4f3f f0be
00000200: 2d21 453c 7268 20be 3426 3abd 64bb 6ebd
00000210: 9174 523e 9156 563d 0556 e3bc 0ebc 09be
00000220: a84d b33c e330 94be 68f0 35be cbb0 123d
00000230: 38af 483e d165 dfbc 5383 9e3c 1140 84be
00000240: e7cc 2e3e 315a 2f3e 285f 88bd 9ad5 e5bd
00000250: 7b1b 06be 81ee d8bd 1b11 a23d 4db8 81be
00000260: a260 5bbe 241b 8f3c 4717 34be f429 05be
00000270: 5550 863e 5f88 8cbe ccf8 8ebe b554 a8be
00000280: ffe6 5fbc fe6d 17bc d224 16bf 5856 6ebe
00000290: a65b 4ebe f7c3 41be 610d 8dbe b42c 0b3e
000002a0: 2a5c dabd 2124 e53d dcaf 403e 640d 6ebd
000002b0: 1d88 113c 8726 50be 5956 e4bd 75e7 233e
000002c0: 1a25 94bd cf46 b5bd aa63 913d b97e 7bbe
000002d0: 45c7 11be 7703 8bbe 04f7 c9be 0693 55be
000002e0: b56b 82be 3bd9 2d3e 621e 99bd 3bd5 acbe
000002f0: f923 12be 7d37 1abd bb16 ce3d ada1 11be
00000300: ecf0 2fbe 9d2c 19be 859e 74bc 04f2 23bc
00000310: 1eba 563d addf 113e ac62 03be 2445 553e
00000320: 46a1 afbe b669 d43d 21d0 3cbe b501 113e
00000330: 0a8d e9bd f422 b5bd d3f0 39be 3436 aa3c
00000340: 9c7d 6ebe 8fa2 94bd ef08 8dbd 68e3 1d38
00000350: 5a5b afbc af27 dcbd fc25 af3d ce14 54be
00000360: c134 2abe 5463 f7bd 1df9 e13d 5a74 e73c
00000370: 7252 3b3e 4159 bdbc 8646 333e 7a53 75be
00000380: 5b1a e4bd d307 acbc 2021 b0bd 12f7 1e3d
00000390: c51a 293d 5bac 37bd 6216 55be 10a4 14be
000003a0: 42a1 77bd fd09 61be 0c6d 9839 7082 1c3e
000003b0: d0b6 40be a063 01bd 8764 43be d2ec 2cbd
000003c0: c9f9 05be 2231 1b3e 49b8 c4bd a972 b1be
000003d0: ad4c 45be a40d e3bc f539 ecbd 907c 0fbe
000003e0: 32bf 0c3e 800c 473c 48c1 b1bd d4fd 9fbd
000003f0: c3cb 1ebd 4069 2abe 3fe4 bcbc ea07 4bbe
-0.17285395 0.14558305 -0.036391985 0.19861062 -0.16206379 0.13371663 -0.0845278 -0.3914148
-0.05401439 -0.25913557 -0.34869912 -0.06580119 -0.1654631 0.0128044905 0.068955384 0.34300393
0.15082482 0.007554559 -0.8380247 -0.059701283 -0.09653698 -0.105551206 -0.036088273 -0.11621594
0.004777178 -0.075784914 -0.38962469 -0.10849714 -0.06594972 -0.22182985 0.16375239 -0.020072598
-0.3147163 0.022306478 0.032040134 -0.28836665 -0.016783828 0.08548407 0.07315418 -0.12622195
-0.10791353 -0.122391984 -0.010971226 0.17253253 0.07079082 0.00211598 0.09850727 0.090278275
-0.05563881 -0.2570789 0.05632468 0.08428383 0.05400586 -0.031209983 0.1195288 -0.021996973
-0.1287288 -0.0016471785 -0.013456362 -0.27740097 0.09244807 -0.046466254 -0.22978202 -0.2109952
-0.057226427 -0.17552462 -0.15579934 -0.09955868 -0.34088948 -0.12257984 0.05950966 -0.23700315
-0.083277255 -0.012116565 -0.12795837 -0.22402929 0.3064927 -0.0040810886 -0.20227826 -0.13300548
-0.01873356 -0.2324029 -0.0040486543 -0.10687296 -0.2959696 -0.50738 -0.18411823 -0.059025995
0.08974175 -0.0916076 -0.043474074 -0.13678463 -0.19135526 -0.08815775 -0.27708226 -0.2758898
-0.3405357 0.065601654 -0.02533651 -0.07364634 -0.18532021 -0.079257265 0.17085981 -0.25866732
0.014358524 -0.12946318 9.54116e-06 -0.12452353 -0.12873502 -0.076856695 -0.08302484 -0.008993746
0.014918268 -0.52696127 0.05818081 -0.31172335 -0.042171307 0.062199697 0.027650349 -0.25072414
-0.20088154 0.06817577 -0.36499298 -0.26223686 -0.29854834 -0.19402517 0.05524108 -0.469233
0.0120318355 -0.15664843 -0.04544659 -0.05828418 0.20552279 0.05232865 -0.027750978 -0.13450643
0.021887615 -0.28943548 -0.17767489 0.035813134 0.1959809 -0.02727023 0.01934973 -0.2583013
0.17070352 0.17124249 -0.066587746 -0.11222382 -0.1309642 -0.10592366 0.07913419 -0.25335923
-0.21423581 0.017468996 -0.17587005 -0.13004285 0.26233163 -0.27447793 -0.27924192 -0.32877126
-0.013665914 -0.009242533 -0.58649933 -0.23275125 -0.20152149 -0.18922411 -0.2754927 0.13591272
-0.1066211 0.11188532 0.18817085 -0.05811824 0.00888255 -0.20327197 -0.11149282 0.16006263
-0.07233639 -0.08851396 0.070990875 -0.2456006 -0.14236172 -0.2715108 -0.3944627 -0.20856866
-0.254728 0.16977398 -0.07476498 -0.33756432 -0.14271535 -0.037650574 0.10062929 -0.1422183
-0.17181748 -0.14958425 -0.014930372 -0.0100064315 0.05242359 0.14245482 -0.12830609 0.20827156
-0.3430273 0.10371725 -0.1843877 0.14160807 -0.11403854 -0.088445574 -0.18158273 0.0207778
-0.23290104 -0.07257568 -0.068864696 3.7643505e-05 -0.021405865 -0.107497565 0.08552167 -0.20711061
-0.16621687 -0.12079492 0.11033843 0.028253723 0.18293169 -0.023113849 0.17507371 -0.23957625
-0.111378394 -0.020999825 -0.08600068 0.038809843 0.041285295 -0.044842105 -0.2080932 -0.1451571
-0.06045652 -0.21976466 0.00029072945 0.15284133 -0.18819737 -0.03158915 -0.19081317 -0.042218037
-0.13083567 0.15155461 -0.09605462 -0.3465779 -0.1926753 -0.027716465 -0.11534492 -0.1401236
0.1374481 0.012148976 -0.086794436 -0.07812086 -0.03876854 -0.16641712 -0.023058055 -0.19827238

fc2.bias f4 [128]
00000000: f11f 92bd 8021 a0be 4965 babe 5e7a 67be
00000010: 64cd b6bd 09c9 97bd 50a1 52be 9605 cfbd
00000020: 04f2 9fbd 2469 71be 8e7b eebd ddd9 603f
00000030: 7062 ad3d b12d 19be 0f55 79be 4d6d e23d
00000040: 41ac f2be 50a8 22be cebd b3bd 8475 d1bd
00000050: 2d66 16bf 014b b9be b48f 02be 6007 73be
00000060: 9829 1e3e fbdd 1abe ac61 88be f89a 20be
00000070: ed38 48be baa8 09be c817 06be 417f 17be
00000080: 7114 16be 62e9 e8bd 228c 5abe 46fd 68be
00000090: 6875 17be 57e1 4dbf 44ce 813c 51fe 8bbd
000000a0: 297d 0dbe 23e0 03be ef9e b9bd f48d ca3f
000000b0: 8888 f5bd b9b0 31be 4b17 bfbe 6ac6 f5bd
000000c0: e931 0bbe 194c 1d3f fb9f 50be 5488 d3be
000000d0: 9a38 c5be 93f5 18be c1d1 54bd a19a 48be
000000e0: 2b9f cd3c 4280 a3bf a491 19be 0c70 93be
000000f0: 8c91 40be 6369 30be 131f aebd f26b edbd
00000100: 3cab 98be 5177 8ebe dc48 44be b4f2 c5bd
00000110: 6811 03be 2e54 a5bd d29b 43be cddb f8bd
00000120: 18f6 91bd c1f1 40be b0b6 10be 821c 47be
00000130: b9de d4bd 327c 7dbd 0473 e63e ca8a 01be
00000140: 67be d6bd 7ab3 d3bc 3930 b5bd 9435 3abd
00000150: 6f6d b0be 4215 363e 0e0e 0abe 5310 8fbd
00000160: feb1 1cbe 68f0 11bf 688a 4cbd 1056 a7bd
00000170: b794 49be 8238 1fbe cdb4 b1be d673 21be
00000180: c27b 82be a44e d8bd 0fee 00be 0c12 b0be
00000190: 8760 38be 9b7f 1abe 88fe dabd 8904 963f
000001a0: 6b2f f5bd b225 7bbe 1fbd dcbd 59ac 36be
000001b0: b565 c2be 1f89 99be 8742 9abd 5d79 88be
000001c0: 3c25 2cbe 4535 f8bd 5ee7 0e3f 31af 05be
000001d0: 0678 38bf 362c fbbd fae6 7fbe 2d60 bd3e
000001e0: 5e84 8bbe d170 14be 8125 0ebd 9a76 91be
000001f0: 57de dfbd 0234 f2bd 4bc4 603e c53c f4bd
-0.071349986 -0.31275558 -0.364054 -0.22605273 -0.08925894 -0.07411391 -0.20569348 -0.10108487
-0.07809833 -0.23575264 -0.1164466 0.87832433 0.08466041 -0.14958836 -0.24348854 0.11056004
-0.47397044 -0.15884519 -0.08776437 -0.102274925 -0.5874966 -0.36190036 -0.12750131 -0.23733282
0.15445554 -0.15123741 -0.26637018 -0.15684116 -0.19552965 -0.1344327 -0.1309501 -0.14794637
-0.14656235 -0.11372639 -0.21342519 -0.22752866 -0.1479088 -0.80421966 0.015845425 -0.068356164
-0.13817276 -0.1287847 -0.09063517 1.5824571 -0.11988932 -0.1735257 -0.3732246 -0.12000735
-0.13593258 0.6144424 -0.20373528 -0.41314948 -0.38519746 -0.14937429 -0.05195785 -0.19590236
0.025100311 -1.2773516 -0.14996964 -0.28796422 -0.18805522 -0.17227702 -0.08502021 -0.115928546
-0.2981814 -0.27825406 -0.19168419 -0.096654326 -0.12799609 -0.080726966 -0.1910241 -0.12151299
-0.07127017 -0.18842222 -0.1413219 -0.19444469 -0.103940435 -0.06188602 0.45009625 -0.126506
-0.10485535 -0.025842417 -0.08847088 -0.045461252 -0.3445849 0.17781547 -0.13481924 -0.069855355
-0.15302274 -0.57007456 -0.049936682 -0.08170712 -0.19685636 -0.155489 -0.34708253 -0.15766844
-0.25485045 -0.105618745 -0.12590812 -0.3438877 -0.18005572 -0.1508774 -0.10693079 1.1720134
-0.11971935 -0.24526098 -0.107782595 -0.17839183 -0.3796822 -0.29987428 -0.0753222 -0.26655093
-0.16811079 -0.12119535 0.5582179 -0.13055111 -0.7205814 -0.12264292 -0.24990454 0.3698744
-0.27249426 -0.14496161 -0.034703735 -0.28410798 -0.1093108 -0.11826326 0.2194988 -0.11925653

fc3.weight f4 [1, 128]
00000000: afde 933b b970 6eba 2195 03bc 38d0 cebb
00000010: ef7f d0bc ce39 b8bb 6f99 19bc 71d9 b73c
00000020: 57b3 2cbc 26b8 26bc 3b33 003d 24e0 9fbb
00000030: 9483 883c 23bc 753c f617 54bc c1e8 a13c
00000040: 8742 bcbc 792e 733c c662 91bc 044d 99bb
00000050: b51d 8bbc 1c93 86bb f7dc 41bd 485b 453c
00000060: 5dba 193c 3686 81bc 1878 d4bb 8c04 243c
00000070: 63f3 30ba 0c1a 16bb 74a8 27bb c893 93bc
00000080: 52bd 103c 145e a43c b272 33bc a5b8 983b
00000090: e3df bf3b 4e00 8bbc 3885 ca3b 764b 67bc
000000a0: 2c8e e03b b4f6 003d 2125 d1bc 2a69 453c
000000b0: ff77 4dbb a450 c8bb 6ca1 8039 e7df 303b
000000c0: 2ee3 9d3b 8287 4d3c 1f29 ebbc 0862 5dbc
000000d0: 525c debb 9900 3abc 491d 353c 3f4a e9bb
000000e0: 6a07 db3b c5c0 24bd 1538 92bb 1950 843b
000000f0: e463 f43c 2b5c 073c 9fd2 a9bc 92de e2bc
00000100: d3ff 11bc 5eeb 02bc 18f5 f33c e8ee adbc
00000110: 26a1 483b 89e7 91bc f981 e5bc 3e62 fd3b
00000120: 8256 6e3b 208d a53b a202 08ba ee0e c7bb
00000130: 941c 0ebb 841c d1bc 8d2e 09bc ce7d 9c3c
00000140: bea6 9dbb a708 833d f9b2 09bc 4ed7 e73c
00000150: 531f 9cb9 bb87 773c b0d9 5dbc 546a d13b
00000160: 6ddf 3b3c 0dc2 eabc 44d0 f53c 8258 08bc
00000170: 51df f7bc 7bce 7c3c 98b5 df3b d13f bbba
00000180: 02e5 753c e728 69bb 4189 723c b501 7dbc
00000190: 2519 493c e972 32bc 8117 10bb 5f3a 753c
000001a0: 75ad d53c b28f 4abb 2310 593b 26be c3bb
000001b0: 641d d5bc fd1d a1bc c625 e13b 9864 81bc
000001c0: 6b2c bf3c 58fc dc3b 2660 603c c23c cabb
000001d0: 6de0 4bbc e16d dd3c fdf5 1abc fb9e fe3b
000001e0: df7e e7bc 3d14 ddbb 9f0d 8a3c 3130 0dbc
000001f0: aacf f83c 4244 0c3c 324f 753c 4bf8 11bb
0.00451263 -0.00090957765 -0.008031161 -0.0063114427 -0.025451628 -0.005622125 -0.00937496 0.022442551
-0.010540805 -0.01017574 0.031298857 -0.0048790146 0.016664304 0.014998469 -0.012945166 0.019764306
-0.022980941 0.014842623 -0.017747294 -0.0046783704 -0.016981939 -0.0041068923 -0.04732987 0.012045689
0.009382811 -0.015811067 -0.006484043 0.01001085 -0.00067501346 -0.0022903709 -0.0025582584 -0.018014804
0.0088342 0.020064391 -0.010952638 0.004660683 0.005855547 -0.016967919 0.0061804317 -0.014117112
0.0068528857 0.031485274 -0.0255304 0.012048999 -0.003135204 -0.0061131287 0.0002453433 0.0026988925
0.0048183417 0.012544515 -0.028706132 -0.013512142 -0.006785908 -0.011352682 0.011054345 -0.0071194465
0.0066842334 -0.0402229 -0.004462252 0.0040378687 0.029832788 0.008261721 -0.020730315 -0.02769402
-0.008911091 -0.007990686 0.029779956 -0.021232083 0.003061363 -0.0178106 -0.028016077 0.0077326586
0.003636748 0.005052224 -0.00051883806 -0.006074778 -0.0021684514 -0.025526293 -0.008372915 0.019102957
-0.004811137 0.06398135 -0.008404487 0.028300907 -0.00029777977 0.015108044 -0.01354067 0.006390849
0.011466843 -0.028656984 0.030006535 -0.008321883 -0.030257853 0.015430088 0.0068270676 -0.0014285987
0.015008213 -0.0035577358 0.014803232 -0.0154423015 0.012274061 -0.0108916545 -0.0021986666 0.01496753
0.026083687 -0.0030908403 0.003312119 -0.005973595 -0.026014991 -0.01966762 0.006870958 -0.015795037
0.02333661 0.006743949 0.013694799 -0.0061717937 -0.012443644 0.027029933 -0.009458062 0.007770417
-0.028258739 -0.0067467974 0.016852198 -0.008617447 0.03037246 0.008561196 0.014972495 -0.0022273238
