p2_continuous-control/actor_model.pth (torch_old, 541437 bytes, 6 tensors)

fc1.weight f4 [400, 33]
000000 47 0e d6 bd 00 6a 9e 3d 1a 56 7a bd 97 27 64 bd
       -0.10451942 0.07735062 -0.06111727 -0.05570182
000010 50 72 ce 3d cc 56 c2 3d 1f e1 87 bd ab f5 37 3c
       0.10080397 0.094892114 -0.06634735 0.011228005
000020 a8 54 cd bd b1 30 e0 bd 46 37 1f be 22 f7 a7 3d
       -0.100259125 -0.10946787 -0.15548429 0.08201434
000030 d8 54 24 3d 5c ab f1 3c 6e 6d 8e 3d 56 54 a9 ba
       0.040119976 0.029500656 0.06954466 -0.0012918811
000040 f2 ac 12 be 94 4b 4e be f3 93 08 bd 75 06 58 be
       -0.14323786 -0.20146018 -0.03334422 -0.21096213
000050 ff d7 95 3b d0 d0 38 bd fa c4 04 bc a4 95 52 bd
       0.004572868 -0.045121014 -0.0081036035 -0.05141224
000060 eb 9c 8a bc b8 d4 29 bd 85 99 8b bd 62 b6 15 3d
       -0.016920527 -0.04146263 -0.06816391 0.036550887
000070 37 ad a5 3d c9 65 4b 3d f6 bd 24 bd b7 4f ea bc
       0.08089679 0.049657617 -0.040220223 -0.028602464
000080 10 6e ac be 64 44 01 be 9f 62 84 bd 5f 51 fa 3d
       -0.3367772 -0.12623745 -0.06464123 0.122225516
000090 79 ac 96 3a d6 3c dd 39 d7 11 04 3d ef e5 71 bd
       0.0011495493 0.0004219773 0.032243576 -0.059057172
0000a0 ab 00 b9 3a 9d cb 6c bd 79 fa 23 3c 48 c7 bb 3d
       0.0014114579 -0.05781137 0.010008448 0.09168869
0000b0 8c 53 11 bd a8 88 36 3c 83 2a de 3d 47 f0 27 bd
       -0.035480067 0.01114098 0.10847952 -0.04100063
0000c0 4b 53 43 bd 42 97 00 be 9b 37 9a bc 83 84 08 3b
       -0.047686856 -0.125577 -0.018825343 0.0020830936
0000d0 d8 84 2d 3d 12 8b a3 bd c2 b0 d5 bd 8f a6 20 3c
       0.042363018 -0.0798551 -0.104341045 0.009805336
0000e0 da 7c 4e bd 04 d0 44 bd 0d 7b 4b 3d 68 06 09 bd
       -0.050412036 -0.04804994 0.049677897 -0.033453375
0000f0 5a a2 23 bd 71 0f a8 3d c3 af 28 bd 16 d1 a5 3d
       -0.039949752 0.0820607 -0.041183244 0.080965206
000100 ec 03 3b bc 61 9f 7c 3e 9b 52 bb 3d 08 70 38 3d
       -0.011414509 0.24670173 0.09146615 0.045028716
000110 07 c5 dc 3b b9 3e 48 bd 11 6e 60 3d 74 51 44 bd
       0.0067373547 -0.048887942 0.054792468 -0.047929242
000120 aa fb e5 bc b7 04 ae 3b 44 eb 3e 3c 17 c2 e5 3c
       -0.028074104 0.0053106206 0.011652771 0.02804665
000130 c7 1f cc 3d 14 2b 10 bc e4 a7 cf bb e3 0f 25 bd
       0.099669985 -0.008799333 -0.006337153 -0.040298354
000140 b6 5c 51 3e a4 30 7b 3d fb 47 ef 3d 27 22 1f bc
       0.20445523 0.061325684 0.11683651 -0.009712732
000150 74 4a d2 bd 65 98 48 bd b8 48 13 bd 58 9f 8b 3d
       -0.10268107 -0.04897346 -0.035958022 0.06817502
000160 d5 d5 43 3d 37 18 9c bd fa 84 a7 bc 48 a7 32 3d
       0.047811348 -0.07621806 -0.02044915 0.043616563
000170 a0 39 2e 3d 17 14 f3 bc 7a 05 8a 3d ec d4 0b bd
       0.042535424 -0.029672666 0.06739326 -0.034138605
000180 74 52 02 bd 2b b2 3c 3d 08 ea 23 bc 84 9f ac 3d
       -0.031816915 0.04606835 -0.010004528 0.08428863
000190 d1 63 19 3e a8 a6 79 bd 2a e5 7b bc 64 1e 96 bc
       0.14979483 -0.06094995 -0.015374461 -0.018325038
0001a0 fc 9c 8f bd c2 eb e6 bd ec 3b fa 3b 67 6d be 3d
       -0.07012364 -0.11275436 0.007636538 0.092982106
0001b0 8f 21 9e 3d f5 77 1c bc 6a 86 c9 bb 88 72 9d bd
       0.077212445 -0.009550084 -0.0061500566 -0.07687861
0001c0 fe 45 11 3e fc 7a 2d bd e7 c5 df bd 3f 3b bd 3d
       0.14186856 -0.042353615 -0.10926419 0.09239816
0001d0 9d bf ca bd 26 fa 18 bd 95 f7 67 3d da 02 f4 3b
       -0.098998286 -0.037347935 0.056632597 0.007446629
0001e0 11 43 31 3e 40 79 ca 3d 01 00 59 3d 53 f6 9c bc
       0.1731074 0.09886408 0.05297852 -0.019160425
0001f0 b4 e9 d9 bc 1b d2 2b be cd 5e 12 bc 00 5f e5 3d
       -0.026600696 -0.16779368 -0.008933735 0.111997604
000200 00 58 54 b8 da ff f4 bc 80 03 08 ba cd 9d 09 3f
       -5.0626695e-05 -0.029907156 -0.000518851 0.5375641
000210 5b 31 c2 3d 16 70 9f 3d c0 dc f8 3d 20 af e7 bc
       0.0948207 0.077850506 0.1215148 -0.028281748
000220 8f 47 c0 3d 64 36 18 be 79 6b f7 ba 0e 7e 0e 3d
       0.09388649 -0.14864498 -0.0018876634 0.034788184
000230 5d 0b aa bd c4 5c 3d 3e 1a 58 18 3d 84 3b bb 3d
       -0.083029486 0.18492419 0.037193395 0.09142211
000240 d7 5d 15 3e 19 ce 0e bc 61 c7 4d 3c 8e 5f de 3c
       0.14586578 -0.00871613 0.012559743 0.027145173
000250 b8 11 0d be d3 b5 b7 bd 28 0f 0a bd f2 78 6b bd
       -0.1377629 -0.08970227 -0.03370586 -0.05748839
000260 ab 84 55 bd 76 7a 17 bd 90 43 7e 3b f7 87 ab bc
       -0.052128475 -0.036982022 0.0038797595 -0.020938857
000270 16 ee cf bd fb 89 14 3d 38 eb ec 3d 19 a1 ab 3d
       -0.10152833 0.0362644 0.11568302 0.08380336
000280 b4 44 fd bd e0 80 1b bd b1 ba df bd 68 c4 19 bc
       -0.1236662 -0.0379647 -0.109242804 -0.009385206
000290 7b be eb 3d 99 35 f0 3d 03 c5 c9 bd 30 4a 82 3d
       0.11510941 0.11728973 -0.0985203 0.063618064
0002a0 b1 f2 40 3d aa 63 e6 3d 86 9e 71 ba f2 cf 10 3d
       0.04710645 0.11249478 -0.0009217042 0.035354562
0002b0 06 a1 2e bd d3 0b 7b 3d 51 30 24 bb ee db 03 bb
       -0.042634033 0.061290573 -0.0025053213 -0.0020120102
0002c0 9a 8a 7e bd 02 53 ba 3c 47 02 c5 bd 7e f0 e8 bd
       -0.0621439 0.02274466 -0.09619575 -0.11373995
0002d0 e4 95 c3 3d c6 fe 0b bd 9d 18 2e 3c 3f 37 62 3c
       0.09550074 -0.034178518 0.010625985 0.013807117
0002e0 dc 8a fa 3c ee ce 03 3d 08 85 17 3d ca df 34 be
       0.030583791 0.032179765 0.036992103 -0.17663494
0002f0 68 44 1f be 50 2f 04 bd dc fd 84 3c 82 0d 3a 3d
       -0.15553439 -0.032271683 0.01623433 0.04542304
000300 85 f3 54 3c 61 a0 fb bd 89 27 40 3d 6b 19 06 3d
       0.012997513 -0.12286449 0.046912704 0.032739084
000310 c0 3e 71 3a 4a 2b a0 be 0d bf c9 3d 0b dd 85 3d
       0.0009202771 -0.31283027 0.09850893 0.06536301
000320 9b 67 45 3c 12 ae 2d 3d 65 d6 04 3c 9e a3 67 3d
       0.012048627 0.042402335 0.008107756 0.056552522
000330 ae 26 91 3d a7 b4 9f 3d bc e3 b0 3c 32 84 ba 3c
       0.07087456 0.077981286 0.021592967 0.022768114
000340 a0 0f b8 bc da c3 0b 3d 49 a7 ab bc df bf 05 bd
       -0.022468388 0.034122325 -0.020953791 -0.032653686
000350 51 8c 12 bd 19 9c 04 be 49 69 1a bd c6 da 1b be
       -0.035778347 -0.12950172 -0.037698064 -0.15220174
000360 3a 89 33 3e 6b 20 c2 3b d3 af e6 3d 5e f3 3c be
       0.17532817 0.0059242747 0.112640046 -0.18452212
000370 b1 df c7 bd 53 84 42 bd ee 51 10 3d 2b 84 69 bd
       -0.097594626 -0.047489475 0.035234384 -0.05701081
000380 33 39 e2 3c ba f1 1b 3d 9d 4b d3 bd 7f 70 2f bd
       0.027615165 0.038072325 -0.103171565 -0.042831894
000390 52 7d 71 bd ac e8 2c 3c cd 8d 6f bd cc 00 b9 3d
       -0.058957405 0.01055352 -0.05848484 0.09033355
0003a0 ee a5 72 bd 3f 31 ac bd 57 e1 fe 3d 00 21 48 3d
       -0.059240274 -0.084078304 0.12445324 0.048859596
0003b0 c1 ca 00 3c bd a6 0d 3c 33 6d ca 3d b8 47 c8 bd
       0.00786084 0.008645711 0.09884109 -0.09779304
0003c0 da 4a 61 bb 6a f8 17 bb ee 35 43 bd 38 fa 8c bd
       -0.003437689 -0.0023188838 -0.047658853 -0.06883663
0003d0 39 48 e1 bd 06 0b d4 bd 6d 20 a5 3b 6a 55 27 bd
       -0.110001035 -0.10353665 0.005039266 -0.04085294
0003e0 17 ad 51 3c a5 a0 8c 3d c7 58 da bd 18 4d e7 3d
       0.0127976155 0.06866578 -0.10661464 0.11294001
0003f0 1a 48 ef 3b 07 bc 8a 3d c0 e5 4c bd 2e ef 47 bc
       0.0073022963 0.067741446 -0.050023794 -0.012203021

fc1.bias f4 [400]
000000 52 cc 0a be 46 47 2e bc 78 c9 28 3e 4f ed 4e 3c
       -0.13554505 -0.01063711 0.16483104 0.012629821
000010 08 bc 5f be 92 f3 15 be 0e b3 27 be db c5 15 be
       -0.21849072 -0.14643696 -0.16376898 -0.14626257
000020 28 ab 75 bd b2 b4 e6 bd 38 0e 04 3e de ac 58 bd
       -0.05997768 -0.11264934 0.12896049 -0.052899234
000030 5d 79 48 3e 27 4c e4 3b 65 38 0b be c9 84 e8 3a
       0.19577546 0.006967086 -0.13595732 0.0017739768
000040 23 1c ca bd 40 1d 41 be c4 bd 0a be 40 d7 02 3d
       -0.09868648 -0.18858814 -0.13548952 0.03194356
000050 6b 1c 4f be 7a f8 7c bd f6 48 e2 bd 24 ee 0b be
       -0.20225684 -0.061760403 -0.110490724 -0.13665062
000060 de d3 19 3d e3 fb 06 be af 2b e2 bd ce 3b 61 3e
       0.037555568 -0.13182025 -0.11043488 0.2199547
000070 bf 89 ce 3d 15 2d 92 3c f6 09 61 bd 67 ea 3a 3e
       0.10084867 0.017843762 -0.05494114 0.1825348
000080 27 c8 62 3e 94 de cc bd 9e 6a 74 3c 50 91 4c bd
       0.22146665 -0.10003391 0.014917998 -0.04994327
000090 02 ab 29 be e6 d4 3a 3e e1 f5 bd 3d 42 4d a3 bc
       -0.1656914 0.18245277 0.09275413 -0.0199343
0000a0 c3 06 0c 3d d3 4f c6 3d 93 08 69 3d 28 69 50 3d
       0.034186136 0.09683194 0.056892943 0.050881535
0000b0 29 b2 b0 3d 2e bb d6 3c 87 4a a7 3d 8d cd 08 3e
       0.08627731 0.026212301 0.08168512 0.13359661
0000c0 c6 48 86 3d 3c 1d 10 be fb 40 06 3d ae b3 e9 3d
       0.06556849 -0.14073652 0.032776814 0.11411224
0000d0 6e da 0e 3e 41 48 1b 3e f4 a3 ab 3c d0 58 0c 3e
       0.13950512 0.15164281 0.020952202 0.13705754
0000e0 18 23 17 3d ef b6 2b be 91 ef 69 bc 84 96 09 3e
       0.036898702 -0.16769002 -0.0142783085 0.13436323
0000f0 67 0b 4f be fb 8b ff bd f7 48 d8 3d ba d3 3f bd
       -0.20219193 -0.12477871 0.10560792 -0.046832778
000100 2c 17 e0 bd 5d 18 6c bd 06 33 cd 3b 2b 99 72 be
       -0.1094192 -0.057640422 0.006262186 -0.23691241
000110 90 68 4f bc 9e 51 00 3e 03 e0 0f 3e 9e d6 83 bd
       -0.012659207 0.12531134 0.14050297 -0.06437419
000120 ee da 0f 3d f2 2f ff 3b 91 4e 0a 3e f0 77 e6 3d
       0.035120897 0.007787698 0.13506533 0.11253345
000130 72 cd eb bd bd 62 36 bd 83 fe e0 3c 67 68 30 3b
       -0.11513795 -0.044527758 0.02746511 0.0026917697
000140 5a 06 94 bd 51 c9 e4 bd dc 2c d2 bd 2d 21 a3 bd
       -0.07227774 -0.111712106 -0.102624625 -0.07965312
000150 e2 22 c8 3c 31 db a3 3d 8b 52 5d 3d cc b3 c5 3d
       0.024430696 0.08000792 0.054033797 0.09653434
000160 33 77 3e 3e 9c 84 1e be 49 1b 65 bd 91 94 65 bd
       0.18600158 -0.15480274 -0.055934224 -0.056049887
000170 08 75 58 3d 3a 5c 0c 3d e7 f3 d5 bd 25 e1 0a be
       0.052845985 0.03426764 -0.10446911 -0.13562448
000180 bb 80 3d bd 8d 50 14 3e df ab 92 3d c6 ea fd 3d
       -0.046265345 0.14483853 0.07161688 0.12398295
000190 26 40 d6 bd 88 c4 d8 3d 6a 78 a4 bd de e0 49 3e
       -0.10461454 0.1058436 -0.0803078 0.19714686
0001a0 86 37 a0 3d ff 8f 1f 3e 91 c2 27 3e c6 71 35 bc
       0.0782309 0.15582274 0.16382815 -0.011074489
0001b0 9e f5 5a bc c0 2b 6f bd bd 63 4c bc 2e 27 27 bd
       -0.013364224 -0.058391333 -0.012474951 -0.04080885
0001c0 8d e1 93 bd ed 67 46 be 5d 8b 07 3e c9 d5 0a 3e
       -0.07220755 -0.19375582 0.13236757 0.13558115
0001d0 1b 53 41 bd ca de 01 bd d7 8b 44 be f9 ce 67 be
       -0.047198396 -0.03170661 -0.1919397 -0.22637548
0001e0 1b ab 65 be c4 44 f0 bd 41 23 5d be b9 82 93 3d
       -0.22428553 -0.11731866 -0.2159548 0.07202668
0001f0 7e 55 d8 bd ce 3e 9c 3d 2d 35 22 3d 64 71 65 3d
       -0.10563181 0.076291665 0.039601494 0.05601634
000200 13 f4 bc 3c 28 e7 c4 3d b0 5b 9f bd 3a 6b 9b 3d
       0.023065602 0.09614402 -0.0778116 0.07588811
000210 ff a3 36 3e 43 be b9 3d 16 19 53 bb b2 1b 6e 3d
       0.17835997 0.09069493 -0.0032210997 0.05813188
000220 65 16 91 bd 3b 2e d4 bc f6 88 02 3e 57 15 e8 bc
       -0.070843495 -0.02590095 0.12747559 -0.028330488
000230 c8 b4 b5 3d 6a f5 ae bd 9b 79 05 be e2 9e 1b 3e
       0.08872372 -0.08542903 -0.1303467 0.15197328
000240 5b 9f 33 be cc f3 db 3c bb 05 ee bc 5d 8d 5b 3d
       -0.17541258 0.02684965 -0.029055467 0.05360161
000250 9c 29 52 be 85 48 f5 bc a0 78 0c be 39 3c 74 3d
       -0.20523685 -0.029941807 -0.1371789 0.059627745
000260 d3 fb ce 3d 48 3f 04 be cd 17 fc bd fd 82 26 be
       0.101066254 -0.12914765 -0.12309227 -0.16260906
000270 07 ee 31 3e ff 42 3c be 00 24 3e 3d e4 21 ef bd
       0.17375956 -0.18384932 0.04642105 -0.11676386
000280 b4 e8 27 bc c5 f8 84 3d 94 25 54 3d f4 25 bc 3d
       -0.010248352 0.064927615 0.05179365 0.091869265
000290 d1 89 0d 3e 54 ca 76 bd c3 a9 d6 3d 8d 71 e4 3d
       0.13822104 -0.06025155 0.10481598 0.111544706
0002a0 66 f0 74 bd 2a 53 e7 bc dc 75 18 bd 15 43 84 be
       -0.059799574 -0.028237898 -0.037221774 -0.2583243
0002b0 21 78 a8 bd 51 34 42 bd 4b 4b c6 bd 1f f2 2b 3e
       -0.08226038 -0.047413174 -0.0968233 0.1679158
0002c0 ac d8 c8 bd fd 67 77 bc 4e ed b7 3d fb 04 df 3c
       -0.09806952 -0.015100476 0.08980809 0.027224055
0002d0 9a e5 00 3e 11 14 c9 3c 16 25 0c be 8d d6 b3 bd
       0.12587586 0.024545701 -0.13686022 -0.08781157
0002e0 14 46 b5 bd 6c e9 1d be 55 86 4b be 20 d3 af bd
       -0.08851257 -0.15421075 -0.19875462 -0.08585191
0002f0 59 35 12 3e 1b 12 2d 3e 1f 5e 94 3c d4 4d 55 bd
       0.14278163 0.16901438 0.018111287 -0.052076176
000300 d3 73 0d be 76 53 28 3e 00 37 f1 3c 1a 05 23 3d
       -0.13813715 0.16438088 0.029445171 0.039799787
000310 25 9b 7a bd f8 ff 8e bd 55 d8 a5 3d 20 b1 89 3c
       -0.061183114 -0.06982416 0.08097903 0.016808093
000320 29 f6 07 be 83 c3 9a bd 5c 94 86 be 50 1e a3 bd
       -0.13277496 -0.07556822 -0.26285064 -0.07964766
000330 69 d3 09 be 16 97 b9 3d bb a7 a7 bd 07 bb 2f bc
       -0.13459553 0.090620205 -0.08186289 -0.010725743
000340 08 0a 31 3d d4 12 24 3e 7e 30 80 bd 77 6e 88 3d
       0.043222457 0.16022807 -0.06259249 0.066616945
000350 43 2a 1e bd 5c 8b 4e be ff 23 25 3e f5 c8 12 be
       -0.038614523 -0.20170349 0.16127013 -0.14334472
000360 d9 2d 65 be 14 f8 ea bc d4 1a a2 3d c4 e4 c5 3d
       -0.2238077 -0.028682746 0.07915273 0.09662774
000370 f8 c5 4e be 87 b9 33 be f1 22 ed bd b6 20 09 be
       -0.20192707 -0.17551242 -0.1157893 -0.13391384
000380 a0 47 54 3e c5 f1 07 bd 6d 3f 14 3e 69 60 80 3d
       0.20730448 -0.033189554 0.1447732 0.06268389
000390 bb 22 04 3e 81 a4 ec bc 18 7a 5c 3d 72 10 1c 3d
       0.12903874 -0.028887035 0.053827375 0.03810162
0003a0 0a d1 ae 3d 9c 6b 13 be ce 40 e2 bd 92 1a 08 3e
       0.08535965 -0.14396518 -0.11047517 0.13291386
0003b0 46 bd e2 bc cb 82 b0 bd 77 ba f5 bd d5 43 60 bd
       -0.027678143 -0.08618697 -0.11998456 -0.05475219
0003c0 b7 2f 3f 3d e1 b6 b0 3c b7 c9 3d 3e af ff 83 3d
       0.046676364 0.021571578 0.1853398 0.06445252
0003d0 50 d5 a7 bd eb 98 a2 3d df 78 1f 3e 6b 3b 07 3e
       -0.08194983 0.07939323 0.15573452 0.1320626
0003e0 1c 73 3c bd 6f 43 0a be e1 01 f8 3c c2 76 0d 3d
       -0.046008214 -0.13502286 0.030274333 0.034537084
0003f0 3a e7 df 3b 5f cf 85 bd 00 34 40 3e 4f 5c 2d 3e
       0.0068329843 -0.065336935 0.18769836 0.16929744

fc2.weight f4 [300, 400]
000000 97 96 06 3d 03 77 d6 3c 21 5b b7 3d ea 47 29 3e
       0.032858457 0.026179796 0.08952928 0.1653134
000010 1e 61 a1 3d 85 8f 78 bd 01 20 cf bc 01 be e4 3c
       0.07879852 -0.060683746 -0.025283815 0.027922632
000020 fb f6 8f 3d cc 87 88 3d db a5 4b bd 36 7d b3 bd
       0.0702953 0.06666526 -0.04971872 -0.087641165
000030 9e d9 5b 3c c2 8c de 3d 4c 6d 16 bd 5f cd 36 3d
       0.013418583 0.10866691 -0.036725327 0.04462945
000040 c1 d8 48 bc 33 fc a6 bd eb 37 9a 3d 25 23 9f 3d
       -0.012258709 -0.08153572 0.07530197 0.07770375
000050 48 37 f8 3c ca 79 18 bd 13 90 29 3c 8c 8a af bc
       0.030299798 -0.037225522 0.010349291 -0.021428369
000060 5a 09 11 3e 26 09 52 bd 3b f5 9e bc 98 c6 51 be
       0.14163724 -0.051278256 -0.019404044 -0.20485914
000070 26 8b be bc 91 32 a2 bd a6 81 b8 3c ae b0 02 bc
       -0.02325971 -0.07919801 0.022522759 -0.007976694
000080 69 bd cd 3d 7e 79 23 3d 50 7f ef 3b aa 17 0c bd
       0.10045893 0.039910786 0.007308878 -0.034202255
000090 39 cf 84 bd 2f 1c 62 be fc 44 0f bd d5 80 ef bd
       -0.06484837 -0.22081064 -0.034977898 -0.11694495
0000a0 de d1 c3 3d 84 60 82 3d 80 a8 03 3d 0b 43 b3 3c
       0.09561513 0.06366065 0.032143116 0.021882555
0000b0 bc ea 4e 3e 88 96 5a bc 14 80 b6 3b 62 76 41 bd
       0.20206732 -0.0133415535 0.0055694673 -0.04723204
0000c0 f9 69 64 bc 78 09 25 bd db 24 4f 3d b0 51 fe 3d
       -0.0139412815 -0.040292233 0.050572257 0.124179244
0000d0 f3 41 46 bd 7e ac b2 bd e5 2d ce 3c f1 90 b2 3d
       -0.048402738 -0.087243065 0.025168369 0.08719052
0000e0 0c 4d 51 3e ab 96 5c 3b e6 60 3b bd 88 81 f3 bc
       0.20439547 0.003365914 -0.045746706 -0.029724851
0000f0 b2 1d 72 bd ab f7 2d 3c 59 b8 a2 bc f3 ee 40 3b
       -0.05911035 0.010618131 -0.019863294 0.00294393
000100 32 ee 5b 3d 83 6b cd bc 73 5b 2e 3d 7e 09 9c 3d
       0.053693958 -0.02507568 0.04256768 0.07618998
000110 a6 42 c3 3c 1f 24 a2 3d 8f 23 a7 bd 8e 83 cd 3c
       0.023835491 0.07917046 -0.08161079 0.025087144
000120 5e b3 4c bc dd 78 84 bd 5a 85 6d bd 02 5a 6e bd
       -0.012493936 -0.06468365 -0.057988502 -0.058191307
000130 fe 40 e8 bd 52 84 29 3d 52 6a f0 3d 58 5e 3c 3d
       -0.11340521 0.041385956 0.11739029 0.04598841
000140 b8 16 0c be 60 24 61 bc 02 73 ae 3c 2e 12 1e be
       -0.13680542 -0.013741583 0.021295074 -0.15436623
000150 b6 c1 52 bc 0e 03 9a bd 12 fb 0b 3d 41 d1 cf 3d
       -0.012863567 -0.07520114 0.034174986 0.10147334
000160 2d 06 c3 3b a5 37 e6 3d fb bd 3b 3c 3f 09 9c 3d
       0.005951664 0.11241082 0.011458869 0.07618951
000170 18 33 58 3d 63 f4 dc 3b 12 6e 1c 3e 1d 69 de 3d
       0.0527831 0.0067430004 0.15276363 0.108598925
000180 31 57 a7 bd 05 54 af 3b 6e 01 0f 3e d8 c4 09 3e
       -0.08170927 0.005350592 0.13965389 0.13453996
000190 b2 cb 61 bc f3 9d e3 bc 70 c2 0b 3e bb 00 eb bb
       -0.013781475 -0.027785277 0.13648391 -0.007171718
0001a0 f9 9c a2 be a4 e6 a5 bc 0f 88 09 3d a3 4e 21 be
       -0.31760386 -0.02025158 0.03357702 -0.15752654
0001b0 78 7a 0f 3e 76 7b bb bd cc 7a e8 bd 28 b0 a8 3d
       0.14011562 -0.09154408 -0.11351547 0.08236724
0001c0 bf 7b 61 bd d8 57 2d 3e 78 4c 00 3d ce ca bc bd
       -0.055049654 0.16928041 0.031322926 -0.092183694
0001d0 14 3e 57 3d ff d6 50 3d 92 9f 22 3c d8 c5 ba 3d
       0.052549437 0.050986286 0.00992574 0.09119767
0001e0 84 5e 6c bd c9 29 92 bd ae 6a 90 3e 12 ba 86 3d
       -0.057707325 -0.07136876 0.2820639 0.06578459
0001f0 20 aa f2 bd bb 9e be 3d ec a3 45 3d b4 5b c3 3c
       -0.11848855 0.09307619 0.04825203 0.023847438
000200 0a 0b 69 3d 70 9c e7 3d 95 65 25 3e bf b0 e5 3d
       0.056895293 0.11309135 0.16152032 0.11215352
000210 5b 24 17 3b 6a c4 6b 3c d8 56 3c bd d4 93 50 be
       0.002306244 0.0143900905 -0.04598126 -0.20368892
000220 92 3c 1b 3e f8 78 5f 3e fc 8d e9 3d 4d da 54 be
       0.15159824 0.2182349 0.114040345 -0.207864
000230 da b9 ac bd 32 12 c9 3d 15 f4 13 be 4d de 6e 3c
       -0.08433886 0.098179236 -0.14448579 0.014579368
000240 9e 16 7b 3d ac 27 58 bd 21 af 00 be ab 21 ae bd
       0.061300866 -0.05277221 -0.12566806 -0.085025154
000250 61 09 d5 3c 00 5a 62 be f7 8f e2 3d 73 f2 72 3d
       0.026005449 -0.22104645 0.11062615 0.05931325
000260 b1 83 25 be 41 bd 60 3e d9 2f 3a 3b 3e 44 d3 3d
       -0.16163518 0.21947195 0.0028409867 0.103157505
000270 30 84 01 be 83 20 b8 3d ca b0 e5 bd f3 75 c3 bd
       -0.12648082 0.08990576 -0.112153605 -0.095439814
000280 be fd cd bc 2c d1 3d 3c 49 3a 17 bd 79 25 0b 3d
       -0.025145408 0.011585515 -0.03692082 0.033971284
000290 5e e2 3f be 0c b9 7d 3d 60 1e 67 3d 8a c3 07 3e
       -0.18738696 0.061944053 0.056425452 0.13258186
0002a0 64 7d 98 3a cb 97 fb bd 28 9d ab bd 92 af 4c 3d
       0.0011634049 -0.122848116 -0.083795846 0.049972124
0002b0 c9 9a 83 bd a9 e2 91 3d 6f 9a 8b bd 02 4b 69 3d
       -0.06426007 0.0712331 -0.06816565 0.0569563
0002c0 3f 61 f6 bd 44 31 8d bd bd ec 56 bd b7 c4 8f 3d
       -0.12030267 -0.06894162 -0.052471865 0.07019942
0002d0 63 f2 a8 bd 83 89 60 bd 49 f8 17 be ba bf de 3d
       -0.082493566 -0.05481864 -0.14840807 0.10876413
0002e0 fa 4d b0 bc ac 8b 20 be 99 88 8c bc 4b a6 d3 bd
       -0.021521557 -0.1567828 -0.017154979 -0.10334452
0002f0 5e aa 53 3e 94 66 04 3e e8 cb e5 3d fd 87 d1 3d
       0.20670459 0.12929755 0.11220533 0.10231016
000300 57 0b ef 3c f0 4c 5f 3d 3c 06 e8 3c d6 92 08 3b
       0.029180212 0.054516733 0.028323285 0.0020839474
000310 a8 95 05 3e b5 bb 23 3d d5 ad 51 3d 45 67 c2 bc
       0.1304537 0.039973933 0.05119117 -0.023730883
000320 e5 73 5b 3d 89 de 90 bd 59 e4 68 be 7d 03 01 bc
       0.053577323 -0.07073695 -0.22743358 -0.007874367
000330 f5 37 02 bc 0b ea b8 bb 63 6d 2e 3d a1 2f 95 3d
       -0.0079479115 -0.0056431345 0.042584788 0.07284475
000340 8a 12 5a bd 3d bb 50 3d 90 a4 6f 3c 2f 5f fc 3c
       -0.053240336 0.050959814 0.014626637 0.030807106
000350 47 f5 65 3b 19 22 7b 3d 6b 82 41 3d f7 72 da 3d
       0.0035088824 0.061311815 0.047243517 0.10666459
000360 c0 f6 cc 3c 64 95 b6 bb 7a 34 90 3d 62 5f b8 bd
       0.025020003 -0.005572008 0.07041259 -0.09002568
000370 ed bb bf 3d ec b5 b2 3d ff 8b 02 3e b9 2b b1 bc
       0.09362016 0.08726105 0.12748717 -0.021627294
000380 59 63 62 3e 0f 2e 5c 3d 25 22 4e bb dc e9 ac bd
       0.2210821 0.053754862 -0.0031453457 -0.08443043
000390 be 6f 43 3b 10 b2 d9 bd 80 98 18 3d 52 d8 3d be
       0.0029821242 -0.10629666 0.03725481 -0.18539551
0003a0 d4 23 f8 3b 7a 3b 8e be ac fb 84 3e 1c 68 8f bd
       0.0075726304 -0.27779752 0.2597326 -0.07002279
0003b0 09 9b 6c bd 51 fb 0a be 68 21 a1 3d 9d 60 9c 3d
       -0.05776504 -0.13572432 0.078677 0.07635615
0003c0 c1 9d d0 bc 6b 3d fa bc 58 4d 5a bd 3e 94 95 3d
       -0.025465848 -0.030546864 -0.053296417 0.073036656
0003d0 0e 88 8b bc c1 21 89 bd 39 56 fd bc 14 47 d5 bd
       -0.01703265 -0.06695891 -0.030924903 -0.10413948
0003e0 da f2 5b bd a3 28 1b bc 1a 45 92 3d 28 46 2d 3d
       -0.0536984 -0.009470138 0.07142086 0.042303234
0003f0 f4 43 1e 3d 87 32 16 3d 6a 1f ee 3d ac a0 9e bd
       0.038639024 0.03666928 0.116270855 -0.077454895

fc2.bias f4 [300]
000000 1f 99 a8 3c 0c c0 d2 3c d0 f0 b3 3c ab 3f 8e 3d
       0.020580826 0.02572634 0.021965414 0.069457375
000010 e2 16 13 bb 23 db 70 3a f3 d4 93 bd b5 57 86 3d
       -0.002244406 0.00091879274 -0.07218351 0.065596975
000020 a1 53 f0 3c 1a e3 83 3d fd 68 0f bd 0b d5 06 bd
       0.029336752 0.064398006 -0.035012234 -0.032918017
000030 93 6f 7f bd c6 96 ae 3c 17 ee 59 bd 47 33 89 bd
       -0.062362265 0.021312129 -0.053205576 -0.066992335
000040 b0 ae b0 bc f7 7d c7 bc c8 04 ac 3d c9 8b d8 bc
       -0.021567672 -0.024352057 0.083993495 -0.026433842
000050 2d 83 48 3d 80 32 5d 3d d9 4a 0e bd 0d 74 12 3d
       0.048953224 0.05400324 -0.03473935 0.035755206
000060 36 01 03 3d fd 16 41 bd c5 10 f6 3c 02 c7 63 bc
       0.031983577 -0.047141064 0.030037293 -0.013902428
000070 1d 87 68 3d a2 e3 8a 3d 49 5a da bc 2e 39 92 bc
       0.05676948 0.06781699 -0.02665438 -0.017849531
000080 5e 3d 8b 3d 78 e1 30 3c c8 49 5d bd 3d 96 30 bc
       0.06798814 0.010795943 -0.05402544 -0.010778007
000090 5b 37 7e bb 19 2d de bc 8b 3d 3d bb c2 2e ce 3c
       -0.0038790319 -0.027121114 -0.0028875794 0.02516878
0000a0 79 7a 66 3c ca d2 01 3d 28 c5 3e bc cf a0 93 3d
       0.014067286 0.031695165 -0.011643685 0.07208406
0000b0 7a 47 04 3d d6 79 0c 3d ea 63 41 bc 4f 14 19 bd
       0.032294728 0.03429588 -0.0118036065 -0.037372883
0000c0 dd ae 66 3c d6 7b 85 bb c9 97 78 bc 95 05 a9 bc
       0.014079777 -0.0040736003 -0.015172907 -0.020632545
0000d0 64 18 b3 bc 82 2c 43 3d 50 91 eb bb 17 04 7f bd
       -0.021862216 0.047649868 -0.0071889535 -0.06225976
0000e0 c7 97 92 bd 76 84 a6 bd 77 30 c5 bd 7a db 85 bd
       -0.071578555 -0.08130734 -0.096283846 -0.065360025
0000f0 a9 f4 da 3c 4f 01 14 3c 84 2c 8f bc 9d d1 82 3b
       0.026727991 0.009033515 -0.017477281 0.003992273
000100 27 b5 02 3d 79 a3 5e bb 35 b3 96 3c 96 63 f6 bc
       0.03191104 -0.003397195 0.018396 -0.030076783
000110 a6 78 f8 bc 30 4c 2f 3a 67 f7 8c 3d 4b 58 88 bd
       -0.030330967 0.0006687073 0.06883126 -0.066574655
000120 78 b8 f5 3c 1b 27 ff bc fb fd 08 3d 0b 30 74 bd
       0.029995188 -0.031146577 0.03344534 -0.05961613
000130 f6 ec 88 bd 06 0f ae bc 24 f4 0c bd 1d 55 74 bd
       -0.06685822 -0.021247398 -0.03441252 -0.059651483
000140 68 a3 9c bd c4 a4 90 bd 55 a0 5e bc 4f 0b 4f 3a
       -0.07648355 -0.070626765 -0.013588031 0.00078981085
000150 22 18 e7 3c bc d4 d0 3c f6 37 d3 bc 77 c9 da bb
       0.02820975 0.025492065 -0.02578352 -0.0066768485
000160 eb 1a 1b bd 5d a5 b7 3d fe 1e 96 ba aa 32 ac bc
       -0.037867468 0.089670874 -0.0011453328 -0.021020252
000170 a1 08 30 3d 3a 40 ce bc 2d 44 84 bc 41 4b 52 3d
       0.04297698 -0.02517711 -0.01614579 0.0513413
000180 5e 1b 1b bd 13 a0 95 bc 90 a7 ca bb 4f de 98 3d
       -0.037867896 -0.018264806 -0.006184526 0.07464277
000190 14 2a 39 3c 7d 8a f6 3c 51 4b 8b ba 56 c8 3d 3a
       0.011301536 0.030095333 -0.0010627304 0.000723963
0001a0 bf 2d 6f 3c 69 55 46 bd 6a d4 98 3c a7 0f 8b bd
       0.014598309 -0.048421297 0.018655974 -0.06790095
0001b0 76 68 38 3d 6a 22 02 3c f2 74 29 3d da 6e 2e 3d
       0.045021497 0.007942775 0.041371293 0.042586185
0001c0 b0 8d 52 3d b9 85 0f bd 69 a4 d2 bc 3b df bc 3c
       0.051404655 -0.035039637 -0.025713162 0.023055663
0001d0 94 5d 1e 3d 87 a8 e1 3c b9 c4 f5 3c 6f 7b 99 3c
       0.03866346 0.02754618 0.030001031 0.018735616
0001e0 05 12 e0 bc ef e6 a0 bd 6b b2 a4 3c 6e 01 39 3d
       -0.027352342 -0.07856547 0.020104608 0.04516738
0001f0 38 82 11 3d 96 77 62 3d f6 3f 80 3d ac fd 67 3c
       0.035524577 0.055289827 0.062621996 0.014159601
000200 99 d7 14 bd f3 59 ab 3c 4c 50 3d 3c 35 4a ff bc
       -0.036338422 0.020916915 0.011554789 -0.031163314
000210 b8 b4 26 bd e8 07 29 bd 62 8f 81 b9 22 85 d4 3c
       -0.04069969 -0.041267306 -0.00024711626 0.025942389
000220 c5 5b 66 3c b6 02 68 3d 44 b5 31 3d 04 af bb 3b
       0.0140599655 0.05664321 0.04338576 0.0057276506
000230 42 73 cd bd ef a3 4e bd 42 6b 98 bd f5 89 a8 bb
       -0.10031749 -0.050449308 -0.07442333 -0.005143399
000240 92 8b f4 bc 6b da e3 3c 31 8a a8 3c 1e 0a 71 3c
       -0.029851709 0.02781411 0.020573707 0.014711885
000250 6e d8 45 bd 80 27 0e 3d a2 42 50 3b 12 53 de 3c
       -0.048302107 0.03470564 0.0031777998 0.02713922
000260 86 fd fe ba 21 cb 11 bb 59 fb 83 bd 53 ee 7c 3c
       -0.0019454218 -0.0022246318 -0.06444425 0.01543768
000270 e9 b1 e6 bc b8 b8 12 3d 86 86 6c bd 53 4b 29 3b
       -0.028161006 0.035820693 -0.05774548 0.002583225
000280 6c 1f f5 3c 5f 6d 25 3c ce 0f 3c bd 1a 74 7a bb
       0.02992221 0.010096877 -0.04591351 -0.0038216175
000290 46 8e 3f 3d f1 dc 2f bc 42 0d b2 bc 78 ad 9b ba
       0.046766542 -0.010733829 -0.021734837 -0.0011877259
0002a0 d7 74 ba bc 5c 3b 2f 3d 73 da 42 3d e0 07 50 bd
       -0.022760792 0.04278122 0.04757161 -0.05078876
0002b0 69 ea cf bc 66 cd 0d 3c 6c 10 0e 3d 02 ce fe bc
       -0.02538033 0.008654928 0.03468363 -0.031104092
0002c0 7a 7f d8 bc 25 0e 89 bb 2c 3b b0 bc a2 9e 07 3b
       -0.026427973 -0.0041825944 -0.02151259 0.0020693918
0002d0 65 fb ac 3b 78 fc 10 bb 73 3d 89 3d db b9 64 bc
       0.005278992 -0.002212314 0.06701174 -0.013960327
0002e0 15 e3 1a bc aa e8 8d bc 40 8f 59 3d ad cf 97 3d
       -0.009453555 -0.017322857 0.05311513 0.07412658
0002f0 fd b0 8b 39 f5 1b 1b 39 60 b8 71 3c b1 86 05 3d
       0.00026644013 0.00014792367 0.014753431 0.032599155
000300 69 08 e6 3c 0e 22 27 3d 57 ea 08 3d 27 0d e5 bc
       0.028080182 0.04080396 0.03342661 -0.027960373
000310 7c 47 60 3c 23 92 15 bd fc f9 b5 bc 65 02 63 3d
       0.013688918 -0.03651632 -0.022213928 0.055422205
000320 81 0d aa bc a6 1e 79 bd e4 7a 32 bd 0f d8 9d 3c
       -0.020758392 -0.060820244 -0.04357423 0.019268064
000330 b6 bd b8 3b 63 78 92 bc 8a fc 79 3d da 09 04 bc
       0.0056378497 -0.01787967 0.061031856 -0.008058989
000340 f2 9b b4 bd 01 56 25 bc 00 0a 2a bd bb 25 c7 3c
       -0.08818807 -0.010091306 -0.041513443 0.024309983
000350 3a 71 a1 bc ea a6 32 3d 05 ce 6c bd 75 7e 71 3c
       -0.019707311 0.043616213 -0.057813663 0.014739622
000360 33 dd 02 bd 76 f9 17 bd 05 e7 91 3c 49 f0 02 3d
       -0.031949233 -0.03710314 0.017810354 0.031967435
000370 6f 5e d7 bc ac b1 40 bd 9e c1 f8 bc a2 bf 47 bd
       -0.026290147 -0.04704444 -0.030365761 -0.04876674
000380 3d 5d 1e 3d 77 d4 09 3d d4 ec eb bb 99 7c 09 3d
       0.038663138 0.033649888 -0.007199863 0.03356609
000390 19 e7 cf bc d2 cd 3d 3d 43 fb 98 3b 8e bc 27 bc
       -0.02537875 0.046338864 0.0046686246 -0.010237826
0003a0 39 2b 2e 3d 8e 9b 39 3d 3c d3 c4 3c 2f b8 ac bc
       0.04252169 0.045314364 0.024026506 -0.02108392
0003b0 98 31 de bc 78 f1 b5 bc 7d 6e f7 3c 0c 83 81 bd
       -0.027123258 -0.022209868 0.030204052 -0.06323823
0003c0 36 04 54 3d 5f 16 91 3d 9a 54 7e bc 54 83 71 bd
       0.05176183 0.07084345 -0.0155231 -0.058963135
0003d0 fa 34 fe 3c 75 59 81 bd 35 b4 f6 bc b7 6d fe 3b
       0.03103112 -0.06315891 -0.030115226 0.007764544
0003e0 73 0d 36 3b 11 e8 a1 bb 03 af 2f bd 1c c2 55 bc
       0.0027779012 -0.0049409945 -0.042891514 -0.013046768
0003f0 57 fb 40 3d 4e 5a 64 3c b8 7b 7e bd 6e 3a f6 bc
       0.047114696 0.013937546 -0.062129706 -0.030057158

fc3.weight f4 [4, 300]
000000 8e 4c 64 3d 6f 20 f7 3d d6 a8 30 3e 28 7d 55 bc
       0.05573707 0.12066733 0.17251906 -0.013030328
000010 e3 e6 39 be 87 ce 15 bd bb ec 18 be f3 e0 44 bd
       -0.18154483 -0.036573913 -0.14934056 -0.04806609
000020 b5 61 aa be fe 91 71 3d 09 9e a1 bd 41 50 84 3d
       -0.3327767 0.05897712 -0.07891471 0.0646062
000030 57 1e 62 be 6b ea 8e 3e 10 90 51 be 67 e2 4d be
       -0.22081886 0.27913222 -0.20465112 -0.20105897
000040 06 a2 16 bf 21 0f c3 bd fb d4 e9 3c 0a 25 7a 3e
       -0.5884098 -0.0952437 0.02854394 0.24428192
000050 ed e4 d6 3d 06 b9 49 3c d2 ab 0b be 6d 21 2e 3e
       0.10492883 0.012312179 -0.13639763 0.17004938
000060 a4 d0 c9 bd 49 4e 19 3f 56 1a f0 3d c7 a4 33 bc
       -0.09854248 0.5988508 0.11723773 -0.010964579
000070 d2 58 c6 3d 94 cb 31 3d 23 e5 e0 3d 82 a9 9f 3e
       0.0968491 0.043407038 0.10981204 0.31184012
000080 68 7c 5b 3f 13 94 22 be 19 65 20 3f 59 39 85 be
       0.85736704 -0.15876798 0.6265426 -0.26020315
000090 c8 38 90 be 79 99 b1 bd 62 94 ba be 9c bc 13 bf
       -0.2816832 -0.08671851 -0.36441332 -0.5770967
0000a0 b5 a0 9d bd 19 42 13 3e 92 56 d8 3e 34 a9 2e 3e
       -0.07696668 0.14380683 0.42253548 0.17056733
0000b0 e2 30 57 be 1d 5c c3 be 0c 64 a0 3e ae aa a0 be
       -0.21014741 -0.38156214 0.3132633 -0.31380218
0000c0 46 6f 08 3f 1e 39 08 be 71 be 78 3e 89 a5 18 3c
       0.5329479 -0.13303038 0.24291398 0.00931681
0000d0 49 68 5a 3e a3 de b6 bd 32 8d 18 bd e5 91 10 3c
       0.21328844 -0.08929183 -0.03724403 0.0088238465
0000e0 04 19 a7 3e fb 9c 8f be 3b b0 41 3e a6 d0 c1 3e
       0.32636273 -0.28049454 0.18914883 0.378545
0000f0 61 a6 d2 be 08 1f a5 be bc b2 60 3c c1 4b a1 bc
       -0.41142562 -0.32250237 0.013714489 -0.019689443
000100 c2 68 40 be fc d1 9e bd fc cf a1 bd 10 e6 c2 bd
       -0.18789962 -0.07754895 -0.07900998 -0.09516537
000110 88 e0 2a bd db 82 0b 3e ea ea b5 3d 67 a0 9c be
       -0.041718036 0.13624136 0.08882697 -0.30591127
000120 c0 60 39 3e d1 c5 16 3e ce 15 41 3e d7 e7 1b be
       0.18103313 0.14723898 0.18855974 -0.15225159
000130 8c 19 e1 3e 0e b2 67 3e 3b 95 a5 3e 88 12 ae 3e
       0.43964803 0.22626516 0.32340416 0.33998513
000140 3d ed 8f bd 1d 77 40 be 81 c2 46 bd 78 b4 e5 bd
       -0.070276715 -0.18795438 -0.048525337 -0.11216062
000150 6d 80 58 bd d9 02 44 3d 66 d9 a9 3e b5 60 6f 3d
       -0.05285685 0.04785428 0.33173674 0.058441836
000160 87 24 68 3d da ac 94 be e2 39 3c be b7 ee b6 3e
       0.05667546 -0.29038125 -0.18381456 0.35729
000170 44 c2 7e 3e b7 fa 58 3e 13 ca 6a 3e e8 d8 5f 3e
       0.24878794 0.2118939 0.22928648 0.21860087
000180 f5 ca 9a 3e ee 3f 13 be b8 3c 1a 3e 30 ab ed 3e
       0.3023297 -0.14379856 0.15062225 0.46419668
000190 41 10 bd be 5e 66 6c bd a8 8e ac 3e 0d a9 67 3d
       -0.36926463 -0.057714812 0.33702588 0.056557704
0001a0 4e ce d4 be 56 d2 18 3d 61 89 bb 3d 1e 05 47 bd
       -0.41563648 0.037309967 0.09157062 -0.048588865
0001b0 f1 4a d9 3d 18 81 0c bf a4 7f 8f 3e 49 f2 c5 3e
       0.10609997 -0.5488448 0.2802707 0.3866141
0001c0 43 66 58 be de 3f a5 be 68 c8 57 be ea 93 40 3e
       -0.2113276 -0.3227529 -0.21072543 0.18806425
0001d0 a3 6e 7d 3f 9b 5a b4 bd 3e 9c cd bd ab 9b e1 bc
       0.98996943 -0.08806344 -0.100395665 -0.027540049
0001e0 69 77 d8 bd 09 15 6a be b7 11 60 bd d3 f4 3a 3f
       -0.10569651 -0.22859587 -0.054704394 0.7302982
0001f0 6d 5f a3 be 4a 79 3c 3e 41 f3 f6 3c b0 2f 91 be
       -0.31908742 0.18405643 0.03014529 -0.28356695
000200 47 ec e9 bd 18 99 2e be c3 4e e0 3d 94 d8 53 be
       -0.114220195 -0.17050588 0.109525226 -0.20688087
000210 f2 9b 92 3e 91 d9 e5 be de f6 e6 be c1 eb 90 3d
       0.28634602 -0.44892552 -0.4511022 0.070762165
000220 93 36 ac 3e 24 66 ad be 1b 61 8b bd ce 87 eb 3c
       0.33635387 -0.3386699 -0.06805631 0.02875128
000230 32 9e 89 3e 69 32 d5 3e fc 0c 2c bd ab fa d1 bd
       0.26878506 0.41640022 -0.04200457 -0.10252889
000240 19 8e 8a be 4c 2f 60 bd 83 25 c0 3b 2d 32 79 3e
       -0.27061537 -0.054732606 0.0058638467 0.24335547
000250 3f 0c b1 bd 12 1e 53 3d a3 ef 99 be 8e 54 0a 3e
       -0.08644914 0.05154235 -0.3006564 0.13508818
000260 1c a8 6c 3d 32 13 ae 3c 80 96 62 3e 7b 17 85 3d
       0.05777751 0.021249387 0.22127724 0.06498619
000270 88 d6 26 be f4 d4 53 bd 4b d6 c0 be 88 9a bc be
       -0.16292775 -0.05171676 -0.37663493 -0.36836648
000280 3f 98 4e 3e fb 85 10 3e fc 27 80 bd 45 a6 fa 3e
       0.20175265 0.1411361 -0.062576264 0.4895498
000290 75 56 eb 3e 9d 4d 1a 3d 18 eb b2 be e4 bf 19 bf
       0.459644 0.037671674 -0.34944987 -0.60058427
0002a0 ca 47 f8 3d 3f 36 2c bc 12 81 43 3d 89 13 86 3e
       0.12123068 -0.01051098 0.047730513 0.2618678
0002b0 11 f9 e9 be 65 68 2a 3e a9 40 8c 3e 32 5e 12 3b
       -0.45697835 0.16641386 0.27393082 0.0022333977
0002c0 fe 55 f6 be 01 27 28 3e 5a 42 d5 3d 6c 18 88 bd
       -0.48112482 0.16421129 0.10413046 -0.06645283
0002d0 1e c7 25 bd b6 e8 60 3e 4e 30 f2 3d 2f c4 08 3f
       -0.040473096 0.21963772 0.1182562 0.5342435
0002e0 a3 53 c3 be 2f 2c 21 3e 1b 54 84 3e 6c 6e a7 3b
       -0.38149747 0.15739511 0.25845417 0.005109599
0002f0 e8 bb cb bd 24 de 3d 3e c5 e2 e1 3d 23 8e d2 be
       -0.0994795 0.18541771 0.11029581 -0.41124067
000300 40 d8 b5 3e b8 c4 ab 3e 2b 73 eb bc 0a ae e9 bd
       0.35516548 0.33548522 -0.02874144 -0.114101484
000310 88 51 97 3e 81 42 15 be 29 cc 2e be 89 78 9c bd
       0.2955439 -0.1457615 -0.17070068 -0.07640178
000320 60 bf 84 be da b6 27 3f 63 0e 59 3d a2 21 be be
       -0.25927258 0.65513384 0.052992236 -0.37135035
000330 37 4b f0 bd 38 72 31 3d 76 05 05 be 0f 44 71 bd
       -0.11733096 0.043321818 -0.12990364 -0.058902796
000340 bf b4 44 3e d1 d7 74 3e 66 24 9d 3e 33 ba 74 3e
       0.19209574 0.23910452 0.30691832 0.23899154
000350 dd c6 3e 3e 90 d2 85 bd d4 cc 2a be 0c 22 ad 3d
       0.18630548 -0.06534302 -0.16679698 0.084537596
000360 39 de d2 be cb 6c 4e be 42 bb 99 bd 90 27 5a be
       -0.41185167 -0.20158689 -0.0750642 -0.21304154
000370 c8 db 85 be b0 2e 3d be a1 eb 2e be f9 be 29 be
       -0.26144242 -0.18474841 -0.17082073 -0.16576757
000380 a9 4b 69 3d 6e 7d 7b 3e f3 86 ad 3d d7 c2 ca bd
       0.05695692 0.24559566 0.08473005 -0.09900444
000390 3b 0a 86 3e a7 2b 16 bf 24 4c 2c be 75 3d d8 be
       0.2617968 -0.5866036 -0.1682592 -0.42234388
0003a0 e1 9e 7a bc 3d a1 fd 3e 6a e9 14 3e 34 b0 cf 3d
       -0.015296669 0.49537078 0.14542165 0.1014103
0003b0 28 16 aa bd aa 90 82 be f2 22 e8 3e b5 c9 cf 3e
       -0.08305007 -0.25500995 0.4533916 0.40583578
0003c0 84 38 a7 bd 76 4a c7 3e 8f 34 f9 3d 17 34 c6 bd
       -0.081650764 0.38923997 0.12168228 -0.09677904
0003d0 32 ce 03 bd 03 a7 53 be 6a 24 a5 3e 1b 62 06 3c
       -0.032179065 -0.20669179 0.32254344 0.008202101
0003e0 1d 89 c3 bd f7 69 4e bd db 9f 44 be 6d f8 2d be
       -0.09547637 -0.050394025 -0.19201605 -0.16989298
0003f0 65 ee 3f 3e b8 6a 9f 3d ab 43 50 be 93 b5 e1 3e
       0.18743284 0.07784027 -0.20338313 0.44083843

fc3.bias f4 [4]
000000 c1 c1 86 bc c1 d6 10 bd 2a 02 ac 3d d7 2e 0f 3d
       -0.016449811 -0.035361055 0.0839885 0.03495678
