p2_continuous-control/critic_model.pth (torch_old, 542628 bytes, 5 tensors)

fcs1.weight f4 [400, 33]
0	0xbd9a3a76	-0.07530682
1	0x3de62860	0.1123817
2	0x3cb42c0a	0.021993656
3	0xbd1f2451	-0.038852993
4	0xbc966b73	-0.018361783
5	0xba5c615f	-0.00084068434
6	0x3d573215	0.052537996
7	0xbd75cf42	-0.06001211
8	0xbd22661b	-0.039648157
9	0xbd00c686	-0.031439327
10	0x3afbc13d	0.001920737
11	0x3cf5a2fd	0.029984945
12	0x3d5ea463	0.05435599
13	0x3d744bbd	0.059642542
14	0x3dc8d14c	0.09805545
15	0x3d4a2625	0.049352784
16	0x3d37e625	0.044897217
17	0x3dc1ffe6	0.09472637
18	0xbd440c2d	-0.047863174
19	0x3d66d88f	0.05635887
20	0xbc89d9c6	-0.016827475
21	0x3ce56b2e	0.028005209
22	0x3c9c8544	0.019106515
23	0x3d14075f	0.036139842
24	0x3d7514da	0.05983434
25	0xbd558fac	-0.05213897
26	0x3d1873b1	0.037219707
27	0x3c1cb27c	0.009564038
28	0x3d554335	0.052066047
29	0x3c9a7f76	0.018859606
30	0xbc914aaa	-0.017735798
31	0x3c7987e4	0.015230153
32	0x3e1a8467	0.1508957
33	0xbd3e8462	-0.04651297
34	0x3da6e474	0.08149043
35	0xbdd87344	-0.1056886
36	0xbda1ab96	-0.078940555
37	0x3cd38912	0.025822196
38	0x3c85b758	0.016322777
39	0x3b727d69	0.003700102
40	0xbc3f714e	-0.011684729
41	0xbc59e7f8	-0.013299935
42	0xbc641c60	-0.013922781
43	0x3c197e7c	0.009368535
44	0xbba7fada	-0.0051263394
45	0x3c5c3704	0.013440851
46	0xbba812e4	-0.005129205
47	0xbc6c45f0	-0.014420971
48	0x3e11166d	0.14168711
49	0x3bea0978	0.007142242
50	0x3d0743a2	0.033023484
51	0xbdca585c	-0.098801345
52	0x3cb8329c	0.02248507
53	0x3b66c3af	0.0035211851
54	0xbb8f834c	-0.0043796655
55	0x3ca774f5	0.020441512
56	0x3c941402	0.018075947
57	0xbc43b389	-0.01194466
58	0x3c3661d0	0.011131719
59	0xbc572fbc	-0.013133939
60	0x3cab2d72	0.020895693
61	0xbdd029e9	-0.10164244
62	0xbcb4bf50	-0.022063881
63	0xbd499f27	-0.049224045
64	0x3d40e6d5	0.04709514
65	0xbe57b0e5	-0.21063574
66	0x3cfe9320	0.031076014
67	0x3cbd7d02	0.023130897
68	0x3db5e74c	0.08882007
69	0x3bd96781	0.006634653
70	0x3c0ecb9d	0.008715537
71	0xbd8bb749	-0.06822068
72	0x3d8fa7fa	0.07014461
73	0xbc6e88ca	-0.01455898
74	0xbdd48b5d	-0.10378144
75	0xbcf9b23c	-0.030480497
76	0xbd9aab98	-0.0755226
77	0xbbc6aa76	-0.006062801
78	0xbba93e38	-0.0051648878
79	0x3d472112	0.048615523
80	0x3b97a827	0.0046281996
81	0x3be688a8	0.0070353337
82	0xbda1f510	-0.0790807
83	0x3dc45ed0	0.095883965
84	0xbd3528b2	-0.044228263
85	0x3cccc6ce	0.024997141
86	0xba650f3a	-0.00087379257
87	0xbd2d251a	-0.04227171
88	0x3c62239f	0.013802438
89	0x3c89d3e8	0.016824678
90	0x3d484c0f	0.04890066
91	0xbbb03c49	-0.0053782803
92	0xbd70cb2c	-0.05878751
93	0x3d82a11b	0.06378385
94	0xbcc08b42	-0.023503903
95	0x3c2334e8	0.009961344
96	0xbcb147ac	-0.021640621
97	0xbd146230	-0.03622645
98	0x3c972257	0.018448992
99	0xbca49ce2	-0.020094339
100	0x3d759ad9	0.059962127
101	0xbdab7709	-0.083723135
102	0xbd1be8c4	-0.03806378
103	0xbb2e1cdd	-0.0026567497
104	0x3ca38e4d	0.019965315
105	0xbb36a402	-0.0027868752
106	0x3d3c81cf	0.046022233
107	0x3d6227df	0.055213805
108	0x3d0e3fc0	0.034728765
109	0xbd443e39	-0.047910903
110	0xbd129619	-0.035787676
111	0xbc3a50ac	-0.011371773
112	0xbcd4ee1a	-0.025992442
113	0xbab36e89	-0.0013689558
114	0x3d1b72f6	0.037951432
115	0x3de38c96	0.11110799
116	0xbe2dcb5e	-0.1697211
117	0x3d18a6fb	0.03726862
118	0x3cd1425c	0.025544338
119	0xbc379bb2	-0.011206554
120	0x3d332cf1	0.04374403
121	0xbb702a11	-0.0036646167
122	0x3d7e12a7	0.062029507
123	0xbd43767d	-0.04772042
124	0x3d2defce	0.042465024
125	0xbbfb79c1	-0.0076744263
126	0x3daaea2a	0.083454445
127	0xbcc26d9b	-0.023733905
128	0xbc8a0234	-0.016846754
129	0xbc810f01	-0.015754225
130	0xbc406c98	-0.011744641
131	0x3d96faf5	0.07372085
132	0x3bdbd548	0.0067087747
133	0x3c3d3245	0.01154763
134	0x3d081123	0.033219468
135	0xbd71e980	-0.059060574
136	0x3b96ee38	0.0046060346
137	0xbcbb9ddc	-0.022902422
138	0x3dacb600	0.08433151
139	0x3dd6e70e	0.10493289
140	0xbd016065	-0.03158607
141	0x3c234a74	0.0099664815
142	0x3d8cf10a	0.06881912
143	0xbc9821db	-0.018570831
144	0xbca83fa8	-0.020538166
145	0x3d3cb5b7	0.046071734
146	0x3d882b17	0.06648844
147	0x3d52a1d5	0.051423866
148	0x3d798b39	0.06092379
149	0x3d3ec916	0.04657849
150	0xbbeff987	-0.007323447
151	0xbda2ad87	-0.07943254
152	0xbc7b83cc	-0.015351247
153	0xbd635a8d	-0.055506278
154	0x3ce710bd	0.028206224
155	0xba7120bc	-0.0009198298
156	0x3c2327bd	0.009958205
157	0xbcfe9b4a	-0.031079907
158	0xbcce907a	-0.025215376
159	0x3cdb8c18	0.0268002
160	0xbd142fd7	-0.036178436
161	0x3c0fadac	0.008769434
162	0xbd86c00c	-0.06579599
163	0xbc8c526c	-0.017129146
164	0x3bfed1dd	0.0077764825
165	0xbd4deac3	-0.050272714
166	0x3c6a5e22	0.01430467
167	0x3d991877	0.074753694
168	0xbd40f561	-0.04710901
169	0x3d346266	0.044039153
170	0x3d07817a	0.033082463
171	0x3c7352bd	0.014851269
172	0xbd7608c3	-0.06006695
173	0x3db87f68	0.09008676
174	0xbc285e67	-0.0102764135
175	0x3d88648e	0.06659804
176	0xbccb2494	-0.024797715
177	0x3c7d2489	0.015450605
178	0x3bb5339b	0.0055298335
179	0xbd8437dc	-0.06455967
180	0xbcdb21ba	-0.02674948
181	0x3ccef5cc	0.02526369
182	0x3d24bf36	0.040221415
183	0xbd1fba83	-0.03899623
184	0x3bd73a5f	0.0065682377
185	0xbd18b4a4	-0.037281647
186	0x3d981ecb	0.07427748
187	0xbc8684de	-0.016420778
188	0xbcfdc57d	-0.030977959
189	0x3ba103a9	0.0049137664
190	0xbd2f92dc	-0.042864665
191	0xbd232ba6	-0.03983655
192	0x3da0b28b	0.07846554
193	0x3addd269	0.0016923669
194	0x3d1d04fd	0.038334835
195	0xbd340195	-0.04394682
196	0x3d0c75fd	0.03429221
197	0x3d42ecb0	0.047589004
198	0x3d822773	0.063551806
199	0x3c24b101	0.010051967
200	0xb9e980db	-0.00044537228
201	0xbc958c5c	-0.018255405
202	0x3c522871	0.012827025
203	0x3c79a9f1	0.015238271
204	0x3c11526e	0.00886975
205	0x3b942328	0.0045207925
206	0x3c15bc50	0.0091391355
207	0x3d3e1717	0.04640874
208	0x3c9098e3	0.017651027
209	0x3c322d04	0.01087499
210	0x3d3c0c89	0.045910392
211	0x3d5e00e6	0.054200076
212	0x3e1b05c7	0.15138923
213	0xbd82ee7c	-0.063931435
214	0x3cd6fb0f	0.026242761
215	0xbc053c76	-0.008132091
216	0xbd14e6c6	-0.036352895
217	0x3d212295	0.03933962
218	0xb924ce8b	-0.00015717202
219	0xbb141d1d	-0.002260036
220	0x3ad44064	0.0016193506
221	0x3cb3a122	0.02192742
222	0x3d1dad49	0.038495336
223	0x3d70f2cd	0.058825303
224	0xbd69f577	-0.05711886
225	0x3d3add6f	0.04562133
226	0x3dbdb748	0.09263474
227	0x3c72d164	0.01482043
228	0x3ccdab51	0.025106104
229	0xbcdfcce7	-0.027319385
230	0xbd668ab2	-0.056284614
231	0xbd5af60f	-0.053457316
232	0x3d0efd65	0.034909625
233	0x3c202db1	0.009776519
234	0xbd3ded8d	-0.046369124
235	0xbd5bf6cf	-0.053702172
236	0xbcfa73a8	-0.030572727
237	0xbd353b9c	-0.0442463
238	0x3d505441	0.0508616
239	0xbd346e4a	-0.044050492
240	0xbd184533	-0.03717537
241	0x3ce650c7	0.02811469
242	0xbcdb8e5d	-0.026801283
243	0xbce738c3	-0.028225308
244	0x3d510354	0.051028565
245	0x3dd553b2	0.10416354
246	0xbcec395d	-0.028835947
247	0x3e02b29e	0.1276345
248	0x3cb3560d	0.021891618
249	0xbd0cea9e	-0.034403436
250	0x3d1b6edd	0.037947524
251	0x3bb39b21	0.0054811393
252	0xbc8e418d	-0.017365241
253	0xbd5e570c	-0.054282233
254	0x3d48ad5e	0.04899346
255	0x3c57208a	0.0131303165

fcs1.bias f4 [400]
0	0xbd82275b	-0.06355163
1	0xbdd6a049	-0.10479791
2	0x3df4173c	0.11918494
3	0xbd0cf093	-0.034409117
4	0xbe504c86	-0.20341691
5	0xbe45f5d8	-0.19332063
6	0xbe1698eb	-0.14706771
7	0xbe00a165	-0.12561567
8	0xbe06631d	-0.13123746
9	0xbe127145	-0.14301021
10	0x3db56e50	0.08858931
11	0xbd163816	-0.03667458
12	0x3e134676	0.14382347
13	0xbdae1f6d	-0.08502088
14	0xbe246c9c	-0.16057056
15	0xbda26653	-0.07929673
16	0xbdeb22e0	-0.11481261
17	0xbdbdafd8	-0.09262055
18	0xbe3b3814	-0.18283111
19	0xbcf04e4c	-0.02933421
20	0xbe14e607	-0.14540873
21	0xbddedcda	-0.10881968
22	0xbdb65be1	-0.08904243
23	0xbdf1bdc4	-0.11803773
24	0x3bdcae3a	0.0067346366
25	0xbe027796	-0.12740931
26	0xbde0278a	-0.109450415
27	0x3e3e895b	0.18607084
28	0x3dba8269	0.09106905
29	0xbb2fcd82	-0.0026825373
30	0x3d67391a	0.05645094
31	0x3e007563	0.1254478
32	0x3e0d9598	0.13826597
33	0xbe08268a	-0.13295951
34	0xbc65b313	-0.014019745
35	0xbd990b81	-0.07472897
36	0xbe1b5ebe	-0.1517286
37	0x3e1af792	0.15133503
38	0x3e184361	0.14869453
39	0x3be28920	0.006913319
40	0x3e1e1a7f	0.15439795
41	0x3cc3a3ab	0.023881754
42	0x3db2be45	0.08727697
43	0x3d9b392f	0.07579266
44	0x3d7022b1	0.058626834
45	0x3da7b636	0.08189051
46	0x3dbbc3de	0.09168218
47	0x3de90381	0.113776214
48	0x3d259232	0.040422626
49	0xbe0c0573	-0.13673954
50	0x3b81c9d7	0.0039608288
51	0x3e3cb7d2	0.18429497
52	0x3dc03aa9	0.093861885
53	0x3d8340ad	0.0640882
54	0xbd5c7214	-0.05381973
55	0x3df89e19	0.1213953
56	0x3b119fdd	0.002222053
57	0xbe0e533f	-0.13898943
58	0xbcacf735	-0.021113971
59	0x3e0acfab	0.13555782
60	0xbe369052	-0.17828491
61	0xbd3be2ad	-0.04587047
62	0x3dc5eb75	0.096640505
63	0xbd667f0e	-0.056273513
64	0xbddbfe13	-0.1074182
65	0xbd2fe5e6	-0.042943858
66	0x3c9f61a5	0.01945574
67	0xbdbb4d29	-0.091455765
68	0x3c6e5bad	0.014548224
69	0x3b6796fc	0.0035337796
70	0x3d01332a	0.031542934
71	0xbceffb42	-0.029294614
72	0x3cf6f78b	0.030147335
73	0xbdbd2125	-0.092348374
74	0x3dfbd3f0	0.12296283
75	0x3ddfc17d	0.10925577
76	0xbe106275	-0.14100058
77	0xbd68ba0a	-0.056818046
78	0x3dc445b9	0.09583611
79	0x3ccddea8	0.025130585
80	0xbd914a55	-0.07094256
81	0xbd0410d9	-0.03224263
82	0xbcd9ed56	-0.026602428
83	0xbdfb5243	-0.122715496
84	0x3c1dc282	0.009628894
85	0x3d84084d	0.06446896
86	0xbbbb4e2b	-0.0057161055
87	0x3d43827c	0.04773186
88	0x3dbff8f8	0.09373659
89	0xbd928ed4	-0.071561486
90	0xbe2a0182	-0.16602138
91	0xbd353b75	-0.044246156
92	0x3ca4ad00	0.020102024
93	0xbcb051ff	-0.021523474
94	0xbd8d47dc	-0.06898472
95	0xbe0c620c	-0.13709277
96	0xbd3c1763	-0.04592074
97	0x3df220a6	0.118226334
98	0xbb8a2e4b	-0.0042169443
99	0x3e07381d	0.13205
100	0xbd8c53ef	-0.068519466
101	0x3e36d58c	0.17854899
102	0xbe178948	-0.14798462
103	0x3dd80cea	0.10549338
104	0x3d242f0c	0.04008393
105	0x3e25f70e	0.16207525
106	0x3e292297	0.16517101
107	0xbd96c6ea	-0.073621586
108	0xbc6b2ce7	-0.014353967
109	0xbc69f06f	-0.014278515
110	0x3b9a59d8	0.0047104172
111	0xbda4f635	-0.08054773
112	0xbd8f51e8	-0.06998044
113	0xbe0ba6d7	-0.13637863
114	0x3dc0fc87	0.09423166
115	0x3df17a4b	0.11790904
116	0x3d02574e	0.03182154
117	0x3c5bed38	0.013423257
118	0xbe35d4bf	-0.17756937
119	0xbe09e3a2	-0.13465741
120	0xbdf2e019	-0.118591495
121	0xbe1fdb0f	-0.15610908
122	0xbe54d19f	-0.20783089
123	0x3c98f531	0.018671604
124	0xbe120097	-0.14258038
125	0x3d9504e1	0.07276321
126	0x3e205311	0.15656687
127	0xbcd521a1	-0.026017012
128	0xbb49b6c9	-0.0030779114
129	0x3d831e12	0.0640222
130	0xbe7c383c	-0.24630827
131	0x3ded18b0	0.115769744
132	0x3e2663d1	0.16249014
133	0x3dfa6a7b	0.12227341
134	0xbdb212cd	-0.08694992
135	0x3de5f2a8	0.11227924
136	0xbdb520ac	-0.08844122
137	0x3d053e9c	0.032530412
138	0x3e020648	0.12697709
139	0x3ad8ac12	0.0016530773
140	0x3db73596	0.089457676
141	0xbd3d604d	-0.046234418
142	0xbde1a312	-0.11017431
143	0x3dab5ab1	0.083669074
144	0xbe43d720	-0.19125032
145	0xbb9391b7	-0.0045034545
146	0xb95eb6e3	-0.000212397
147	0xbd1261ca	-0.03573779
148	0xbe2668ea	-0.16250959
149	0xbda73274	-0.0816392
150	0xbdb33b9c	-0.08751604
151	0x3d44a244	0.04800631
152	0x3c7a1048	0.015262671
153	0xbe58f10f	-0.21185707
154	0xbdd86013	-0.105652
155	0xbe257353	-0.16157274
156	0x3d9f5c05	0.07781223
157	0xbe39fe82	-0.18163493
158	0xbba39ba5	-0.0049929195
159	0xbdb6251d	-0.088937975
160	0xbda288de	-0.079362616
161	0x3dd55dc0	0.10418272
162	0x3bf690a2	0.007524566
163	0x3d1c0b33	0.038096618
164	0x3e046f12	0.12932995
165	0xbdb32b20	-0.0874846
166	0x3d8dc2c3	0.069219135
167	0x3e145dd8	0.14488924
168	0xbdf89116	-0.12137048
169	0xbd49f354	-0.04930432
170	0xbca60304	-0.02026511
171	0xbe3c0d67	-0.18364488
172	0xbd562ae9	-0.052287016
173	0xbd2065af	-0.039159473
174	0xbe2670b8	-0.16253936
175	0x3db63c4f	0.08898222
176	0xbe4246eb	-0.18972366
177	0xbd979561	-0.07401539
178	0x3d856056	0.06512515
179	0xbc664923	-0.014055523
180	0x3d1b8b9e	0.037974946
181	0x3d00e838	0.03147146
182	0xbe37f842	-0.17965797
183	0xbe0455bc	-0.1292333
184	0xbde72d9f	-0.112879984
185	0xbdd656d1	-0.10465778
186	0xbde03bba	-0.10948892
187	0xbdce4a79	-0.10072798
188	0x3e1fa36a	0.15589681
189	0x3e02881a	0.12747231
190	0x3ccc238f	0.0249193
191	0xbe40d8c6	-0.18832693
192	0xbe0709aa	-0.1318728
193	0x3e248f86	0.16070375
194	0xbc153cbe	-0.00910872
195	0x3d07afdc	0.033126697
196	0xbdd487db	-0.10377475
197	0xbdffdc8f	-0.1249324
198	0x3dc5061b	0.09620305
199	0xbb9db326	-0.004812616
200	0xbcbe213c	-0.023209207
201	0xbdf4f2d0	-0.11960375
202	0xbe0a66f6	-0.13515839
203	0xbdea47c7	-0.11439472
204	0xbe5b67f1	-0.21426369
205	0x3e4797a8	0.19491446
206	0x3ceafd9e	0.028685387
207	0x3c2d8687	0.010591156
208	0x3da42006	0.080139205
209	0x3de1d822	0.11027552
210	0xbd27c1d4	-0.040956333
211	0x3da0021b	0.078129016
212	0x3be5003d	0.006988554
213	0xbe21d7c0	-0.15804958
214	0x3e2a65c1	0.16640379
215	0xbe212953	-0.1573842
216	0xbe17adca	-0.14812389
217	0xbd8898bf	-0.06669759
218	0x3c79d880	0.0152493715
219	0x3de7c5fb	0.11317059
220	0xbe5237ee	-0.20529148
221	0xbe27bb8e	-0.1638014
222	0xbe0ef793	-0.1396163
223	0xbdfa1453	-0.12210908
224	0x3e18f1cf	0.14935993
225	0x3b430784	0.0029759118
226	0x3d535178	0.051591367
227	0x3c22cd20	0.009936601
228	0x3ddaf173	0.10690584
229	0xbdddafc1	-0.10824538
230	0x3d33ee09	0.04392818
231	0x3ce8a305	0.028398046
232	0x3ce6a874	0.028156497
233	0xbdbb364b	-0.09141215
234	0xbd533d25	-0.051571984
235	0x3e11e2b7	0.14246641
236	0xbd58b932	-0.05291099
237	0xbdf8d5d3	-0.12150159
238	0xbe0c8901	-0.13724138
239	0xbd616e0f	-0.0550366
240	0x3d9f6509	0.07782943
241	0xbdddce3b	-0.10830351
242	0x3de6b03d	0.112640835
243	0x3da1a493	0.07892718
244	0xbe078327	-0.13233624
245	0xbc2d22bc	-0.010567363
246	0x3e0206bd	0.12697883
247	0x3ddb0358	0.10693997
248	0xbd9cd602	-0.07658006
249	0xbde2dacc	-0.110768884
250	0x3d259ef0	0.040434778
251	0x3dbf8ed4	0.09353414
252	0xbcbbbb3b	-0.022916427
253	0xbe1477c4	-0.14498812
254	0x3dc00f2b	0.09377893
255	0x3bf7473b	0.007546333

fc2.weight f4 [300, 404]
0	0x3dc16e50	0.094448686
1	0xbdd8942e	-0.10575138
2	0xbc1ed5e1	-0.009694547
3	0x3d241dfa	0.04006765
4	0x3dbba93c	0.09163138
5	0x3d05f200	0.032701492
6	0xbe2487b2	-0.16067389
7	0x3da1a554	0.07892862
8	0x3ca6c541	0.02035773
9	0x3cf2f65e	0.029658493
10	0x3cb4a327	0.022050453
11	0xbcdea486	-0.02717806
12	0x3cd48281	0.025941135
13	0xbcbedb00	-0.023297787
14	0xbd5cb9af	-0.05388802
15	0x3c22e10f	0.009941353
16	0x3d79b764	0.06096591
17	0x3c7eb8de	0.015547005
18	0xbcd95e50	-0.02653423
19	0x3d6d6c30	0.057964504
20	0x3c31517e	0.010822652
21	0xbe827b3c	-0.25484645
22	0xbb5f9c5c	-0.0034120297
23	0xbc720cdc	-0.014773574
24	0x3d664fdc	0.056228504
25	0xbe712575	-0.23549445
26	0x3c96a9b2	0.018391464
27	0xbd55522f	-0.05208033
28	0xbd90f0fb	-0.070772134
29	0xbbd74666	-0.0065696714
30	0x3d4503ba	0.048099257
31	0xbc354eff	-0.011066197
32	0xbba6589a	-0.00507648
33	0x3dd46b4b	0.10372027
34	0x3c81769d	0.01580363
35	0xbbfe9a08	-0.007769827
36	0xbbcd2101	-0.006260038
37	0xbd4c1aa9	-0.049830113
38	0xbd392eab	-0.04521052
39	0xbc5b4e5e	-0.013385383
40	0x3d62d423	0.05537809
41	0xbe0818fe	-0.13290784
42	0xbcab0530	-0.020876497
43	0xbacd228f	-0.0015650558
44	0xbd3a936d	-0.045550752
45	0xbb90ddc4	-0.004420968
46	0x3c6fb474	0.014630426
47	0xbd5eea1c	-0.054422483
48	0xbbd020cb	-0.0063515655
49	0x3d714e88	0.058912784
50	0xbd847544	-0.06467679
51	0xbc53ef08	-0.012935407
52	0x3c4bd03d	0.012439785
53	0xbcaef258	-0.021355793
54	0x3b51b374	0.0031997832
55	0x3b2bf4f3	0.002623853
56	0x3d0d5c90	0.034512103
57	0x3cea317c	0.02858805
58	0xbde98459	-0.114021964
59	0xb9f91f94	-0.00047516508
60	0xbdfa0933	-0.12208786
61	0xbcb1c2d5	-0.021699348
62	0x3c59f3ba	0.013302738
63	0xbcbaf5b0	-0.022822231
64	0x3d00666d	0.03134768
65	0x3b90e505	0.0044218325
66	0xbe2bce76	-0.16777977
67	0x3cbf485c	0.023349933
68	0x3c29a0e4	0.010353301
69	0xbb343030	-0.0027494542
70	0xbd9c509f	-0.07632565
71	0xbdf8b1ba	-0.12143274
72	0xbcd33c81	-0.025785686
73	0x3cca189f	0.024669943
74	0x3c706599	0.01467266
75	0x3d4117cc	0.047141835
76	0xbbd82dd4	-0.00659726
77	0xbd7809e9	-0.060556326
78	0x3ced1c35	0.028944114
79	0xbd8afe8a	-0.06786831
80	0xbd0162e9	-0.03158847
81	0x3d9cce0a	0.07656486
82	0xbd6c8453	-0.05774338
83	0x3bf6c976	0.0075313402
84	0xbd8a6bd5	-0.067588486
85	0xbd7b7f47	-0.061400678
86	0x3daafa1f	0.08348488
87	0xbda9a9de	-0.08284353
88	0xbc12f118	-0.008968614
89	0xbd4d69bc	-0.050149664
90	0x3dead93a	0.11467214
91	0xbd58d58b	-0.052938025
92	0xbc2dde2d	-0.010612053
93	0x3c9196dc	0.01777213
94	0xbd90fbff	-0.070793144
95	0xbd66c9e4	-0.05634488
96	0xbdb6f988	-0.08934313
97	0xbe45fd75	-0.19334967
98	0xbda28c43	-0.07936909
99	0xbd4feca5	-0.05076279
100	0x3a482c73	0.0007636018
101	0x3be528c6	0.006993386
102	0xbdc27862	-0.094956174
103	0x3c9bd6a0	0.01902324
104	0x3dc73406	0.097267196
105	0xbccf66c4	-0.025317557
106	0x3c84ef93	0.01622752
107	0xbc1dab46	-0.009623354
108	0xbc9f9872	-0.019481871
109	0x3d5a2428	0.053257138
110	0x3d1ec683	0.038763534
111	0x3cd6794f	0.026180891
112	0x3aeddb3b	0.0018147001
113	0xbd21b8c0	-0.039482832
114	0xbd70b2d1	-0.058764283
115	0x3cddb3d4	0.027063288
116	0xbd92d654	-0.07169786
117	0xbe1b1726	-0.15145549
118	0xbd9206f3	-0.07130232
119	0x3c303596	0.010754963
120	0x3d607881	0.05480242
121	0xbe153c09	-0.14573683
122	0x3abc5aa9	0.001437028
123	0xbd4d82dc	-0.050173625
124	0xbde88244	-0.11352971
125	0x3dac8181	0.084231384
126	0xbce624fa	-0.028093804
127	0x3d7a3aae	0.061091118
128	0xbdd6cfba	-0.104888394
129	0xbe196b8e	-0.14982435
130	0x3d0203c0	0.031741858
131	0x3d6e31dd	0.058153022
132	0x3a2cee12	0.00065967545
133	0x3cfc4316	0.030793708
134	0x3d194227	0.037416603
135	0xbd228052	-0.039673157
136	0x3d2835a6	0.041066788
137	0x3c4b67bf	0.012414872
138	0xbd1b70f2	-0.03794951
139	0xbc934200	-0.017975807
140	0xbd3d5cf3	-0.04623122
141	0xbe082192	-0.13294056
142	0x3dd66143	0.1046777
143	0xbc9a3ae1	-0.018826904
144	0x3c8514c7	0.016245259
145	0x3cae4fdd	0.021278316
146	0x3d5014bd	0.050801028
147	0xbd1cb90d	-0.038262416
148	0x3e6bbc19	0.23020972
149	0xbc1341bc	-0.00898784
150	0xbcfde853	-0.03099457
151	0xbd307514	-0.043080404
152	0xbd306945	-0.043069143
153	0xbd81a154	-0.06329599
154	0x3da51351	0.08060325
155	0xbc8fed16	-0.017569106
156	0xbd5d5b45	-0.05404212
157	0xbd7a435c	-0.061099395
158	0xbcf76fa9	-0.03020461
159	0x3da02b9a	0.07820816
160	0x3d5cd455	0.053913433
161	0x3d6424bb	0.05569909
162	0xbd38f897	-0.04515895
163	0xbd87c1d3	-0.06628766
164	0xbd2d57be	-0.042320006
165	0x3d05ca78	0.032663792
166	0x3d54950c	0.051899955
167	0xbc05ba14	-0.00816204
168	0xbcd73096	-0.026268285
169	0x3d9adebb	0.07562014
170	0x3abf5e17	0.0014600185
171	0xbd71fe92	-0.059080668
172	0xbd2729ed	-0.040811468
173	0x3e0655eb	0.13118713
174	0xbdd52830	-0.10408056
175	0xbdd73e7d	-0.105099656
176	0x3d5d9835	0.054100234
177	0xbd3f77cd	-0.04674511
178	0xbd070f52	-0.032973595
179	0x3d8791a1	0.066195734
180	0xbd508115	-0.050904352
181	0x3d419b1b	0.04726706
182	0xbd92a0e2	-0.07159592
183	0xbd1218d7	-0.03566822
184	0x3d5d438d	0.0540195
185	0x3be617a7	0.0070218625
186	0xbdf45c00	-0.1193161
187	0x3d304cd3	0.043042015
188	0x3ae6ff54	0.0017623701
189	0x3d3f0609	0.046636615
190	0xbd30ebb9	-0.043193553
191	0x3ddcbf4a	0.10778673
192	0xbc003282	-0.007824542
193	0xbcd669f5	-0.026173571
194	0x3da41c42	0.08013202
195	0xbdc71a74	-0.097218424
196	0xbd15cc2b	-0.036571663
197	0x3ce4fef6	0.027953606
198	0xbcb2edfe	-0.021842
199	0xbc9169ed	-0.017750705
200	0x3d93e0e1	0.072206266
201	0x3cb5c262	0.022187416
202	0x3b61fb33	0.0034482002
203	0x3d6f1f7f	0.058379646
204	0x3d110eaa	0.035414375
205	0xbd1a5f5f	-0.03768861
206	0xbd5e454b	-0.0542653
207	0x3d46c071	0.04852337
208	0xbd6bfff1	-0.05761713
209	0x3d926572	0.071482554
210	0x3d17c621	0.037054185
211	0xbcb9323f	-0.022606967
212	0xbd1529ae	-0.036416702
213	0xbdce1ecf	-0.1006447
214	0x3c40d4d8	0.011769496
215	0x3d646242	0.05575777
216	0x3c28e0f3	0.010307538
217	0x3c831d97	0.01600532
218	0xbd879c85	-0.066216506
219	0xbdb1d26f	-0.08682715
220	0x3d1d55a8	0.038411766
221	0xbdb054b6	-0.08609907
222	0xbdbba40c	-0.09162149
223	0x3e3e6e33	0.18596725
224	0x3d45fb8f	0.048335608
225	0x3b859e47	0.004077706
226	0x3d6cec5f	0.05784261
227	0xbd3a25cd	-0.045446206
228	0x3c84cc90	0.016210824
229	0xbd94902f	-0.07254063
230	0xbd790c80	-0.060802937
231	0xbce58ac2	-0.028020266
232	0xbdbb9ff0	-0.09161365
233	0xbe714489	-0.235613
234	0x3b01390f	0.0019717847
235	0xbc231d7f	-0.009955763
236	0x3cbfb88c	0.023403428
237	0xbe1601c9	-0.14649118
238	0x3bcf1d78	0.0063206516
239	0xbc91753f	-0.017756103
240	0xbcd35317	-0.025796456
241	0xbc293f11	-0.010329978
242	0x3d166413	0.036716532
243	0xbdba3a3d	-0.09093139
244	0xbdbf6c2a	-0.093468025
245	0x3cd69fbd	0.026199216
246	0xbd0ea83e	-0.034828417
247	0x3d711fac	0.058868095
248	0xbe14905d	-0.14508195
249	0xbb180484	-0.002319605
250	0x3d74cfaf	0.059768375
251	0xbcbe351c	-0.023218684
252	0xbde846ed	-0.11341653
253	0xbe163bbc	-0.14671224
254	0x3db80d82	0.089869514
255	0xbd45f33d	-0.048327673

fc2.bias f4 [300]
0	0xbd110257	-0.035402622
1	0x3dad87a0	0.08473134
2	0xbd6aa390	-0.05728489
3	0xbc1e1658	-0.009648882
4	0xbbceff5d	-0.006317063
5	0x3c1999bd	0.009375033
6	0x3d6257cf	0.055259522
7	0xbd938850	-0.07203734
8	0x3c536b02	0.012903931
9	0xbd5b5f60	-0.053557754
10	0x3ce7505e	0.028236564
11	0x3df9b530	0.12192762
12	0xbd2d3c4f	-0.042293843
13	0x3d4e1844	0.05031611
14	0x3b227b74	0.0024792822
15	0x3d2aa5b6	0.04166194
16	0xbc8f58f7	-0.017498476
17	0xbd0d8c14	-0.034557417
18	0xbd431651	-0.047628704
19	0xbc9c7d2a	-0.019102652
20	0x3cb88edf	0.022529064
21	0xbbdcb9b4	-0.0067360047
22	0xbcfb7608	-0.03069593
23	0xbd5e9414	-0.054340437
24	0xbd3a5c85	-0.04549839
25	0xbd256112	-0.040375777
26	0xbd49c12e	-0.049256496
27	0xbc8ccde9	-0.01718803
28	0x3d6e4304	0.05816938
29	0xbc1b5f83	-0.009483221
30	0xbca6a393	-0.02034167
31	0xb9d6a4b8	-0.00040939986
32	0xba9c6188	-0.0011930922
33	0x3d467d67	0.048459437
34	0xbc886546	-0.016649853
35	0x3d3d324e	0.046190552
36	0x3dc9ff18	0.098631084
37	0xbc845f00	-0.01615858
38	0xbc898d9d	-0.01679116
39	0x3d15d723	0.036582123
40	0xbd875c62	-0.066094175
41	0xbd236c02	-0.039897926
42	0xbc4ba5c7	-0.012429661
43	0x3c9b438b	0.018953105
44	0xbd813bab	-0.06310209
45	0xbce227f0	-0.027606934
46	0xbd9120ce	-0.07086335
47	0x3dc6930d	0.096960165
48	0x3ca7994c	0.02045884
49	0xbda30349	-0.07959611
50	0x3d5d7ae2	0.05407227
51	0xbd09844a	-0.033573426
52	0x3d8aae09	0.06771476
53	0xbba4f06d	-0.005033544
54	0xbc8c343e	-0.017114755
55	0x3da8399d	0.08214114
56	0x3a14569f	0.00056586595
57	0xba70d366	-0.0009186774
58	0xbd423f89	-0.047423873
59	0x3dca55b9	0.098796315
60	0x3b82b660	0.003989026
61	0x3c7ed84f	0.015554502
62	0xbca11277	-0.019662125
63	0x3d54f935	0.051995475
64	0x3cf32c7d	0.0296843
65	0x3dd70d34	0.10500565
66	0x3c060a5f	0.008181184
67	0xbc2bf2a9	-0.010494866
68	0x3cc88f0d	0.024482274
69	0xbbeaf945	-0.0071708285
70	0x3c87d4a3	0.016580885
71	0xbcfb3666	-0.030665588
72	0x3ccf64d4	0.025316633
73	0x3cc286cc	0.023745917
74	0xbd83f8dc	-0.064439505
75	0xbd2ec313	-0.042666506
76	0xbc7e164f	-0.0155082485
77	0xbd4ab2df	-0.04948699
78	0xbcb96bbb	-0.022634378
79	0x3db8f40a	0.09030922
80	0x3db8c544	0.090220004
81	0x3cbe1fed	0.023208583
82	0x3c05e742	0.008172812
83	0x3da886c2	0.08228828
84	0xbd379780	-0.044822216
85	0xbc8b79ac	-0.017025791
86	0xbd7cd97a	-0.06173084
87	0x3d0a9950	0.033837616
88	0x3dd51249	0.10403878
89	0x3c99d861	0.018779935
90	0xbc4dbf84	-0.012557868
91	0xbc550331	-0.013001249
92	0xbb568c4f	-0.003273744
93	0x3bc1b959	0.0059119877
94	0x3d1bd294	0.03804262
95	0xbc6c0d07	-0.014407403
96	0x3dcf22fb	0.10114094
97	0x3d1e21a1	0.03860629
98	0xbd84bae5	-0.0648096
99	0xbc5628e1	-0.01307127
100	0xbcc43632	-0.023951624
101	0xbb7e71fb	-0.0038825262
102	0x3ced02e0	0.028932035
103	0x3dca6ecb	0.09884413
104	0x3d004c1b	0.03132258
105	0xbd4f9498	-0.05067882
106	0x3d882636	0.06647913
107	0x3c286070	0.010276899
108	0xbccd1818	-0.025035903
109	0x3d62042f	0.05517977
110	0x3dd61b5f	0.10454439
111	0xbbc6002c	-0.006042501
112	0xbc4d64bd	-0.012536225
113	0x3d1f14c7	0.038838174
114	0x3ba71249	0.0050986153
115	0xbcadd0b6	-0.021217685
116	0xbd4ae875	-0.049538095
117	0x3d82a153	0.063784264
118	0x3cb34f2c	0.021888338
119	0x3d69f3e5	0.05711736
120	0xbd1a0d5c	-0.037610397
121	0xbc88cb93	-0.016698634
122	0x3dcb8687	0.099377684
123	0x3cca94eb	0.024729213
124	0x3cc46ecb	0.023978611
125	0x3d81f121	0.0634482
126	0xbd522d23	-0.051312577
127	0xbc6a2653	-0.014291364
128	0x3db4dc87	0.08831125
129	0xbd21b1c9	-0.03947619
130	0xbd4f6e73	-0.050642442
131	0xbc07dbda	-0.008292163
132	0xbbdeb7cf	-0.006796814
133	0x3ce049b4	0.027378894
134	0x3ca5e68a	0.020251531
135	0xbce265ab	-0.02763637
136	0xbda9cc00	-0.08290863
137	0xbd498a6f	-0.049204286
138	0x3c4b0417	0.012391112
139	0x3d831950	0.06401312
140	0x3d336926	0.04380145
141	0x3cdd5f8c	0.0270231
142	0xbd89c79c	-0.067275256
143	0x3d6c59c9	0.057702813
144	0x3da26944	0.07930234
145	0x3c9ea54b	0.019365927
146	0xbbb8991e	-0.0056334874
147	0xbcaebea3	-0.021331137
148	0x3c07c468	0.008286573
149	0x3ce0de73	0.027449822
150	0xbd1eb8c7	-0.038750436
151	0xbc0d6a4a	-0.008631298
152	0xbc314d99	-0.010821723
153	0xbd27cd47	-0.040967252
154	0x3d26ed03	0.040753376
155	0xbc6744f5	-0.014115562
156	0x3c62368b	0.013806949
157	0x3d3d6be9	0.04624549
158	0x3c87bf86	0.016570818
159	0x3d7e0759	0.062018726
160	0x3c887a39	0.016659843
161	0xbc07d800	-0.0082912445
162	0x3d153fda	0.036437847
163	0xbbe3e717	-0.0069550383
164	0xbd1a6546	-0.037694238
165	0xbc830a71	-0.01599619
166	0xbd1ce39d	-0.038303006
167	0x3d7a43b5	0.061099727
168	0xbc5a3ba4	-0.0133198835
169	0xbcfb8810	-0.030704528
170	0xbb0ded76	-0.002165643
171	0x3cff1004	0.031135567
172	0x3cd5f3dc	0.026117258
173	0xbd417772	-0.047233053
174	0xbd65169e	-0.055929773
175	0x3cd4401c	0.025909476
176	0xba0d574f	-0.0005391733
177	0x3da10fb2	0.07864322
178	0x3dbee9b0	0.09321916
179	0xbca99c16	-0.02070431
180	0xbda7452b	-0.081674896
181	0xbd072af2	-0.03299994
182	0xbd0cf4fa	-0.034413315
183	0xbbcc6b54	-0.0062383804
184	0xbd9dc1f5	-0.0770301
185	0x3cd17ec4	0.025573142
186	0x3d65b3df	0.05607974
187	0xbd1d50eb	-0.038407248
188	0xbc583ca8	-0.013198055
189	0xb9c96e4e	-0.0003841989
190	0x3c04286d	0.008066279
191	0xbce26e10	-0.027640373
192	0x3d46f1f5	0.048570592
193	0xbcc6f367	-0.024285985
194	0xbc5c1e14	-0.013434906
195	0x3d8375b2	0.06418933
196	0x3d304215	0.04303177
197	0xbc3afadb	-0.011412348
198	0xbd8c1d9e	-0.068415865
199	0x3d0389c3	0.0321138
200	0x3cfd66f2	0.030932877
201	0x3c966c6d	0.018362248
202	0xbbb45e53	-0.0055044084
203	0xbc1a4b35	-0.009417345
204	0x3d75cea4	0.06001152
205	0xbcfb3b0c	-0.030667804
206	0x3dec5828	0.11540252
207	0xbb3a572b	-0.0028433304
208	0x3d4b5990	0.04964596
209	0x3d070e2d	0.032972503
210	0xbd24c748	-0.040229112
211	0x3d94a47f	0.07257938
212	0x3d0ea239	0.034822676
213	0x3d0fd5f4	0.03511615
214	0xbc00859e	-0.007844357
215	0xbd56be49	-0.052427564
216	0x3d59a149	0.05313233
217	0x3d098971	0.03357834
218	0xbcc3077c	-0.02380728
219	0x3dcb2f29	0.099211045
220	0xbc591bd4	-0.013251264
221	0xbd87f36f	-0.06638228
222	0xbcc7ac64	-0.024374194
223	0xbd6a12b8	-0.057146758
224	0x3d9cf192	0.076632634
225	0x3d656333	0.056002807
226	0x3d0e188b	0.034691375
227	0xbd1f490a	-0.038888015
228	0xbcb23ebb	-0.021758428
229	0x3d8d553d	0.069010235
230	0xba0169d9	-0.0004936732
231	0x3cc8a370	0.024491996
232	0x3dd73546	0.10508208
233	0x3d062db5	0.032758433
234	0x3d5e1a90	0.05422455
235	0xbcf35e65	-0.029708097
236	0x3d11b842	0.035576113
237	0xbc13ae10	-0.009013668
238	0xbca63c5c	-0.020292453
239	0x3b8fb1cb	0.0043852082
240	0xbd8eaf03	-0.069669746
241	0x3d2c6eef	0.042097982
242	0x3d96374e	0.07334767
243	0x3c4f3861	0.012647719
244	0xbdb9b865	-0.090683736
245	0x3cf81e39	0.030287849
246	0x3b5152f5	0.0031940315
247	0x3d04c6b5	0.032416064
248	0xbc16ed7d	-0.009211895
249	0x3db05f21	0.086118944
250	0xbcd8939e	-0.026437577
251	0xbca64060	-0.020294368
252	0x3d645baf	0.0557515
253	0x3d737313	0.059435915
254	0xbd16f083	-0.036850464
255	0x3c8436ad	0.016139353

fc3.weight f4 [1, 300]
0	0xbd999dce	-0.07500802
1	0x3d70416d	0.058656145
2	0xbe143454	-0.14473087
3	0x3b9bd4f2	0.0047556097
4	0xbe044528	-0.12917006
5	0xbe0cdc4c	-0.13755912
6	0x3d9b2084	0.07574561
7	0xbde87776	-0.1135091
8	0xbdbdd9b2	-0.09270038
9	0xbe284c84	-0.16435438
10	0xbdd63fc1	-0.10461379
11	0x3d8b6b69	0.06807596
12	0xbdba9cc6	-0.091119334
13	0x3d12384f	0.03569823
14	0x3d3d72d4	0.046252087
15	0x3d7208e3	0.059090506
16	0xbe01dddf	-0.12682293
17	0x3d58273d	0.052771796
18	0xbe1ce309	-0.15320982
19	0xbe2d10e5	-0.16900976
20	0xbde50cb3	-0.11184063
21	0x3db9ed63	0.09078481
22	0xbe2ca531	-0.1685989
23	0xbe1ecbf8	-0.15507495
24	0xbd82efb3	-0.06393375
25	0xbe38fffc	-0.180664
26	0xbdfd4438	-0.12366527
27	0xbdcca55a	-0.09992476
28	0x3c2d02c7	0.010559744
29	0xbd98957f	-0.07450389
30	0xbd4435b3	-0.047902774
31	0x3d102a37	0.03519651
32	0x3cda8563	0.026674932
33	0x3d138c0d	0.036022235
34	0xbe1848bf	-0.148715
35	0x3d2a0c88	0.041515857
36	0x3d38d72b	0.045127075
37	0x3cc99160	0.024605453
38	0x3da4dbda	0.08049746
39	0x3cc06d88	0.023489729
40	0xbe04f6d8	-0.12984788
41	0x3d1cbfc8	0.038268834
42	0xbe3f1bd8	-0.18662965
43	0x3d84a57f	0.064768784
44	0xbd9e5a93	-0.077321194
45	0xbde738ad	-0.11290107
46	0xbdd69b7a	-0.104788736
47	0x3d1c6387	0.038180854
48	0xbd92ea1c	-0.07173559
49	0xbdb8ed68	-0.09029657
50	0x3cd96433	0.026537037
51	0xbd4c6186	-0.049897693
52	0x3c9aa035	0.01887522
53	0xbd8849c9	-0.066546984
54	0x3da232d4	0.07919851
55	0x3cfc49ec	0.030796967
56	0xbe07c33b	-0.13258068
57	0x3c461292	0.012089388
58	0x3d8b363e	0.06797455
59	0x3d02984b	0.03188352
60	0xbe60a923	-0.2193952
61	0xbd88cd3c	-0.0667977
62	0x3dbe32cf	0.09287035
63	0x3da16065	0.07879714
64	0x3d1f44aa	0.038883843
65	0x3d1820ed	0.037140775
66	0xbe337728	-0.17525923
67	0x3cbcfc7c	0.023069613
68	0x3cec1701	0.028819563
69	0xbe1e3ac3	-0.15452103
70	0x3cf5ec5a	0.030019928
71	0xbd914413	-0.07093062
72	0x3ca696ec	0.020335637
73	0xbdf55e3d	-0.11980865
74	0xbd7f7ce4	-0.062374964
75	0xbd88f363	-0.06687047
76	0xbe20144d	-0.15632744
77	0xbdcf3672	-0.101178065
78	0xbe0c895b	-0.13724272
79	0x3d0fc85e	0.035103194
80	0x3d31aadf	0.043375846
81	0xbd55dcee	-0.052212648
82	0xbe26d2bc	-0.16291326
83	0x3ca8ef64	0.020621963
84	0xbd94b1ce	-0.07260476
85	0x3d1815f2	0.037130304
86	0xbe012c1e	-0.12614486
87	0xbda8d3b5	-0.08243505
88	0x3cf577ec	0.02996441
89	0x3e1c73e7	0.15278588
90	0xbe7953ae	-0.24348328
91	0xbe3230ab	-0.17401378
92	0xbe15948a	-0.14607444
93	0x3cf46a20	0.02983576
94	0x3d8e1c4d	0.06938992
95	0x3d48cee5	0.049025435
96	0x3ce27050	0.027641445
97	0x3df46a3a	0.119343236
98	0xbded35ab	-0.11582502
99	0xbe0b9fa9	-0.13635124
100	0xbdf3a6e1	-0.11897064
101	0x3d6a1f01	0.057158474
102	0x3de9fad5	0.114247955
103	0x3d5eb8fd	0.054375637
104	0x3d869696	0.06571691
105	0xbdd2d32b	-0.10294183
106	0x3cea7dd8	0.02862446
107	0x3da49790	0.08036721
108	0xbdf98ac4	-0.121846706
109	0x3d1d4449	0.0383952
110	0x3d5fba27	0.054620888
111	0xbdf06e61	-0.11739803
112	0x3cd249a6	0.025669884
113	0x3d3f1500	0.046650887
114	0xbde74910	-0.112932324
115	0xbe1d8bf4	-0.15385419
116	0xbe17ae79	-0.1481265
117	0x3cad60c4	0.021164306
118	0xbda0c7df	-0.078506224
119	0x3d0509df	0.032480117
120	0xbd36c125	-0.04461779
121	0xbdbeb5ba	-0.09312005
122	0x3d2c94e9	0.0421342
123	0xbdda2b69	-0.10652811
124	0x3d7f7918	0.062371343
125	0x3da7b2d6	0.08188407
126	0xbdd05a4a	-0.10173471
127	0xbd9c3b8d	-0.07628546
128	0x3d1f8b63	0.03895129
129	0xbe2bee6d	-0.16790171
130	0xbd3b4c71	-0.045727197
131	0xbe1b2e48	-0.15154374
132	0xbdee941c	-0.11649343
133	0x3d77fdbd	0.060544718
134	0x3cb7e23f	0.02244675
135	0xbd55d6ee	-0.052206926
136	0xbd45b6f9	-0.0482702
137	0xbd80ee5f	-0.06295466
138	0x3d12d15f	0.035844203
139	0x3cab0666	0.020877074
140	0x3d31713e	0.043320887
141	0xbd7b7a3e	-0.061395876
142	0xbd9ade34	-0.07561913
143	0x3c844434	0.016145803
144	0x3cef9fce	0.029251006
145	0x3d1566a4	0.03647484
146	0x3e3cd3f1	0.18440224
147	0xbdc766b3	-0.09736385
148	0x3ce55b1f	0.027997551
149	0x3cca9055	0.024727026
150	0x3db62e1e	0.08895515
151	0xbe0c61d1	-0.13709189
152	0xbd9919e2	-0.0747564
153	0xbdc1ccf1	-0.094629176
154	0x3d5908bc	0.052986845
155	0x3d493b4d	0.04912882
156	0x3dbceb23	0.09224536
157	0x3d3c4f92	0.04597432
158	0x3d26584b	0.040611546
159	0x3d7bd0a0	0.061478257
160	0x3cb25f35	0.021773914
161	0x3e05379f	0.13009499
162	0x3cb29612	0.021800075
163	0x3cdbdb43	0.02683795
164	0xbe24e516	-0.16103014
165	0xbe93be59	-0.2885616
166	0xbe2dc091	-0.1696799
167	0x3cd080fa	0.025452126
168	0x3c283ecf	0.010268881
169	0xbe66afc6	-0.2252799
170	0xbde61892	-0.11235155
171	0x3d550d56	0.05201467
172	0xbdf62968	-0.12019616
173	0x3d1932c6	0.037401937
174	0xbe0231fd	-0.12714382
175	0x3c3bb196	0.011455914
176	0x3d5582c4	0.05212666
177	0x3ceef541	0.02916968
178	0x3d1c6fd0	0.03819257
179	0xbdee5965	-0.116381444
180	0x3d20c6eb	0.039252203
181	0xbe66198b	-0.22470681
182	0xbd5d29fe	-0.053995125
183	0x3dcacc58	0.09902257
184	0xbdc1c381	-0.094611175
185	0xbe13d746	-0.14437589
186	0x3e2e4ee9	0.1702229
187	0xbe537c26	-0.20652828
188	0xbe1c7e2c	-0.15282506
189	0xbe22599f	-0.158545
190	0xbda6aa82	-0.081379905
191	0xbd74f53c	-0.059804186
192	0x3e0e3916	0.13888964
193	0xbe04c355	-0.12965138
194	0xbdb3c8e5	-0.08778552
195	0x3c9a0afa	0.018804062
196	0x3d361844	0.044456735
197	0xbe7b2b27	-0.2452818
198	0xbe483dd2	-0.19554833
199	0x3c9b162b	0.018931469
200	0x3db1efad	0.08688293
201	0x3cc0c94b	0.023533484
202	0xbe5a63ca	-0.21327129
203	0xbdcac21c	-0.09900305
204	0x3dde6e39	0.10860867
205	0x3d7b2f3e	0.06132435
206	0x3dd10623	0.102062486
207	0xbdc60ffa	-0.09671016
208	0x3d14e551	0.036351506
209	0x3d004c4f	0.031322774
210	0x3dbcb577	0.09214299
211	0x3d15220e	0.03640943
212	0x3e3409d1	0.1758187
213	0x3d2ccdae	0.04218834
214	0x3d9f31bb	0.07773157
215	0x3d83dfb8	0.06439155
216	0x3d5b214e	0.05349856
217	0x3d112546	0.035435937
218	0xbe0e1fb2	-0.13879278
219	0x3d3f7fe2	0.046752818
220	0x3d1f1196	0.03883513
221	0xbe07d589	-0.13265051
222	0xbdb5574a	-0.0885454
223	0xbdd39ccf	-0.10332643
224	0x3d8b3e9f	0.067990534
225	0x3d248396	0.040164553
226	0x3d47fff5	0.048828084
227	0xbe4dcaad	-0.20096846
228	0x3d83d5ee	0.06437288
229	0x3d95b2a2	0.07309462
230	0xbdb8f10e	-0.090303525
231	0xbdfb8866	-0.12281875
232	0x3d557372	0.05211205
233	0x3d7523ab	0.05984847
234	0x3d3dc0de	0.04632651
235	0xbde29abd	-0.1106467
236	0x3d22950c	0.039692923
237	0xbdf066e5	-0.117383756
238	0xbddb7803	-0.1071625
239	0x3d93c8dc	0.07216045
240	0xbd7c6e9d	-0.061628927
241	0x3d119a0d	0.035547305
242	0x3e0b0be5	0.13578756
243	0xbe55ce87	-0.20879565
244	0xbe14e17d	-0.14539142
245	0x3ccf1799	0.025279807
246	0x3d1696ec	0.036765024
247	0x3deee95b	0.11665603
248	0xbdebaa23	-0.115070604
249	0x3d37db6f	0.044887003
250	0x3d0638ef	0.03276914
251	0xbe791138	-0.24322975
252	0x3d32a1fe	0.04361152
253	0x3db36717	0.08759897
254	0xbe14fc03	-0.1454926
255	0x3dd934dd	0.10605786
